<?xml version="1.0" ?>
<net name="U2GE1" version="10">
	<layers>
		<layer id="0" name="0" type="Parameter" version="opset1">
			<data element_type="f32" shape="1,3,320,320"/>
			<output>
				<port id="0" precision="FP32">
					<dim>1</dim>
					<dim>3</dim>
					<dim>320</dim>
					<dim>320</dim>
				</port>
			</output>
		</layer>
		<layer id="1" name="0/reverse_input_channels/Split_input_port_1/value167080_const" type="Const" version="opset1">
			<data element_type="i64" offset="0" shape="" size="8"/>
			<output>
				<port id="1" precision="I64"/>
			</output>
		</layer>
		<layer id="2" name="0/reverse_input_channels/Split" type="Split" version="opset1">
			<data num_splits="3"/>
			<input>
				<port id="0">
					<dim>1</dim>
					<dim>3</dim>
					<dim>320</dim>
					<dim>320</dim>
				</port>
				<port id="1"/>
			</input>
			<output>
				<port id="2" precision="FP32">
					<dim>1</dim>
					<dim>1</dim>
					<dim>320</dim>
					<dim>320</dim>
				</port>
				<port id="3" precision="FP32">
					<dim>1</dim>
					<dim>1</dim>
					<dim>320</dim>
					<dim>320</dim>
				</port>
				<port id="4" precision="FP32">
					<dim>1</dim>
					<dim>1</dim>
					<dim>320</dim>
					<dim>320</dim>
				</port>
			</output>
		</layer>
		<layer id="3" name="0/reverse_input_channels/Concat" type="Concat" version="opset1">
			<data axis="1"/>
			<input>
				<port id="0">
					<dim>1</dim>
					<dim>1</dim>
					<dim>320</dim>
					<dim>320</dim>
				</port>
				<port id="1">
					<dim>1</dim>
					<dim>1</dim>
					<dim>320</dim>
					<dim>320</dim>
				</port>
				<port id="2">
					<dim>1</dim>
					<dim>1</dim>
					<dim>320</dim>
					<dim>320</dim>
				</port>
			</input>
			<output>
				<port id="3" precision="FP32">
					<dim>1</dim>
					<dim>3</dim>
					<dim>320</dim>
					<dim>320</dim>
				</port>
			</output>
		</layer>
		<layer id="4" name="4990/EltwiseUnsqueeze82451_const" type="Const" version="opset1">
			<data element_type="f32" offset="8" shape="1,1,1,1" size="4"/>
			<output>
				<port id="1" precision="FP32">
					<dim>1</dim>
					<dim>1</dim>
					<dim>1</dim>
					<dim>1</dim>
				</port>
			</output>
		</layer>
		<layer id="5" name="Pow_0" type="Power" version="opset1">
			<input>
				<port id="0">
					<dim>1</dim>
					<dim>3</dim>
					<dim>320</dim>
					<dim>320</dim>
				</port>
				<port id="1">
					<dim>1</dim>
					<dim>1</dim>
					<dim>1</dim>
					<dim>1</dim>
				</port>
			</input>
			<output>
				<port id="2" precision="FP32">
					<dim>1</dim>
					<dim>3</dim>
					<dim>320</dim>
					<dim>320</dim>
				</port>
			</output>
		</layer>
		<layer id="6" name="ReduceSum_1/Cast_1182143_const" type="Const" version="opset1">
			<data element_type="i64" offset="12" shape="2" size="16"/>
			<output>
				<port id="1" precision="I64">
					<dim>2</dim>
				</port>
			</output>
		</layer>
		<layer id="7" name="ReduceSum_1" type="ReduceSum" version="opset1">
			<data keep_dims="True"/>
			<input>
				<port id="0">
					<dim>1</dim>
					<dim>3</dim>
					<dim>320</dim>
					<dim>320</dim>
				</port>
				<port id="1">
					<dim>2</dim>
				</port>
			</input>
			<output>
				<port id="2" precision="FP32">
					<dim>1</dim>
					<dim>3</dim>
					<dim>1</dim>
					<dim>1</dim>
				</port>
			</output>
		</layer>
		<layer id="8" name="Constant_2/EltwiseUnsqueeze82455_const" type="Const" version="opset1">
			<data element_type="f32" offset="28" shape="1,1,1,1" size="4"/>
			<output>
				<port id="1" precision="FP32">
					<dim>1</dim>
					<dim>1</dim>
					<dim>1</dim>
					<dim>1</dim>
				</port>
			</output>
		</layer>
		<layer id="9" name="Add_3" type="Add" version="opset1">
			<input>
				<port id="0">
					<dim>1</dim>
					<dim>3</dim>
					<dim>1</dim>
					<dim>1</dim>
				</port>
				<port id="1">
					<dim>1</dim>
					<dim>1</dim>
					<dim>1</dim>
					<dim>1</dim>
				</port>
			</input>
			<output>
				<port id="2" precision="FP32">
					<dim>1</dim>
					<dim>3</dim>
					<dim>1</dim>
					<dim>1</dim>
				</port>
			</output>
		</layer>
		<layer id="10" name="Constant_4/EltwiseUnsqueeze82459_const" type="Const" version="opset1">
			<data element_type="f32" offset="32" shape="1,1,1,1" size="4"/>
			<output>
				<port id="1" precision="FP32">
					<dim>1</dim>
					<dim>1</dim>
					<dim>1</dim>
					<dim>1</dim>
				</port>
			</output>
		</layer>
		<layer id="11" name="Pow_5" type="Power" version="opset1">
			<input>
				<port id="0">
					<dim>1</dim>
					<dim>3</dim>
					<dim>1</dim>
					<dim>1</dim>
				</port>
				<port id="1">
					<dim>1</dim>
					<dim>1</dim>
					<dim>1</dim>
					<dim>1</dim>
				</port>
			</input>
			<output>
				<port id="2" precision="FP32">
					<dim>1</dim>
					<dim>3</dim>
					<dim>1</dim>
					<dim>1</dim>
				</port>
			</output>
		</layer>
		<layer id="12" name="stage1.rebnconvin.gate.alpha/Output_0/Data__const" type="Const" version="opset1">
			<data element_type="f32" offset="36" shape="1,3,1,1" size="12"/>
			<output>
				<port id="1" precision="FP32">
					<dim>1</dim>
					<dim>3</dim>
					<dim>1</dim>
					<dim>1</dim>
				</port>
			</output>
		</layer>
		<layer id="13" name="Mul_6" type="Multiply" version="opset1">
			<input>
				<port id="0">
					<dim>1</dim>
					<dim>3</dim>
					<dim>1</dim>
					<dim>1</dim>
				</port>
				<port id="1">
					<dim>1</dim>
					<dim>3</dim>
					<dim>1</dim>
					<dim>1</dim>
				</port>
			</input>
			<output>
				<port id="2" precision="FP32">
					<dim>1</dim>
					<dim>3</dim>
					<dim>1</dim>
					<dim>1</dim>
				</port>
			</output>
		</layer>
		<layer id="14" name="stage1.rebnconvin.gate.gamma/Output_0/Data__const" type="Const" version="opset1">
			<data element_type="f32" offset="48" shape="1,3,1,1" size="12"/>
			<output>
				<port id="1" precision="FP32">
					<dim>1</dim>
					<dim>3</dim>
					<dim>1</dim>
					<dim>1</dim>
				</port>
			</output>
		</layer>
		<layer id="15" name="4991/EltwiseUnsqueeze82463_const" type="Const" version="opset1">
			<data element_type="f32" offset="8" shape="1,1,1,1" size="4"/>
			<output>
				<port id="1" precision="FP32">
					<dim>1</dim>
					<dim>1</dim>
					<dim>1</dim>
					<dim>1</dim>
				</port>
			</output>
		</layer>
		<layer id="16" name="Pow_7" type="Power" version="opset1">
			<input>
				<port id="0">
					<dim>1</dim>
					<dim>3</dim>
					<dim>1</dim>
					<dim>1</dim>
				</port>
				<port id="1">
					<dim>1</dim>
					<dim>1</dim>
					<dim>1</dim>
					<dim>1</dim>
				</port>
			</input>
			<output>
				<port id="2" precision="FP32">
					<dim>1</dim>
					<dim>3</dim>
					<dim>1</dim>
					<dim>1</dim>
				</port>
			</output>
		</layer>
		<layer id="17" name="ReduceMean_8/Cast_1181283_const" type="Const" version="opset1">
			<data element_type="i64" offset="0" shape="1" size="8"/>
			<output>
				<port id="1" precision="I64">
					<dim>1</dim>
				</port>
			</output>
		</layer>
		<layer id="18" name="ReduceMean_8" type="ReduceMean" version="opset1">
			<data keep_dims="True"/>
			<input>
				<port id="0">
					<dim>1</dim>
					<dim>3</dim>
					<dim>1</dim>
					<dim>1</dim>
				</port>
				<port id="1">
					<dim>1</dim>
				</port>
			</input>
			<output>
				<port id="2" precision="FP32">
					<dim>1</dim>
					<dim>1</dim>
					<dim>1</dim>
					<dim>1</dim>
				</port>
			</output>
		</layer>
		<layer id="19" name="Constant_9/EltwiseUnsqueeze82467_const" type="Const" version="opset1">
			<data element_type="f32" offset="28" shape="1,1,1,1" size="4"/>
			<output>
				<port id="1" precision="FP32">
					<dim>1</dim>
					<dim>1</dim>
					<dim>1</dim>
					<dim>1</dim>
				</port>
			</output>
		</layer>
		<layer id="20" name="Add_10" type="Add" version="opset1">
			<input>
				<port id="0">
					<dim>1</dim>
					<dim>1</dim>
					<dim>1</dim>
					<dim>1</dim>
				</port>
				<port id="1">
					<dim>1</dim>
					<dim>1</dim>
					<dim>1</dim>
					<dim>1</dim>
				</port>
			</input>
			<output>
				<port id="2" precision="FP32">
					<dim>1</dim>
					<dim>1</dim>
					<dim>1</dim>
					<dim>1</dim>
				</port>
			</output>
		</layer>
		<layer id="21" name="Constant_11/EltwiseUnsqueeze82471_const" type="Const" version="opset1">
			<data element_type="f32" offset="32" shape="1,1,1,1" size="4"/>
			<output>
				<port id="1" precision="FP32">
					<dim>1</dim>
					<dim>1</dim>
					<dim>1</dim>
					<dim>1</dim>
				</port>
			</output>
		</layer>
		<layer id="22" name="Pow_12" type="Power" version="opset1">
			<input>
				<port id="0">
					<dim>1</dim>
					<dim>1</dim>
					<dim>1</dim>
					<dim>1</dim>
				</port>
				<port id="1">
					<dim>1</dim>
					<dim>1</dim>
					<dim>1</dim>
					<dim>1</dim>
				</port>
			</input>
			<output>
				<port id="2" precision="FP32">
					<dim>1</dim>
					<dim>1</dim>
					<dim>1</dim>
					<dim>1</dim>
				</port>
			</output>
		</layer>
		<layer id="23" name="Div_13/reciprocal__input_port_1/value7285682112/EltwiseUnsqueeze85615_const" type="Const" version="opset1">
			<data element_type="f32" offset="60" shape="1,1,1,1" size="4"/>
			<output>
				<port id="1" precision="FP32">
					<dim>1</dim>
					<dim>1</dim>
					<dim>1</dim>
					<dim>1</dim>
				</port>
			</output>
		</layer>
		<layer id="24" name="Div_13/reciprocal_" type="Power" version="opset1">
			<input>
				<port id="0">
					<dim>1</dim>
					<dim>1</dim>
					<dim>1</dim>
					<dim>1</dim>
				</port>
				<port id="1">
					<dim>1</dim>
					<dim>1</dim>
					<dim>1</dim>
					<dim>1</dim>
				</port>
			</input>
			<output>
				<port id="2" precision="FP32">
					<dim>1</dim>
					<dim>1</dim>
					<dim>1</dim>
					<dim>1</dim>
				</port>
			</output>
		</layer>
		<layer id="25" name="Div_13" type="Multiply" version="opset1">
			<input>
				<port id="0">
					<dim>1</dim>
					<dim>3</dim>
					<dim>1</dim>
					<dim>1</dim>
				</port>
				<port id="1">
					<dim>1</dim>
					<dim>1</dim>
					<dim>1</dim>
					<dim>1</dim>
				</port>
			</input>
			<output>
				<port id="2" precision="FP32">
					<dim>1</dim>
					<dim>3</dim>
					<dim>1</dim>
					<dim>1</dim>
				</port>
			</output>
		</layer>
		<layer id="26" name="Mul_14" type="Multiply" version="opset1">
			<input>
				<port id="0">
					<dim>1</dim>
					<dim>3</dim>
					<dim>1</dim>
					<dim>1</dim>
				</port>
				<port id="1">
					<dim>1</dim>
					<dim>3</dim>
					<dim>1</dim>
					<dim>1</dim>
				</port>
			</input>
			<output>
				<port id="2" precision="FP32">
					<dim>1</dim>
					<dim>3</dim>
					<dim>1</dim>
					<dim>1</dim>
				</port>
			</output>
		</layer>
		<layer id="27" name="stage1.rebnconvin.gate.beta/Output_0/Data__const" type="Const" version="opset1">
			<data element_type="f32" offset="64" shape="1,3,1,1" size="12"/>
			<output>
				<port id="1" precision="FP32">
					<dim>1</dim>
					<dim>3</dim>
					<dim>1</dim>
					<dim>1</dim>
				</port>
			</output>
		</layer>
		<layer id="28" name="Add_15" type="Add" version="opset1">
			<input>
				<port id="0">
					<dim>1</dim>
					<dim>3</dim>
					<dim>1</dim>
					<dim>1</dim>
				</port>
				<port id="1">
					<dim>1</dim>
					<dim>3</dim>
					<dim>1</dim>
					<dim>1</dim>
				</port>
			</input>
			<output>
				<port id="2" precision="FP32">
					<dim>1</dim>
					<dim>3</dim>
					<dim>1</dim>
					<dim>1</dim>
				</port>
			</output>
		</layer>
		<layer id="29" name="Tanh_16" type="Tanh" version="opset1">
			<input>
				<port id="0">
					<dim>1</dim>
					<dim>3</dim>
					<dim>1</dim>
					<dim>1</dim>
				</port>
			</input>
			<output>
				<port id="1" precision="FP32">
					<dim>1</dim>
					<dim>3</dim>
					<dim>1</dim>
					<dim>1</dim>
				</port>
			</output>
		</layer>
		<layer id="30" name="Constant_17/EltwiseUnsqueeze82475_const" type="Const" version="opset1">
			<data element_type="f32" offset="76" shape="1,1,1,1" size="4"/>
			<output>
				<port id="1" precision="FP32">
					<dim>1</dim>
					<dim>1</dim>
					<dim>1</dim>
					<dim>1</dim>
				</port>
			</output>
		</layer>
		<layer id="31" name="Add_18" type="Add" version="opset1">
			<input>
				<port id="0">
					<dim>1</dim>
					<dim>3</dim>
					<dim>1</dim>
					<dim>1</dim>
				</port>
				<port id="1">
					<dim>1</dim>
					<dim>1</dim>
					<dim>1</dim>
					<dim>1</dim>
				</port>
			</input>
			<output>
				<port id="2" precision="FP32">
					<dim>1</dim>
					<dim>3</dim>
					<dim>1</dim>
					<dim>1</dim>
				</port>
			</output>
		</layer>
		<layer id="32" name="Mul_19" type="Multiply" version="opset1">
			<input>
				<port id="0">
					<dim>1</dim>
					<dim>3</dim>
					<dim>320</dim>
					<dim>320</dim>
				</port>
				<port id="1">
					<dim>1</dim>
					<dim>3</dim>
					<dim>1</dim>
					<dim>1</dim>
				</port>
			</input>
			<output>
				<port id="2" precision="FP32">
					<dim>1</dim>
					<dim>3</dim>
					<dim>320</dim>
					<dim>320</dim>
				</port>
			</output>
		</layer>
		<layer id="33" name="BatchNormalization_21/mean/Fused_Mul_8940989411_const" type="Const" version="opset1">
			<data element_type="f32" offset="80" shape="64,3,3,3" size="6912"/>
			<output>
				<port id="1" precision="FP32">
					<dim>64</dim>
					<dim>3</dim>
					<dim>3</dim>
					<dim>3</dim>
				</port>
			</output>
		</layer>
		<layer id="34" name="Conv_20/WithoutBiases" type="Convolution" version="opset1">
			<data dilations="1,1" output_padding="0,0" pads_begin="1,1" pads_end="1,1" strides="1,1"/>
			<input>
				<port id="0">
					<dim>1</dim>
					<dim>3</dim>
					<dim>320</dim>
					<dim>320</dim>
				</port>
				<port id="1">
					<dim>64</dim>
					<dim>3</dim>
					<dim>3</dim>
					<dim>3</dim>
				</port>
			</input>
			<output>
				<port id="2" precision="FP32">
					<dim>1</dim>
					<dim>64</dim>
					<dim>320</dim>
					<dim>320</dim>
				</port>
			</output>
		</layer>
		<layer id="35" name="data_add_7910682225/EltwiseUnsqueeze86067_const" type="Const" version="opset1">
			<data element_type="f32" offset="6992" shape="1,64,1,1" size="256"/>
			<output>
				<port id="1" precision="FP32">
					<dim>1</dim>
					<dim>64</dim>
					<dim>1</dim>
					<dim>1</dim>
				</port>
			</output>
		</layer>
		<layer id="36" name="Conv_20/Fused_Add_" type="Add" version="opset1">
			<input>
				<port id="0">
					<dim>1</dim>
					<dim>64</dim>
					<dim>320</dim>
					<dim>320</dim>
				</port>
				<port id="1">
					<dim>1</dim>
					<dim>64</dim>
					<dim>1</dim>
					<dim>1</dim>
				</port>
			</input>
			<output>
				<port id="2" precision="FP32">
					<dim>1</dim>
					<dim>64</dim>
					<dim>320</dim>
					<dim>320</dim>
				</port>
			</output>
		</layer>
		<layer id="37" name="Relu_22" type="ReLU" version="opset1">
			<input>
				<port id="0">
					<dim>1</dim>
					<dim>64</dim>
					<dim>320</dim>
					<dim>320</dim>
				</port>
			</input>
			<output>
				<port id="1" precision="FP32">
					<dim>1</dim>
					<dim>64</dim>
					<dim>320</dim>
					<dim>320</dim>
				</port>
			</output>
		</layer>
		<layer id="38" name="4992/EltwiseUnsqueeze82479_const" type="Const" version="opset1">
			<data element_type="f32" offset="8" shape="1,1,1,1" size="4"/>
			<output>
				<port id="1" precision="FP32">
					<dim>1</dim>
					<dim>1</dim>
					<dim>1</dim>
					<dim>1</dim>
				</port>
			</output>
		</layer>
		<layer id="39" name="Pow_23" type="Power" version="opset1">
			<input>
				<port id="0">
					<dim>1</dim>
					<dim>64</dim>
					<dim>320</dim>
					<dim>320</dim>
				</port>
				<port id="1">
					<dim>1</dim>
					<dim>1</dim>
					<dim>1</dim>
					<dim>1</dim>
				</port>
			</input>
			<output>
				<port id="2" precision="FP32">
					<dim>1</dim>
					<dim>64</dim>
					<dim>320</dim>
					<dim>320</dim>
				</port>
			</output>
		</layer>
		<layer id="40" name="ReduceSum_24/Cast_1181605_const" type="Const" version="opset1">
			<data element_type="i64" offset="12" shape="2" size="16"/>
			<output>
				<port id="1" precision="I64">
					<dim>2</dim>
				</port>
			</output>
		</layer>
		<layer id="41" name="ReduceSum_24" type="ReduceSum" version="opset1">
			<data keep_dims="True"/>
			<input>
				<port id="0">
					<dim>1</dim>
					<dim>64</dim>
					<dim>320</dim>
					<dim>320</dim>
				</port>
				<port id="1">
					<dim>2</dim>
				</port>
			</input>
			<output>
				<port id="2" precision="FP32">
					<dim>1</dim>
					<dim>64</dim>
					<dim>1</dim>
					<dim>1</dim>
				</port>
			</output>
		</layer>
		<layer id="42" name="Constant_25/EltwiseUnsqueeze82483_const" type="Const" version="opset1">
			<data element_type="f32" offset="28" shape="1,1,1,1" size="4"/>
			<output>
				<port id="1" precision="FP32">
					<dim>1</dim>
					<dim>1</dim>
					<dim>1</dim>
					<dim>1</dim>
				</port>
			</output>
		</layer>
		<layer id="43" name="Add_26" type="Add" version="opset1">
			<input>
				<port id="0">
					<dim>1</dim>
					<dim>64</dim>
					<dim>1</dim>
					<dim>1</dim>
				</port>
				<port id="1">
					<dim>1</dim>
					<dim>1</dim>
					<dim>1</dim>
					<dim>1</dim>
				</port>
			</input>
			<output>
				<port id="2" precision="FP32">
					<dim>1</dim>
					<dim>64</dim>
					<dim>1</dim>
					<dim>1</dim>
				</port>
			</output>
		</layer>
		<layer id="44" name="Constant_27/EltwiseUnsqueeze82487_const" type="Const" version="opset1">
			<data element_type="f32" offset="32" shape="1,1,1,1" size="4"/>
			<output>
				<port id="1" precision="FP32">
					<dim>1</dim>
					<dim>1</dim>
					<dim>1</dim>
					<dim>1</dim>
				</port>
			</output>
		</layer>
		<layer id="45" name="Pow_28" type="Power" version="opset1">
			<input>
				<port id="0">
					<dim>1</dim>
					<dim>64</dim>
					<dim>1</dim>
					<dim>1</dim>
				</port>
				<port id="1">
					<dim>1</dim>
					<dim>1</dim>
					<dim>1</dim>
					<dim>1</dim>
				</port>
			</input>
			<output>
				<port id="2" precision="FP32">
					<dim>1</dim>
					<dim>64</dim>
					<dim>1</dim>
					<dim>1</dim>
				</port>
			</output>
		</layer>
		<layer id="46" name="stage1.rebnconv1.gate.alpha/Output_0/Data__const" type="Const" version="opset1">
			<data element_type="f32" offset="7248" shape="1,64,1,1" size="256"/>
			<output>
				<port id="1" precision="FP32">
					<dim>1</dim>
					<dim>64</dim>
					<dim>1</dim>
					<dim>1</dim>
				</port>
			</output>
		</layer>
		<layer id="47" name="Mul_29" type="Multiply" version="opset1">
			<input>
				<port id="0">
					<dim>1</dim>
					<dim>64</dim>
					<dim>1</dim>
					<dim>1</dim>
				</port>
				<port id="1">
					<dim>1</dim>
					<dim>64</dim>
					<dim>1</dim>
					<dim>1</dim>
				</port>
			</input>
			<output>
				<port id="2" precision="FP32">
					<dim>1</dim>
					<dim>64</dim>
					<dim>1</dim>
					<dim>1</dim>
				</port>
			</output>
		</layer>
		<layer id="48" name="stage1.rebnconv1.gate.gamma/Output_0/Data__const" type="Const" version="opset1">
			<data element_type="f32" offset="7504" shape="1,64,1,1" size="256"/>
			<output>
				<port id="1" precision="FP32">
					<dim>1</dim>
					<dim>64</dim>
					<dim>1</dim>
					<dim>1</dim>
				</port>
			</output>
		</layer>
		<layer id="49" name="4993/EltwiseUnsqueeze82491_const" type="Const" version="opset1">
			<data element_type="f32" offset="8" shape="1,1,1,1" size="4"/>
			<output>
				<port id="1" precision="FP32">
					<dim>1</dim>
					<dim>1</dim>
					<dim>1</dim>
					<dim>1</dim>
				</port>
			</output>
		</layer>
		<layer id="50" name="Pow_30" type="Power" version="opset1">
			<input>
				<port id="0">
					<dim>1</dim>
					<dim>64</dim>
					<dim>1</dim>
					<dim>1</dim>
				</port>
				<port id="1">
					<dim>1</dim>
					<dim>1</dim>
					<dim>1</dim>
					<dim>1</dim>
				</port>
			</input>
			<output>
				<port id="2" precision="FP32">
					<dim>1</dim>
					<dim>64</dim>
					<dim>1</dim>
					<dim>1</dim>
				</port>
			</output>
		</layer>
		<layer id="51" name="ReduceMean_31/Cast_1182339_const" type="Const" version="opset1">
			<data element_type="i64" offset="0" shape="1" size="8"/>
			<output>
				<port id="1" precision="I64">
					<dim>1</dim>
				</port>
			</output>
		</layer>
		<layer id="52" name="ReduceMean_31" type="ReduceMean" version="opset1">
			<data keep_dims="True"/>
			<input>
				<port id="0">
					<dim>1</dim>
					<dim>64</dim>
					<dim>1</dim>
					<dim>1</dim>
				</port>
				<port id="1">
					<dim>1</dim>
				</port>
			</input>
			<output>
				<port id="2" precision="FP32">
					<dim>1</dim>
					<dim>1</dim>
					<dim>1</dim>
					<dim>1</dim>
				</port>
			</output>
		</layer>
		<layer id="53" name="Constant_32/EltwiseUnsqueeze82495_const" type="Const" version="opset1">
			<data element_type="f32" offset="28" shape="1,1,1,1" size="4"/>
			<output>
				<port id="1" precision="FP32">
					<dim>1</dim>
					<dim>1</dim>
					<dim>1</dim>
					<dim>1</dim>
				</port>
			</output>
		</layer>
		<layer id="54" name="Add_33" type="Add" version="opset1">
			<input>
				<port id="0">
					<dim>1</dim>
					<dim>1</dim>
					<dim>1</dim>
					<dim>1</dim>
				</port>
				<port id="1">
					<dim>1</dim>
					<dim>1</dim>
					<dim>1</dim>
					<dim>1</dim>
				</port>
			</input>
			<output>
				<port id="2" precision="FP32">
					<dim>1</dim>
					<dim>1</dim>
					<dim>1</dim>
					<dim>1</dim>
				</port>
			</output>
		</layer>
		<layer id="55" name="Constant_34/EltwiseUnsqueeze82499_const" type="Const" version="opset1">
			<data element_type="f32" offset="32" shape="1,1,1,1" size="4"/>
			<output>
				<port id="1" precision="FP32">
					<dim>1</dim>
					<dim>1</dim>
					<dim>1</dim>
					<dim>1</dim>
				</port>
			</output>
		</layer>
		<layer id="56" name="Pow_35" type="Power" version="opset1">
			<input>
				<port id="0">
					<dim>1</dim>
					<dim>1</dim>
					<dim>1</dim>
					<dim>1</dim>
				</port>
				<port id="1">
					<dim>1</dim>
					<dim>1</dim>
					<dim>1</dim>
					<dim>1</dim>
				</port>
			</input>
			<output>
				<port id="2" precision="FP32">
					<dim>1</dim>
					<dim>1</dim>
					<dim>1</dim>
					<dim>1</dim>
				</port>
			</output>
		</layer>
		<layer id="57" name="Div_36/reciprocal__input_port_1/value7286282113/EltwiseUnsqueeze85619_const" type="Const" version="opset1">
			<data element_type="f32" offset="60" shape="1,1,1,1" size="4"/>
			<output>
				<port id="1" precision="FP32">
					<dim>1</dim>
					<dim>1</dim>
					<dim>1</dim>
					<dim>1</dim>
				</port>
			</output>
		</layer>
		<layer id="58" name="Div_36/reciprocal_" type="Power" version="opset1">
			<input>
				<port id="0">
					<dim>1</dim>
					<dim>1</dim>
					<dim>1</dim>
					<dim>1</dim>
				</port>
				<port id="1">
					<dim>1</dim>
					<dim>1</dim>
					<dim>1</dim>
					<dim>1</dim>
				</port>
			</input>
			<output>
				<port id="2" precision="FP32">
					<dim>1</dim>
					<dim>1</dim>
					<dim>1</dim>
					<dim>1</dim>
				</port>
			</output>
		</layer>
		<layer id="59" name="Div_36" type="Multiply" version="opset1">
			<input>
				<port id="0">
					<dim>1</dim>
					<dim>64</dim>
					<dim>1</dim>
					<dim>1</dim>
				</port>
				<port id="1">
					<dim>1</dim>
					<dim>1</dim>
					<dim>1</dim>
					<dim>1</dim>
				</port>
			</input>
			<output>
				<port id="2" precision="FP32">
					<dim>1</dim>
					<dim>64</dim>
					<dim>1</dim>
					<dim>1</dim>
				</port>
			</output>
		</layer>
		<layer id="60" name="Mul_37" type="Multiply" version="opset1">
			<input>
				<port id="0">
					<dim>1</dim>
					<dim>64</dim>
					<dim>1</dim>
					<dim>1</dim>
				</port>
				<port id="1">
					<dim>1</dim>
					<dim>64</dim>
					<dim>1</dim>
					<dim>1</dim>
				</port>
			</input>
			<output>
				<port id="2" precision="FP32">
					<dim>1</dim>
					<dim>64</dim>
					<dim>1</dim>
					<dim>1</dim>
				</port>
			</output>
		</layer>
		<layer id="61" name="stage1.rebnconv1.gate.beta/Output_0/Data__const" type="Const" version="opset1">
			<data element_type="f32" offset="7760" shape="1,64,1,1" size="256"/>
			<output>
				<port id="1" precision="FP32">
					<dim>1</dim>
					<dim>64</dim>
					<dim>1</dim>
					<dim>1</dim>
				</port>
			</output>
		</layer>
		<layer id="62" name="Add_38" type="Add" version="opset1">
			<input>
				<port id="0">
					<dim>1</dim>
					<dim>64</dim>
					<dim>1</dim>
					<dim>1</dim>
				</port>
				<port id="1">
					<dim>1</dim>
					<dim>64</dim>
					<dim>1</dim>
					<dim>1</dim>
				</port>
			</input>
			<output>
				<port id="2" precision="FP32">
					<dim>1</dim>
					<dim>64</dim>
					<dim>1</dim>
					<dim>1</dim>
				</port>
			</output>
		</layer>
		<layer id="63" name="Tanh_39" type="Tanh" version="opset1">
			<input>
				<port id="0">
					<dim>1</dim>
					<dim>64</dim>
					<dim>1</dim>
					<dim>1</dim>
				</port>
			</input>
			<output>
				<port id="1" precision="FP32">
					<dim>1</dim>
					<dim>64</dim>
					<dim>1</dim>
					<dim>1</dim>
				</port>
			</output>
		</layer>
		<layer id="64" name="Constant_40/EltwiseUnsqueeze82503_const" type="Const" version="opset1">
			<data element_type="f32" offset="76" shape="1,1,1,1" size="4"/>
			<output>
				<port id="1" precision="FP32">
					<dim>1</dim>
					<dim>1</dim>
					<dim>1</dim>
					<dim>1</dim>
				</port>
			</output>
		</layer>
		<layer id="65" name="Add_41" type="Add" version="opset1">
			<input>
				<port id="0">
					<dim>1</dim>
					<dim>64</dim>
					<dim>1</dim>
					<dim>1</dim>
				</port>
				<port id="1">
					<dim>1</dim>
					<dim>1</dim>
					<dim>1</dim>
					<dim>1</dim>
				</port>
			</input>
			<output>
				<port id="2" precision="FP32">
					<dim>1</dim>
					<dim>64</dim>
					<dim>1</dim>
					<dim>1</dim>
				</port>
			</output>
		</layer>
		<layer id="66" name="Mul_42" type="Multiply" version="opset1">
			<input>
				<port id="0">
					<dim>1</dim>
					<dim>64</dim>
					<dim>320</dim>
					<dim>320</dim>
				</port>
				<port id="1">
					<dim>1</dim>
					<dim>64</dim>
					<dim>1</dim>
					<dim>1</dim>
				</port>
			</input>
			<output>
				<port id="2" precision="FP32">
					<dim>1</dim>
					<dim>64</dim>
					<dim>320</dim>
					<dim>320</dim>
				</port>
			</output>
		</layer>
		<layer id="67" name="BatchNormalization_44/mean/Fused_Mul_8941389415_const" type="Const" version="opset1">
			<data element_type="f32" offset="8016" shape="16,64,3,3" size="36864"/>
			<output>
				<port id="1" precision="FP32">
					<dim>16</dim>
					<dim>64</dim>
					<dim>3</dim>
					<dim>3</dim>
				</port>
			</output>
		</layer>
		<layer id="68" name="Conv_43/WithoutBiases" type="Convolution" version="opset1">
			<data dilations="1,1" output_padding="0,0" pads_begin="1,1" pads_end="1,1" strides="1,1"/>
			<input>
				<port id="0">
					<dim>1</dim>
					<dim>64</dim>
					<dim>320</dim>
					<dim>320</dim>
				</port>
				<port id="1">
					<dim>16</dim>
					<dim>64</dim>
					<dim>3</dim>
					<dim>3</dim>
				</port>
			</input>
			<output>
				<port id="2" precision="FP32">
					<dim>1</dim>
					<dim>16</dim>
					<dim>320</dim>
					<dim>320</dim>
				</port>
			</output>
		</layer>
		<layer id="69" name="data_add_791097911482227/EltwiseUnsqueeze86075_const" type="Const" version="opset1">
			<data element_type="f32" offset="44880" shape="1,16,1,1" size="64"/>
			<output>
				<port id="1" precision="FP32">
					<dim>1</dim>
					<dim>16</dim>
					<dim>1</dim>
					<dim>1</dim>
				</port>
			</output>
		</layer>
		<layer id="70" name="Conv_43/Fused_Add_" type="Add" version="opset1">
			<input>
				<port id="0">
					<dim>1</dim>
					<dim>16</dim>
					<dim>320</dim>
					<dim>320</dim>
				</port>
				<port id="1">
					<dim>1</dim>
					<dim>16</dim>
					<dim>1</dim>
					<dim>1</dim>
				</port>
			</input>
			<output>
				<port id="2" precision="FP32">
					<dim>1</dim>
					<dim>16</dim>
					<dim>320</dim>
					<dim>320</dim>
				</port>
			</output>
		</layer>
		<layer id="71" name="Relu_45" type="ReLU" version="opset1">
			<input>
				<port id="0">
					<dim>1</dim>
					<dim>16</dim>
					<dim>320</dim>
					<dim>320</dim>
				</port>
			</input>
			<output>
				<port id="1" precision="FP32">
					<dim>1</dim>
					<dim>16</dim>
					<dim>320</dim>
					<dim>320</dim>
				</port>
			</output>
		</layer>
		<layer id="72" name="MaxPool_46" type="MaxPool" version="opset1">
			<data kernel="2,2" pads_begin="0,0" pads_end="0,0" rounding_type="ceil" strides="2,2"/>
			<input>
				<port id="0">
					<dim>1</dim>
					<dim>16</dim>
					<dim>320</dim>
					<dim>320</dim>
				</port>
			</input>
			<output>
				<port id="1" precision="FP32">
					<dim>1</dim>
					<dim>16</dim>
					<dim>160</dim>
					<dim>160</dim>
				</port>
			</output>
		</layer>
		<layer id="73" name="4994/EltwiseUnsqueeze82507_const" type="Const" version="opset1">
			<data element_type="f32" offset="8" shape="1,1,1,1" size="4"/>
			<output>
				<port id="1" precision="FP32">
					<dim>1</dim>
					<dim>1</dim>
					<dim>1</dim>
					<dim>1</dim>
				</port>
			</output>
		</layer>
		<layer id="74" name="Pow_47" type="Power" version="opset1">
			<input>
				<port id="0">
					<dim>1</dim>
					<dim>16</dim>
					<dim>160</dim>
					<dim>160</dim>
				</port>
				<port id="1">
					<dim>1</dim>
					<dim>1</dim>
					<dim>1</dim>
					<dim>1</dim>
				</port>
			</input>
			<output>
				<port id="2" precision="FP32">
					<dim>1</dim>
					<dim>16</dim>
					<dim>160</dim>
					<dim>160</dim>
				</port>
			</output>
		</layer>
		<layer id="75" name="ReduceSum_48/Cast_1182201_const" type="Const" version="opset1">
			<data element_type="i64" offset="12" shape="2" size="16"/>
			<output>
				<port id="1" precision="I64">
					<dim>2</dim>
				</port>
			</output>
		</layer>
		<layer id="76" name="ReduceSum_48" type="ReduceSum" version="opset1">
			<data keep_dims="True"/>
			<input>
				<port id="0">
					<dim>1</dim>
					<dim>16</dim>
					<dim>160</dim>
					<dim>160</dim>
				</port>
				<port id="1">
					<dim>2</dim>
				</port>
			</input>
			<output>
				<port id="2" precision="FP32">
					<dim>1</dim>
					<dim>16</dim>
					<dim>1</dim>
					<dim>1</dim>
				</port>
			</output>
		</layer>
		<layer id="77" name="Constant_49/EltwiseUnsqueeze82511_const" type="Const" version="opset1">
			<data element_type="f32" offset="28" shape="1,1,1,1" size="4"/>
			<output>
				<port id="1" precision="FP32">
					<dim>1</dim>
					<dim>1</dim>
					<dim>1</dim>
					<dim>1</dim>
				</port>
			</output>
		</layer>
		<layer id="78" name="Add_50" type="Add" version="opset1">
			<input>
				<port id="0">
					<dim>1</dim>
					<dim>16</dim>
					<dim>1</dim>
					<dim>1</dim>
				</port>
				<port id="1">
					<dim>1</dim>
					<dim>1</dim>
					<dim>1</dim>
					<dim>1</dim>
				</port>
			</input>
			<output>
				<port id="2" precision="FP32">
					<dim>1</dim>
					<dim>16</dim>
					<dim>1</dim>
					<dim>1</dim>
				</port>
			</output>
		</layer>
		<layer id="79" name="Constant_51/EltwiseUnsqueeze82515_const" type="Const" version="opset1">
			<data element_type="f32" offset="32" shape="1,1,1,1" size="4"/>
			<output>
				<port id="1" precision="FP32">
					<dim>1</dim>
					<dim>1</dim>
					<dim>1</dim>
					<dim>1</dim>
				</port>
			</output>
		</layer>
		<layer id="80" name="Pow_52" type="Power" version="opset1">
			<input>
				<port id="0">
					<dim>1</dim>
					<dim>16</dim>
					<dim>1</dim>
					<dim>1</dim>
				</port>
				<port id="1">
					<dim>1</dim>
					<dim>1</dim>
					<dim>1</dim>
					<dim>1</dim>
				</port>
			</input>
			<output>
				<port id="2" precision="FP32">
					<dim>1</dim>
					<dim>16</dim>
					<dim>1</dim>
					<dim>1</dim>
				</port>
			</output>
		</layer>
		<layer id="81" name="stage1.rebnconv2.gate.alpha/Output_0/Data__const" type="Const" version="opset1">
			<data element_type="f32" offset="44944" shape="1,16,1,1" size="64"/>
			<output>
				<port id="1" precision="FP32">
					<dim>1</dim>
					<dim>16</dim>
					<dim>1</dim>
					<dim>1</dim>
				</port>
			</output>
		</layer>
		<layer id="82" name="Mul_53" type="Multiply" version="opset1">
			<input>
				<port id="0">
					<dim>1</dim>
					<dim>16</dim>
					<dim>1</dim>
					<dim>1</dim>
				</port>
				<port id="1">
					<dim>1</dim>
					<dim>16</dim>
					<dim>1</dim>
					<dim>1</dim>
				</port>
			</input>
			<output>
				<port id="2" precision="FP32">
					<dim>1</dim>
					<dim>16</dim>
					<dim>1</dim>
					<dim>1</dim>
				</port>
			</output>
		</layer>
		<layer id="83" name="stage1.rebnconv2.gate.gamma/Output_0/Data__const" type="Const" version="opset1">
			<data element_type="f32" offset="45008" shape="1,16,1,1" size="64"/>
			<output>
				<port id="1" precision="FP32">
					<dim>1</dim>
					<dim>16</dim>
					<dim>1</dim>
					<dim>1</dim>
				</port>
			</output>
		</layer>
		<layer id="84" name="4995/EltwiseUnsqueeze82519_const" type="Const" version="opset1">
			<data element_type="f32" offset="8" shape="1,1,1,1" size="4"/>
			<output>
				<port id="1" precision="FP32">
					<dim>1</dim>
					<dim>1</dim>
					<dim>1</dim>
					<dim>1</dim>
				</port>
			</output>
		</layer>
		<layer id="85" name="Pow_54" type="Power" version="opset1">
			<input>
				<port id="0">
					<dim>1</dim>
					<dim>16</dim>
					<dim>1</dim>
					<dim>1</dim>
				</port>
				<port id="1">
					<dim>1</dim>
					<dim>1</dim>
					<dim>1</dim>
					<dim>1</dim>
				</port>
			</input>
			<output>
				<port id="2" precision="FP32">
					<dim>1</dim>
					<dim>16</dim>
					<dim>1</dim>
					<dim>1</dim>
				</port>
			</output>
		</layer>
		<layer id="86" name="ReduceMean_55/Cast_1182245_const" type="Const" version="opset1">
			<data element_type="i64" offset="0" shape="1" size="8"/>
			<output>
				<port id="1" precision="I64">
					<dim>1</dim>
				</port>
			</output>
		</layer>
		<layer id="87" name="ReduceMean_55" type="ReduceMean" version="opset1">
			<data keep_dims="True"/>
			<input>
				<port id="0">
					<dim>1</dim>
					<dim>16</dim>
					<dim>1</dim>
					<dim>1</dim>
				</port>
				<port id="1">
					<dim>1</dim>
				</port>
			</input>
			<output>
				<port id="2" precision="FP32">
					<dim>1</dim>
					<dim>1</dim>
					<dim>1</dim>
					<dim>1</dim>
				</port>
			</output>
		</layer>
		<layer id="88" name="Constant_56/EltwiseUnsqueeze82523_const" type="Const" version="opset1">
			<data element_type="f32" offset="28" shape="1,1,1,1" size="4"/>
			<output>
				<port id="1" precision="FP32">
					<dim>1</dim>
					<dim>1</dim>
					<dim>1</dim>
					<dim>1</dim>
				</port>
			</output>
		</layer>
		<layer id="89" name="Add_57" type="Add" version="opset1">
			<input>
				<port id="0">
					<dim>1</dim>
					<dim>1</dim>
					<dim>1</dim>
					<dim>1</dim>
				</port>
				<port id="1">
					<dim>1</dim>
					<dim>1</dim>
					<dim>1</dim>
					<dim>1</dim>
				</port>
			</input>
			<output>
				<port id="2" precision="FP32">
					<dim>1</dim>
					<dim>1</dim>
					<dim>1</dim>
					<dim>1</dim>
				</port>
			</output>
		</layer>
		<layer id="90" name="Constant_58/EltwiseUnsqueeze82527_const" type="Const" version="opset1">
			<data element_type="f32" offset="32" shape="1,1,1,1" size="4"/>
			<output>
				<port id="1" precision="FP32">
					<dim>1</dim>
					<dim>1</dim>
					<dim>1</dim>
					<dim>1</dim>
				</port>
			</output>
		</layer>
		<layer id="91" name="Pow_59" type="Power" version="opset1">
			<input>
				<port id="0">
					<dim>1</dim>
					<dim>1</dim>
					<dim>1</dim>
					<dim>1</dim>
				</port>
				<port id="1">
					<dim>1</dim>
					<dim>1</dim>
					<dim>1</dim>
					<dim>1</dim>
				</port>
			</input>
			<output>
				<port id="2" precision="FP32">
					<dim>1</dim>
					<dim>1</dim>
					<dim>1</dim>
					<dim>1</dim>
				</port>
			</output>
		</layer>
		<layer id="92" name="Div_60/reciprocal__input_port_1/value7286882114/EltwiseUnsqueeze85623_const" type="Const" version="opset1">
			<data element_type="f32" offset="60" shape="1,1,1,1" size="4"/>
			<output>
				<port id="1" precision="FP32">
					<dim>1</dim>
					<dim>1</dim>
					<dim>1</dim>
					<dim>1</dim>
				</port>
			</output>
		</layer>
		<layer id="93" name="Div_60/reciprocal_" type="Power" version="opset1">
			<input>
				<port id="0">
					<dim>1</dim>
					<dim>1</dim>
					<dim>1</dim>
					<dim>1</dim>
				</port>
				<port id="1">
					<dim>1</dim>
					<dim>1</dim>
					<dim>1</dim>
					<dim>1</dim>
				</port>
			</input>
			<output>
				<port id="2" precision="FP32">
					<dim>1</dim>
					<dim>1</dim>
					<dim>1</dim>
					<dim>1</dim>
				</port>
			</output>
		</layer>
		<layer id="94" name="Div_60" type="Multiply" version="opset1">
			<input>
				<port id="0">
					<dim>1</dim>
					<dim>16</dim>
					<dim>1</dim>
					<dim>1</dim>
				</port>
				<port id="1">
					<dim>1</dim>
					<dim>1</dim>
					<dim>1</dim>
					<dim>1</dim>
				</port>
			</input>
			<output>
				<port id="2" precision="FP32">
					<dim>1</dim>
					<dim>16</dim>
					<dim>1</dim>
					<dim>1</dim>
				</port>
			</output>
		</layer>
		<layer id="95" name="Mul_61" type="Multiply" version="opset1">
			<input>
				<port id="0">
					<dim>1</dim>
					<dim>16</dim>
					<dim>1</dim>
					<dim>1</dim>
				</port>
				<port id="1">
					<dim>1</dim>
					<dim>16</dim>
					<dim>1</dim>
					<dim>1</dim>
				</port>
			</input>
			<output>
				<port id="2" precision="FP32">
					<dim>1</dim>
					<dim>16</dim>
					<dim>1</dim>
					<dim>1</dim>
				</port>
			</output>
		</layer>
		<layer id="96" name="stage1.rebnconv2.gate.beta/Output_0/Data__const" type="Const" version="opset1">
			<data element_type="f32" offset="45072" shape="1,16,1,1" size="64"/>
			<output>
				<port id="1" precision="FP32">
					<dim>1</dim>
					<dim>16</dim>
					<dim>1</dim>
					<dim>1</dim>
				</port>
			</output>
		</layer>
		<layer id="97" name="Add_62" type="Add" version="opset1">
			<input>
				<port id="0">
					<dim>1</dim>
					<dim>16</dim>
					<dim>1</dim>
					<dim>1</dim>
				</port>
				<port id="1">
					<dim>1</dim>
					<dim>16</dim>
					<dim>1</dim>
					<dim>1</dim>
				</port>
			</input>
			<output>
				<port id="2" precision="FP32">
					<dim>1</dim>
					<dim>16</dim>
					<dim>1</dim>
					<dim>1</dim>
				</port>
			</output>
		</layer>
		<layer id="98" name="Tanh_63" type="Tanh" version="opset1">
			<input>
				<port id="0">
					<dim>1</dim>
					<dim>16</dim>
					<dim>1</dim>
					<dim>1</dim>
				</port>
			</input>
			<output>
				<port id="1" precision="FP32">
					<dim>1</dim>
					<dim>16</dim>
					<dim>1</dim>
					<dim>1</dim>
				</port>
			</output>
		</layer>
		<layer id="99" name="Constant_64/EltwiseUnsqueeze82531_const" type="Const" version="opset1">
			<data element_type="f32" offset="76" shape="1,1,1,1" size="4"/>
			<output>
				<port id="1" precision="FP32">
					<dim>1</dim>
					<dim>1</dim>
					<dim>1</dim>
					<dim>1</dim>
				</port>
			</output>
		</layer>
		<layer id="100" name="Add_65" type="Add" version="opset1">
			<input>
				<port id="0">
					<dim>1</dim>
					<dim>16</dim>
					<dim>1</dim>
					<dim>1</dim>
				</port>
				<port id="1">
					<dim>1</dim>
					<dim>1</dim>
					<dim>1</dim>
					<dim>1</dim>
				</port>
			</input>
			<output>
				<port id="2" precision="FP32">
					<dim>1</dim>
					<dim>16</dim>
					<dim>1</dim>
					<dim>1</dim>
				</port>
			</output>
		</layer>
		<layer id="101" name="Mul_66" type="Multiply" version="opset1">
			<input>
				<port id="0">
					<dim>1</dim>
					<dim>16</dim>
					<dim>160</dim>
					<dim>160</dim>
				</port>
				<port id="1">
					<dim>1</dim>
					<dim>16</dim>
					<dim>1</dim>
					<dim>1</dim>
				</port>
			</input>
			<output>
				<port id="2" precision="FP32">
					<dim>1</dim>
					<dim>16</dim>
					<dim>160</dim>
					<dim>160</dim>
				</port>
			</output>
		</layer>
		<layer id="102" name="BatchNormalization_68/mean/Fused_Mul_8941789419_const" type="Const" version="opset1">
			<data element_type="f32" offset="45136" shape="16,16,3,3" size="9216"/>
			<output>
				<port id="1" precision="FP32">
					<dim>16</dim>
					<dim>16</dim>
					<dim>3</dim>
					<dim>3</dim>
				</port>
			</output>
		</layer>
		<layer id="103" name="Conv_67/WithoutBiases" type="Convolution" version="opset1">
			<data dilations="1,1" output_padding="0,0" pads_begin="1,1" pads_end="1,1" strides="1,1"/>
			<input>
				<port id="0">
					<dim>1</dim>
					<dim>16</dim>
					<dim>160</dim>
					<dim>160</dim>
				</port>
				<port id="1">
					<dim>16</dim>
					<dim>16</dim>
					<dim>3</dim>
					<dim>3</dim>
				</port>
			</input>
			<output>
				<port id="2" precision="FP32">
					<dim>1</dim>
					<dim>16</dim>
					<dim>160</dim>
					<dim>160</dim>
				</port>
			</output>
		</layer>
		<layer id="104" name="data_add_791177912282229/EltwiseUnsqueeze86083_const" type="Const" version="opset1">
			<data element_type="f32" offset="54352" shape="1,16,1,1" size="64"/>
			<output>
				<port id="1" precision="FP32">
					<dim>1</dim>
					<dim>16</dim>
					<dim>1</dim>
					<dim>1</dim>
				</port>
			</output>
		</layer>
		<layer id="105" name="Conv_67/Fused_Add_" type="Add" version="opset1">
			<input>
				<port id="0">
					<dim>1</dim>
					<dim>16</dim>
					<dim>160</dim>
					<dim>160</dim>
				</port>
				<port id="1">
					<dim>1</dim>
					<dim>16</dim>
					<dim>1</dim>
					<dim>1</dim>
				</port>
			</input>
			<output>
				<port id="2" precision="FP32">
					<dim>1</dim>
					<dim>16</dim>
					<dim>160</dim>
					<dim>160</dim>
				</port>
			</output>
		</layer>
		<layer id="106" name="Relu_69" type="ReLU" version="opset1">
			<input>
				<port id="0">
					<dim>1</dim>
					<dim>16</dim>
					<dim>160</dim>
					<dim>160</dim>
				</port>
			</input>
			<output>
				<port id="1" precision="FP32">
					<dim>1</dim>
					<dim>16</dim>
					<dim>160</dim>
					<dim>160</dim>
				</port>
			</output>
		</layer>
		<layer id="107" name="MaxPool_70" type="MaxPool" version="opset1">
			<data kernel="2,2" pads_begin="0,0" pads_end="0,0" rounding_type="ceil" strides="2,2"/>
			<input>
				<port id="0">
					<dim>1</dim>
					<dim>16</dim>
					<dim>160</dim>
					<dim>160</dim>
				</port>
			</input>
			<output>
				<port id="1" precision="FP32">
					<dim>1</dim>
					<dim>16</dim>
					<dim>80</dim>
					<dim>80</dim>
				</port>
			</output>
		</layer>
		<layer id="108" name="4996/EltwiseUnsqueeze82535_const" type="Const" version="opset1">
			<data element_type="f32" offset="8" shape="1,1,1,1" size="4"/>
			<output>
				<port id="1" precision="FP32">
					<dim>1</dim>
					<dim>1</dim>
					<dim>1</dim>
					<dim>1</dim>
				</port>
			</output>
		</layer>
		<layer id="109" name="Pow_71" type="Power" version="opset1">
			<input>
				<port id="0">
					<dim>1</dim>
					<dim>16</dim>
					<dim>80</dim>
					<dim>80</dim>
				</port>
				<port id="1">
					<dim>1</dim>
					<dim>1</dim>
					<dim>1</dim>
					<dim>1</dim>
				</port>
			</input>
			<output>
				<port id="2" precision="FP32">
					<dim>1</dim>
					<dim>16</dim>
					<dim>80</dim>
					<dim>80</dim>
				</port>
			</output>
		</layer>
		<layer id="110" name="ReduceSum_72/Cast_1182511_const" type="Const" version="opset1">
			<data element_type="i64" offset="12" shape="2" size="16"/>
			<output>
				<port id="1" precision="I64">
					<dim>2</dim>
				</port>
			</output>
		</layer>
		<layer id="111" name="ReduceSum_72" type="ReduceSum" version="opset1">
			<data keep_dims="True"/>
			<input>
				<port id="0">
					<dim>1</dim>
					<dim>16</dim>
					<dim>80</dim>
					<dim>80</dim>
				</port>
				<port id="1">
					<dim>2</dim>
				</port>
			</input>
			<output>
				<port id="2" precision="FP32">
					<dim>1</dim>
					<dim>16</dim>
					<dim>1</dim>
					<dim>1</dim>
				</port>
			</output>
		</layer>
		<layer id="112" name="Constant_73/EltwiseUnsqueeze82539_const" type="Const" version="opset1">
			<data element_type="f32" offset="28" shape="1,1,1,1" size="4"/>
			<output>
				<port id="1" precision="FP32">
					<dim>1</dim>
					<dim>1</dim>
					<dim>1</dim>
					<dim>1</dim>
				</port>
			</output>
		</layer>
		<layer id="113" name="Add_74" type="Add" version="opset1">
			<input>
				<port id="0">
					<dim>1</dim>
					<dim>16</dim>
					<dim>1</dim>
					<dim>1</dim>
				</port>
				<port id="1">
					<dim>1</dim>
					<dim>1</dim>
					<dim>1</dim>
					<dim>1</dim>
				</port>
			</input>
			<output>
				<port id="2" precision="FP32">
					<dim>1</dim>
					<dim>16</dim>
					<dim>1</dim>
					<dim>1</dim>
				</port>
			</output>
		</layer>
		<layer id="114" name="Constant_75/EltwiseUnsqueeze82543_const" type="Const" version="opset1">
			<data element_type="f32" offset="32" shape="1,1,1,1" size="4"/>
			<output>
				<port id="1" precision="FP32">
					<dim>1</dim>
					<dim>1</dim>
					<dim>1</dim>
					<dim>1</dim>
				</port>
			</output>
		</layer>
		<layer id="115" name="Pow_76" type="Power" version="opset1">
			<input>
				<port id="0">
					<dim>1</dim>
					<dim>16</dim>
					<dim>1</dim>
					<dim>1</dim>
				</port>
				<port id="1">
					<dim>1</dim>
					<dim>1</dim>
					<dim>1</dim>
					<dim>1</dim>
				</port>
			</input>
			<output>
				<port id="2" precision="FP32">
					<dim>1</dim>
					<dim>16</dim>
					<dim>1</dim>
					<dim>1</dim>
				</port>
			</output>
		</layer>
		<layer id="116" name="stage1.rebnconv3.gate.alpha/Output_0/Data__const" type="Const" version="opset1">
			<data element_type="f32" offset="54416" shape="1,16,1,1" size="64"/>
			<output>
				<port id="1" precision="FP32">
					<dim>1</dim>
					<dim>16</dim>
					<dim>1</dim>
					<dim>1</dim>
				</port>
			</output>
		</layer>
		<layer id="117" name="Mul_77" type="Multiply" version="opset1">
			<input>
				<port id="0">
					<dim>1</dim>
					<dim>16</dim>
					<dim>1</dim>
					<dim>1</dim>
				</port>
				<port id="1">
					<dim>1</dim>
					<dim>16</dim>
					<dim>1</dim>
					<dim>1</dim>
				</port>
			</input>
			<output>
				<port id="2" precision="FP32">
					<dim>1</dim>
					<dim>16</dim>
					<dim>1</dim>
					<dim>1</dim>
				</port>
			</output>
		</layer>
		<layer id="118" name="stage1.rebnconv3.gate.gamma/Output_0/Data__const" type="Const" version="opset1">
			<data element_type="f32" offset="54480" shape="1,16,1,1" size="64"/>
			<output>
				<port id="1" precision="FP32">
					<dim>1</dim>
					<dim>16</dim>
					<dim>1</dim>
					<dim>1</dim>
				</port>
			</output>
		</layer>
		<layer id="119" name="4997/EltwiseUnsqueeze82547_const" type="Const" version="opset1">
			<data element_type="f32" offset="8" shape="1,1,1,1" size="4"/>
			<output>
				<port id="1" precision="FP32">
					<dim>1</dim>
					<dim>1</dim>
					<dim>1</dim>
					<dim>1</dim>
				</port>
			</output>
		</layer>
		<layer id="120" name="Pow_78" type="Power" version="opset1">
			<input>
				<port id="0">
					<dim>1</dim>
					<dim>16</dim>
					<dim>1</dim>
					<dim>1</dim>
				</port>
				<port id="1">
					<dim>1</dim>
					<dim>1</dim>
					<dim>1</dim>
					<dim>1</dim>
				</port>
			</input>
			<output>
				<port id="2" precision="FP32">
					<dim>1</dim>
					<dim>16</dim>
					<dim>1</dim>
					<dim>1</dim>
				</port>
			</output>
		</layer>
		<layer id="121" name="ReduceMean_79/Cast_1181321_const" type="Const" version="opset1">
			<data element_type="i64" offset="0" shape="1" size="8"/>
			<output>
				<port id="1" precision="I64">
					<dim>1</dim>
				</port>
			</output>
		</layer>
		<layer id="122" name="ReduceMean_79" type="ReduceMean" version="opset1">
			<data keep_dims="True"/>
			<input>
				<port id="0">
					<dim>1</dim>
					<dim>16</dim>
					<dim>1</dim>
					<dim>1</dim>
				</port>
				<port id="1">
					<dim>1</dim>
				</port>
			</input>
			<output>
				<port id="2" precision="FP32">
					<dim>1</dim>
					<dim>1</dim>
					<dim>1</dim>
					<dim>1</dim>
				</port>
			</output>
		</layer>
		<layer id="123" name="Constant_80/EltwiseUnsqueeze82551_const" type="Const" version="opset1">
			<data element_type="f32" offset="28" shape="1,1,1,1" size="4"/>
			<output>
				<port id="1" precision="FP32">
					<dim>1</dim>
					<dim>1</dim>
					<dim>1</dim>
					<dim>1</dim>
				</port>
			</output>
		</layer>
		<layer id="124" name="Add_81" type="Add" version="opset1">
			<input>
				<port id="0">
					<dim>1</dim>
					<dim>1</dim>
					<dim>1</dim>
					<dim>1</dim>
				</port>
				<port id="1">
					<dim>1</dim>
					<dim>1</dim>
					<dim>1</dim>
					<dim>1</dim>
				</port>
			</input>
			<output>
				<port id="2" precision="FP32">
					<dim>1</dim>
					<dim>1</dim>
					<dim>1</dim>
					<dim>1</dim>
				</port>
			</output>
		</layer>
		<layer id="125" name="Constant_82/EltwiseUnsqueeze82555_const" type="Const" version="opset1">
			<data element_type="f32" offset="32" shape="1,1,1,1" size="4"/>
			<output>
				<port id="1" precision="FP32">
					<dim>1</dim>
					<dim>1</dim>
					<dim>1</dim>
					<dim>1</dim>
				</port>
			</output>
		</layer>
		<layer id="126" name="Pow_83" type="Power" version="opset1">
			<input>
				<port id="0">
					<dim>1</dim>
					<dim>1</dim>
					<dim>1</dim>
					<dim>1</dim>
				</port>
				<port id="1">
					<dim>1</dim>
					<dim>1</dim>
					<dim>1</dim>
					<dim>1</dim>
				</port>
			</input>
			<output>
				<port id="2" precision="FP32">
					<dim>1</dim>
					<dim>1</dim>
					<dim>1</dim>
					<dim>1</dim>
				</port>
			</output>
		</layer>
		<layer id="127" name="Div_84/reciprocal__input_port_1/value7287482115/EltwiseUnsqueeze85627_const" type="Const" version="opset1">
			<data element_type="f32" offset="60" shape="1,1,1,1" size="4"/>
			<output>
				<port id="1" precision="FP32">
					<dim>1</dim>
					<dim>1</dim>
					<dim>1</dim>
					<dim>1</dim>
				</port>
			</output>
		</layer>
		<layer id="128" name="Div_84/reciprocal_" type="Power" version="opset1">
			<input>
				<port id="0">
					<dim>1</dim>
					<dim>1</dim>
					<dim>1</dim>
					<dim>1</dim>
				</port>
				<port id="1">
					<dim>1</dim>
					<dim>1</dim>
					<dim>1</dim>
					<dim>1</dim>
				</port>
			</input>
			<output>
				<port id="2" precision="FP32">
					<dim>1</dim>
					<dim>1</dim>
					<dim>1</dim>
					<dim>1</dim>
				</port>
			</output>
		</layer>
		<layer id="129" name="Div_84" type="Multiply" version="opset1">
			<input>
				<port id="0">
					<dim>1</dim>
					<dim>16</dim>
					<dim>1</dim>
					<dim>1</dim>
				</port>
				<port id="1">
					<dim>1</dim>
					<dim>1</dim>
					<dim>1</dim>
					<dim>1</dim>
				</port>
			</input>
			<output>
				<port id="2" precision="FP32">
					<dim>1</dim>
					<dim>16</dim>
					<dim>1</dim>
					<dim>1</dim>
				</port>
			</output>
		</layer>
		<layer id="130" name="Mul_85" type="Multiply" version="opset1">
			<input>
				<port id="0">
					<dim>1</dim>
					<dim>16</dim>
					<dim>1</dim>
					<dim>1</dim>
				</port>
				<port id="1">
					<dim>1</dim>
					<dim>16</dim>
					<dim>1</dim>
					<dim>1</dim>
				</port>
			</input>
			<output>
				<port id="2" precision="FP32">
					<dim>1</dim>
					<dim>16</dim>
					<dim>1</dim>
					<dim>1</dim>
				</port>
			</output>
		</layer>
		<layer id="131" name="stage1.rebnconv3.gate.beta/Output_0/Data__const" type="Const" version="opset1">
			<data element_type="f32" offset="54544" shape="1,16,1,1" size="64"/>
			<output>
				<port id="1" precision="FP32">
					<dim>1</dim>
					<dim>16</dim>
					<dim>1</dim>
					<dim>1</dim>
				</port>
			</output>
		</layer>
		<layer id="132" name="Add_86" type="Add" version="opset1">
			<input>
				<port id="0">
					<dim>1</dim>
					<dim>16</dim>
					<dim>1</dim>
					<dim>1</dim>
				</port>
				<port id="1">
					<dim>1</dim>
					<dim>16</dim>
					<dim>1</dim>
					<dim>1</dim>
				</port>
			</input>
			<output>
				<port id="2" precision="FP32">
					<dim>1</dim>
					<dim>16</dim>
					<dim>1</dim>
					<dim>1</dim>
				</port>
			</output>
		</layer>
		<layer id="133" name="Tanh_87" type="Tanh" version="opset1">
			<input>
				<port id="0">
					<dim>1</dim>
					<dim>16</dim>
					<dim>1</dim>
					<dim>1</dim>
				</port>
			</input>
			<output>
				<port id="1" precision="FP32">
					<dim>1</dim>
					<dim>16</dim>
					<dim>1</dim>
					<dim>1</dim>
				</port>
			</output>
		</layer>
		<layer id="134" name="Constant_88/EltwiseUnsqueeze82559_const" type="Const" version="opset1">
			<data element_type="f32" offset="76" shape="1,1,1,1" size="4"/>
			<output>
				<port id="1" precision="FP32">
					<dim>1</dim>
					<dim>1</dim>
					<dim>1</dim>
					<dim>1</dim>
				</port>
			</output>
		</layer>
		<layer id="135" name="Add_89" type="Add" version="opset1">
			<input>
				<port id="0">
					<dim>1</dim>
					<dim>16</dim>
					<dim>1</dim>
					<dim>1</dim>
				</port>
				<port id="1">
					<dim>1</dim>
					<dim>1</dim>
					<dim>1</dim>
					<dim>1</dim>
				</port>
			</input>
			<output>
				<port id="2" precision="FP32">
					<dim>1</dim>
					<dim>16</dim>
					<dim>1</dim>
					<dim>1</dim>
				</port>
			</output>
		</layer>
		<layer id="136" name="Mul_90" type="Multiply" version="opset1">
			<input>
				<port id="0">
					<dim>1</dim>
					<dim>16</dim>
					<dim>80</dim>
					<dim>80</dim>
				</port>
				<port id="1">
					<dim>1</dim>
					<dim>16</dim>
					<dim>1</dim>
					<dim>1</dim>
				</port>
			</input>
			<output>
				<port id="2" precision="FP32">
					<dim>1</dim>
					<dim>16</dim>
					<dim>80</dim>
					<dim>80</dim>
				</port>
			</output>
		</layer>
		<layer id="137" name="BatchNormalization_92/mean/Fused_Mul_8942189423_const" type="Const" version="opset1">
			<data element_type="f32" offset="54608" shape="16,16,3,3" size="9216"/>
			<output>
				<port id="1" precision="FP32">
					<dim>16</dim>
					<dim>16</dim>
					<dim>3</dim>
					<dim>3</dim>
				</port>
			</output>
		</layer>
		<layer id="138" name="Conv_91/WithoutBiases" type="Convolution" version="opset1">
			<data dilations="1,1" output_padding="0,0" pads_begin="1,1" pads_end="1,1" strides="1,1"/>
			<input>
				<port id="0">
					<dim>1</dim>
					<dim>16</dim>
					<dim>80</dim>
					<dim>80</dim>
				</port>
				<port id="1">
					<dim>16</dim>
					<dim>16</dim>
					<dim>3</dim>
					<dim>3</dim>
				</port>
			</input>
			<output>
				<port id="2" precision="FP32">
					<dim>1</dim>
					<dim>16</dim>
					<dim>80</dim>
					<dim>80</dim>
				</port>
			</output>
		</layer>
		<layer id="139" name="data_add_791257913082231/EltwiseUnsqueeze86091_const" type="Const" version="opset1">
			<data element_type="f32" offset="63824" shape="1,16,1,1" size="64"/>
			<output>
				<port id="1" precision="FP32">
					<dim>1</dim>
					<dim>16</dim>
					<dim>1</dim>
					<dim>1</dim>
				</port>
			</output>
		</layer>
		<layer id="140" name="Conv_91/Fused_Add_" type="Add" version="opset1">
			<input>
				<port id="0">
					<dim>1</dim>
					<dim>16</dim>
					<dim>80</dim>
					<dim>80</dim>
				</port>
				<port id="1">
					<dim>1</dim>
					<dim>16</dim>
					<dim>1</dim>
					<dim>1</dim>
				</port>
			</input>
			<output>
				<port id="2" precision="FP32">
					<dim>1</dim>
					<dim>16</dim>
					<dim>80</dim>
					<dim>80</dim>
				</port>
			</output>
		</layer>
		<layer id="141" name="Relu_93" type="ReLU" version="opset1">
			<input>
				<port id="0">
					<dim>1</dim>
					<dim>16</dim>
					<dim>80</dim>
					<dim>80</dim>
				</port>
			</input>
			<output>
				<port id="1" precision="FP32">
					<dim>1</dim>
					<dim>16</dim>
					<dim>80</dim>
					<dim>80</dim>
				</port>
			</output>
		</layer>
		<layer id="142" name="MaxPool_94" type="MaxPool" version="opset1">
			<data kernel="2,2" pads_begin="0,0" pads_end="0,0" rounding_type="ceil" strides="2,2"/>
			<input>
				<port id="0">
					<dim>1</dim>
					<dim>16</dim>
					<dim>80</dim>
					<dim>80</dim>
				</port>
			</input>
			<output>
				<port id="1" precision="FP32">
					<dim>1</dim>
					<dim>16</dim>
					<dim>40</dim>
					<dim>40</dim>
				</port>
			</output>
		</layer>
		<layer id="143" name="4998/EltwiseUnsqueeze82563_const" type="Const" version="opset1">
			<data element_type="f32" offset="8" shape="1,1,1,1" size="4"/>
			<output>
				<port id="1" precision="FP32">
					<dim>1</dim>
					<dim>1</dim>
					<dim>1</dim>
					<dim>1</dim>
				</port>
			</output>
		</layer>
		<layer id="144" name="Pow_95" type="Power" version="opset1">
			<input>
				<port id="0">
					<dim>1</dim>
					<dim>16</dim>
					<dim>40</dim>
					<dim>40</dim>
				</port>
				<port id="1">
					<dim>1</dim>
					<dim>1</dim>
					<dim>1</dim>
					<dim>1</dim>
				</port>
			</input>
			<output>
				<port id="2" precision="FP32">
					<dim>1</dim>
					<dim>16</dim>
					<dim>40</dim>
					<dim>40</dim>
				</port>
			</output>
		</layer>
		<layer id="145" name="ReduceSum_96/Cast_1182441_const" type="Const" version="opset1">
			<data element_type="i64" offset="12" shape="2" size="16"/>
			<output>
				<port id="1" precision="I64">
					<dim>2</dim>
				</port>
			</output>
		</layer>
		<layer id="146" name="ReduceSum_96" type="ReduceSum" version="opset1">
			<data keep_dims="True"/>
			<input>
				<port id="0">
					<dim>1</dim>
					<dim>16</dim>
					<dim>40</dim>
					<dim>40</dim>
				</port>
				<port id="1">
					<dim>2</dim>
				</port>
			</input>
			<output>
				<port id="2" precision="FP32">
					<dim>1</dim>
					<dim>16</dim>
					<dim>1</dim>
					<dim>1</dim>
				</port>
			</output>
		</layer>
		<layer id="147" name="Constant_97/EltwiseUnsqueeze82567_const" type="Const" version="opset1">
			<data element_type="f32" offset="28" shape="1,1,1,1" size="4"/>
			<output>
				<port id="1" precision="FP32">
					<dim>1</dim>
					<dim>1</dim>
					<dim>1</dim>
					<dim>1</dim>
				</port>
			</output>
		</layer>
		<layer id="148" name="Add_98" type="Add" version="opset1">
			<input>
				<port id="0">
					<dim>1</dim>
					<dim>16</dim>
					<dim>1</dim>
					<dim>1</dim>
				</port>
				<port id="1">
					<dim>1</dim>
					<dim>1</dim>
					<dim>1</dim>
					<dim>1</dim>
				</port>
			</input>
			<output>
				<port id="2" precision="FP32">
					<dim>1</dim>
					<dim>16</dim>
					<dim>1</dim>
					<dim>1</dim>
				</port>
			</output>
		</layer>
		<layer id="149" name="Constant_99/EltwiseUnsqueeze82571_const" type="Const" version="opset1">
			<data element_type="f32" offset="32" shape="1,1,1,1" size="4"/>
			<output>
				<port id="1" precision="FP32">
					<dim>1</dim>
					<dim>1</dim>
					<dim>1</dim>
					<dim>1</dim>
				</port>
			</output>
		</layer>
		<layer id="150" name="Pow_100" type="Power" version="opset1">
			<input>
				<port id="0">
					<dim>1</dim>
					<dim>16</dim>
					<dim>1</dim>
					<dim>1</dim>
				</port>
				<port id="1">
					<dim>1</dim>
					<dim>1</dim>
					<dim>1</dim>
					<dim>1</dim>
				</port>
			</input>
			<output>
				<port id="2" precision="FP32">
					<dim>1</dim>
					<dim>16</dim>
					<dim>1</dim>
					<dim>1</dim>
				</port>
			</output>
		</layer>
		<layer id="151" name="stage1.rebnconv4.gate.alpha/Output_0/Data__const" type="Const" version="opset1">
			<data element_type="f32" offset="63888" shape="1,16,1,1" size="64"/>
			<output>
				<port id="1" precision="FP32">
					<dim>1</dim>
					<dim>16</dim>
					<dim>1</dim>
					<dim>1</dim>
				</port>
			</output>
		</layer>
		<layer id="152" name="Mul_101" type="Multiply" version="opset1">
			<input>
				<port id="0">
					<dim>1</dim>
					<dim>16</dim>
					<dim>1</dim>
					<dim>1</dim>
				</port>
				<port id="1">
					<dim>1</dim>
					<dim>16</dim>
					<dim>1</dim>
					<dim>1</dim>
				</port>
			</input>
			<output>
				<port id="2" precision="FP32">
					<dim>1</dim>
					<dim>16</dim>
					<dim>1</dim>
					<dim>1</dim>
				</port>
			</output>
		</layer>
		<layer id="153" name="stage1.rebnconv4.gate.gamma/Output_0/Data__const" type="Const" version="opset1">
			<data element_type="f32" offset="63952" shape="1,16,1,1" size="64"/>
			<output>
				<port id="1" precision="FP32">
					<dim>1</dim>
					<dim>16</dim>
					<dim>1</dim>
					<dim>1</dim>
				</port>
			</output>
		</layer>
		<layer id="154" name="4999/EltwiseUnsqueeze82575_const" type="Const" version="opset1">
			<data element_type="f32" offset="8" shape="1,1,1,1" size="4"/>
			<output>
				<port id="1" precision="FP32">
					<dim>1</dim>
					<dim>1</dim>
					<dim>1</dim>
					<dim>1</dim>
				</port>
			</output>
		</layer>
		<layer id="155" name="Pow_102" type="Power" version="opset1">
			<input>
				<port id="0">
					<dim>1</dim>
					<dim>16</dim>
					<dim>1</dim>
					<dim>1</dim>
				</port>
				<port id="1">
					<dim>1</dim>
					<dim>1</dim>
					<dim>1</dim>
					<dim>1</dim>
				</port>
			</input>
			<output>
				<port id="2" precision="FP32">
					<dim>1</dim>
					<dim>16</dim>
					<dim>1</dim>
					<dim>1</dim>
				</port>
			</output>
		</layer>
		<layer id="156" name="ReduceMean_103/Cast_1182581_const" type="Const" version="opset1">
			<data element_type="i64" offset="0" shape="1" size="8"/>
			<output>
				<port id="1" precision="I64">
					<dim>1</dim>
				</port>
			</output>
		</layer>
		<layer id="157" name="ReduceMean_103" type="ReduceMean" version="opset1">
			<data keep_dims="True"/>
			<input>
				<port id="0">
					<dim>1</dim>
					<dim>16</dim>
					<dim>1</dim>
					<dim>1</dim>
				</port>
				<port id="1">
					<dim>1</dim>
				</port>
			</input>
			<output>
				<port id="2" precision="FP32">
					<dim>1</dim>
					<dim>1</dim>
					<dim>1</dim>
					<dim>1</dim>
				</port>
			</output>
		</layer>
		<layer id="158" name="Constant_104/EltwiseUnsqueeze82579_const" type="Const" version="opset1">
			<data element_type="f32" offset="28" shape="1,1,1,1" size="4"/>
			<output>
				<port id="1" precision="FP32">
					<dim>1</dim>
					<dim>1</dim>
					<dim>1</dim>
					<dim>1</dim>
				</port>
			</output>
		</layer>
		<layer id="159" name="Add_105" type="Add" version="opset1">
			<input>
				<port id="0">
					<dim>1</dim>
					<dim>1</dim>
					<dim>1</dim>
					<dim>1</dim>
				</port>
				<port id="1">
					<dim>1</dim>
					<dim>1</dim>
					<dim>1</dim>
					<dim>1</dim>
				</port>
			</input>
			<output>
				<port id="2" precision="FP32">
					<dim>1</dim>
					<dim>1</dim>
					<dim>1</dim>
					<dim>1</dim>
				</port>
			</output>
		</layer>
		<layer id="160" name="Constant_106/EltwiseUnsqueeze82583_const" type="Const" version="opset1">
			<data element_type="f32" offset="32" shape="1,1,1,1" size="4"/>
			<output>
				<port id="1" precision="FP32">
					<dim>1</dim>
					<dim>1</dim>
					<dim>1</dim>
					<dim>1</dim>
				</port>
			</output>
		</layer>
		<layer id="161" name="Pow_107" type="Power" version="opset1">
			<input>
				<port id="0">
					<dim>1</dim>
					<dim>1</dim>
					<dim>1</dim>
					<dim>1</dim>
				</port>
				<port id="1">
					<dim>1</dim>
					<dim>1</dim>
					<dim>1</dim>
					<dim>1</dim>
				</port>
			</input>
			<output>
				<port id="2" precision="FP32">
					<dim>1</dim>
					<dim>1</dim>
					<dim>1</dim>
					<dim>1</dim>
				</port>
			</output>
		</layer>
		<layer id="162" name="Div_108/reciprocal__input_port_1/value7288082116/EltwiseUnsqueeze85631_const" type="Const" version="opset1">
			<data element_type="f32" offset="60" shape="1,1,1,1" size="4"/>
			<output>
				<port id="1" precision="FP32">
					<dim>1</dim>
					<dim>1</dim>
					<dim>1</dim>
					<dim>1</dim>
				</port>
			</output>
		</layer>
		<layer id="163" name="Div_108/reciprocal_" type="Power" version="opset1">
			<input>
				<port id="0">
					<dim>1</dim>
					<dim>1</dim>
					<dim>1</dim>
					<dim>1</dim>
				</port>
				<port id="1">
					<dim>1</dim>
					<dim>1</dim>
					<dim>1</dim>
					<dim>1</dim>
				</port>
			</input>
			<output>
				<port id="2" precision="FP32">
					<dim>1</dim>
					<dim>1</dim>
					<dim>1</dim>
					<dim>1</dim>
				</port>
			</output>
		</layer>
		<layer id="164" name="Div_108" type="Multiply" version="opset1">
			<input>
				<port id="0">
					<dim>1</dim>
					<dim>16</dim>
					<dim>1</dim>
					<dim>1</dim>
				</port>
				<port id="1">
					<dim>1</dim>
					<dim>1</dim>
					<dim>1</dim>
					<dim>1</dim>
				</port>
			</input>
			<output>
				<port id="2" precision="FP32">
					<dim>1</dim>
					<dim>16</dim>
					<dim>1</dim>
					<dim>1</dim>
				</port>
			</output>
		</layer>
		<layer id="165" name="Mul_109" type="Multiply" version="opset1">
			<input>
				<port id="0">
					<dim>1</dim>
					<dim>16</dim>
					<dim>1</dim>
					<dim>1</dim>
				</port>
				<port id="1">
					<dim>1</dim>
					<dim>16</dim>
					<dim>1</dim>
					<dim>1</dim>
				</port>
			</input>
			<output>
				<port id="2" precision="FP32">
					<dim>1</dim>
					<dim>16</dim>
					<dim>1</dim>
					<dim>1</dim>
				</port>
			</output>
		</layer>
		<layer id="166" name="stage1.rebnconv4.gate.beta/Output_0/Data__const" type="Const" version="opset1">
			<data element_type="f32" offset="64016" shape="1,16,1,1" size="64"/>
			<output>
				<port id="1" precision="FP32">
					<dim>1</dim>
					<dim>16</dim>
					<dim>1</dim>
					<dim>1</dim>
				</port>
			</output>
		</layer>
		<layer id="167" name="Add_110" type="Add" version="opset1">
			<input>
				<port id="0">
					<dim>1</dim>
					<dim>16</dim>
					<dim>1</dim>
					<dim>1</dim>
				</port>
				<port id="1">
					<dim>1</dim>
					<dim>16</dim>
					<dim>1</dim>
					<dim>1</dim>
				</port>
			</input>
			<output>
				<port id="2" precision="FP32">
					<dim>1</dim>
					<dim>16</dim>
					<dim>1</dim>
					<dim>1</dim>
				</port>
			</output>
		</layer>
		<layer id="168" name="Tanh_111" type="Tanh" version="opset1">
			<input>
				<port id="0">
					<dim>1</dim>
					<dim>16</dim>
					<dim>1</dim>
					<dim>1</dim>
				</port>
			</input>
			<output>
				<port id="1" precision="FP32">
					<dim>1</dim>
					<dim>16</dim>
					<dim>1</dim>
					<dim>1</dim>
				</port>
			</output>
		</layer>
		<layer id="169" name="Constant_112/EltwiseUnsqueeze82587_const" type="Const" version="opset1">
			<data element_type="f32" offset="76" shape="1,1,1,1" size="4"/>
			<output>
				<port id="1" precision="FP32">
					<dim>1</dim>
					<dim>1</dim>
					<dim>1</dim>
					<dim>1</dim>
				</port>
			</output>
		</layer>
		<layer id="170" name="Add_113" type="Add" version="opset1">
			<input>
				<port id="0">
					<dim>1</dim>
					<dim>16</dim>
					<dim>1</dim>
					<dim>1</dim>
				</port>
				<port id="1">
					<dim>1</dim>
					<dim>1</dim>
					<dim>1</dim>
					<dim>1</dim>
				</port>
			</input>
			<output>
				<port id="2" precision="FP32">
					<dim>1</dim>
					<dim>16</dim>
					<dim>1</dim>
					<dim>1</dim>
				</port>
			</output>
		</layer>
		<layer id="171" name="Mul_114" type="Multiply" version="opset1">
			<input>
				<port id="0">
					<dim>1</dim>
					<dim>16</dim>
					<dim>40</dim>
					<dim>40</dim>
				</port>
				<port id="1">
					<dim>1</dim>
					<dim>16</dim>
					<dim>1</dim>
					<dim>1</dim>
				</port>
			</input>
			<output>
				<port id="2" precision="FP32">
					<dim>1</dim>
					<dim>16</dim>
					<dim>40</dim>
					<dim>40</dim>
				</port>
			</output>
		</layer>
		<layer id="172" name="BatchNormalization_116/mean/Fused_Mul_8942589427_const" type="Const" version="opset1">
			<data element_type="f32" offset="64080" shape="16,16,3,3" size="9216"/>
			<output>
				<port id="1" precision="FP32">
					<dim>16</dim>
					<dim>16</dim>
					<dim>3</dim>
					<dim>3</dim>
				</port>
			</output>
		</layer>
		<layer id="173" name="Conv_115/WithoutBiases" type="Convolution" version="opset1">
			<data dilations="1,1" output_padding="0,0" pads_begin="1,1" pads_end="1,1" strides="1,1"/>
			<input>
				<port id="0">
					<dim>1</dim>
					<dim>16</dim>
					<dim>40</dim>
					<dim>40</dim>
				</port>
				<port id="1">
					<dim>16</dim>
					<dim>16</dim>
					<dim>3</dim>
					<dim>3</dim>
				</port>
			</input>
			<output>
				<port id="2" precision="FP32">
					<dim>1</dim>
					<dim>16</dim>
					<dim>40</dim>
					<dim>40</dim>
				</port>
			</output>
		</layer>
		<layer id="174" name="data_add_791337913882233/EltwiseUnsqueeze86099_const" type="Const" version="opset1">
			<data element_type="f32" offset="73296" shape="1,16,1,1" size="64"/>
			<output>
				<port id="1" precision="FP32">
					<dim>1</dim>
					<dim>16</dim>
					<dim>1</dim>
					<dim>1</dim>
				</port>
			</output>
		</layer>
		<layer id="175" name="Conv_115/Fused_Add_" type="Add" version="opset1">
			<input>
				<port id="0">
					<dim>1</dim>
					<dim>16</dim>
					<dim>40</dim>
					<dim>40</dim>
				</port>
				<port id="1">
					<dim>1</dim>
					<dim>16</dim>
					<dim>1</dim>
					<dim>1</dim>
				</port>
			</input>
			<output>
				<port id="2" precision="FP32">
					<dim>1</dim>
					<dim>16</dim>
					<dim>40</dim>
					<dim>40</dim>
				</port>
			</output>
		</layer>
		<layer id="176" name="Relu_117" type="ReLU" version="opset1">
			<input>
				<port id="0">
					<dim>1</dim>
					<dim>16</dim>
					<dim>40</dim>
					<dim>40</dim>
				</port>
			</input>
			<output>
				<port id="1" precision="FP32">
					<dim>1</dim>
					<dim>16</dim>
					<dim>40</dim>
					<dim>40</dim>
				</port>
			</output>
		</layer>
		<layer id="177" name="MaxPool_118" type="MaxPool" version="opset1">
			<data kernel="2,2" pads_begin="0,0" pads_end="0,0" rounding_type="ceil" strides="2,2"/>
			<input>
				<port id="0">
					<dim>1</dim>
					<dim>16</dim>
					<dim>40</dim>
					<dim>40</dim>
				</port>
			</input>
			<output>
				<port id="1" precision="FP32">
					<dim>1</dim>
					<dim>16</dim>
					<dim>20</dim>
					<dim>20</dim>
				</port>
			</output>
		</layer>
		<layer id="178" name="5000/EltwiseUnsqueeze82591_const" type="Const" version="opset1">
			<data element_type="f32" offset="8" shape="1,1,1,1" size="4"/>
			<output>
				<port id="1" precision="FP32">
					<dim>1</dim>
					<dim>1</dim>
					<dim>1</dim>
					<dim>1</dim>
				</port>
			</output>
		</layer>
		<layer id="179" name="Pow_119" type="Power" version="opset1">
			<input>
				<port id="0">
					<dim>1</dim>
					<dim>16</dim>
					<dim>20</dim>
					<dim>20</dim>
				</port>
				<port id="1">
					<dim>1</dim>
					<dim>1</dim>
					<dim>1</dim>
					<dim>1</dim>
				</port>
			</input>
			<output>
				<port id="2" precision="FP32">
					<dim>1</dim>
					<dim>16</dim>
					<dim>20</dim>
					<dim>20</dim>
				</port>
			</output>
		</layer>
		<layer id="180" name="ReduceSum_120/Cast_1182437_const" type="Const" version="opset1">
			<data element_type="i64" offset="12" shape="2" size="16"/>
			<output>
				<port id="1" precision="I64">
					<dim>2</dim>
				</port>
			</output>
		</layer>
		<layer id="181" name="ReduceSum_120" type="ReduceSum" version="opset1">
			<data keep_dims="True"/>
			<input>
				<port id="0">
					<dim>1</dim>
					<dim>16</dim>
					<dim>20</dim>
					<dim>20</dim>
				</port>
				<port id="1">
					<dim>2</dim>
				</port>
			</input>
			<output>
				<port id="2" precision="FP32">
					<dim>1</dim>
					<dim>16</dim>
					<dim>1</dim>
					<dim>1</dim>
				</port>
			</output>
		</layer>
		<layer id="182" name="Constant_121/EltwiseUnsqueeze82595_const" type="Const" version="opset1">
			<data element_type="f32" offset="28" shape="1,1,1,1" size="4"/>
			<output>
				<port id="1" precision="FP32">
					<dim>1</dim>
					<dim>1</dim>
					<dim>1</dim>
					<dim>1</dim>
				</port>
			</output>
		</layer>
		<layer id="183" name="Add_122" type="Add" version="opset1">
			<input>
				<port id="0">
					<dim>1</dim>
					<dim>16</dim>
					<dim>1</dim>
					<dim>1</dim>
				</port>
				<port id="1">
					<dim>1</dim>
					<dim>1</dim>
					<dim>1</dim>
					<dim>1</dim>
				</port>
			</input>
			<output>
				<port id="2" precision="FP32">
					<dim>1</dim>
					<dim>16</dim>
					<dim>1</dim>
					<dim>1</dim>
				</port>
			</output>
		</layer>
		<layer id="184" name="Constant_123/EltwiseUnsqueeze82599_const" type="Const" version="opset1">
			<data element_type="f32" offset="32" shape="1,1,1,1" size="4"/>
			<output>
				<port id="1" precision="FP32">
					<dim>1</dim>
					<dim>1</dim>
					<dim>1</dim>
					<dim>1</dim>
				</port>
			</output>
		</layer>
		<layer id="185" name="Pow_124" type="Power" version="opset1">
			<input>
				<port id="0">
					<dim>1</dim>
					<dim>16</dim>
					<dim>1</dim>
					<dim>1</dim>
				</port>
				<port id="1">
					<dim>1</dim>
					<dim>1</dim>
					<dim>1</dim>
					<dim>1</dim>
				</port>
			</input>
			<output>
				<port id="2" precision="FP32">
					<dim>1</dim>
					<dim>16</dim>
					<dim>1</dim>
					<dim>1</dim>
				</port>
			</output>
		</layer>
		<layer id="186" name="stage1.rebnconv5.gate.alpha/Output_0/Data__const" type="Const" version="opset1">
			<data element_type="f32" offset="73360" shape="1,16,1,1" size="64"/>
			<output>
				<port id="1" precision="FP32">
					<dim>1</dim>
					<dim>16</dim>
					<dim>1</dim>
					<dim>1</dim>
				</port>
			</output>
		</layer>
		<layer id="187" name="Mul_125" type="Multiply" version="opset1">
			<input>
				<port id="0">
					<dim>1</dim>
					<dim>16</dim>
					<dim>1</dim>
					<dim>1</dim>
				</port>
				<port id="1">
					<dim>1</dim>
					<dim>16</dim>
					<dim>1</dim>
					<dim>1</dim>
				</port>
			</input>
			<output>
				<port id="2" precision="FP32">
					<dim>1</dim>
					<dim>16</dim>
					<dim>1</dim>
					<dim>1</dim>
				</port>
			</output>
		</layer>
		<layer id="188" name="stage1.rebnconv5.gate.gamma/Output_0/Data__const" type="Const" version="opset1">
			<data element_type="f32" offset="73424" shape="1,16,1,1" size="64"/>
			<output>
				<port id="1" precision="FP32">
					<dim>1</dim>
					<dim>16</dim>
					<dim>1</dim>
					<dim>1</dim>
				</port>
			</output>
		</layer>
		<layer id="189" name="5001/EltwiseUnsqueeze82603_const" type="Const" version="opset1">
			<data element_type="f32" offset="8" shape="1,1,1,1" size="4"/>
			<output>
				<port id="1" precision="FP32">
					<dim>1</dim>
					<dim>1</dim>
					<dim>1</dim>
					<dim>1</dim>
				</port>
			</output>
		</layer>
		<layer id="190" name="Pow_126" type="Power" version="opset1">
			<input>
				<port id="0">
					<dim>1</dim>
					<dim>16</dim>
					<dim>1</dim>
					<dim>1</dim>
				</port>
				<port id="1">
					<dim>1</dim>
					<dim>1</dim>
					<dim>1</dim>
					<dim>1</dim>
				</port>
			</input>
			<output>
				<port id="2" precision="FP32">
					<dim>1</dim>
					<dim>16</dim>
					<dim>1</dim>
					<dim>1</dim>
				</port>
			</output>
		</layer>
		<layer id="191" name="ReduceMean_127/Cast_1182371_const" type="Const" version="opset1">
			<data element_type="i64" offset="0" shape="1" size="8"/>
			<output>
				<port id="1" precision="I64">
					<dim>1</dim>
				</port>
			</output>
		</layer>
		<layer id="192" name="ReduceMean_127" type="ReduceMean" version="opset1">
			<data keep_dims="True"/>
			<input>
				<port id="0">
					<dim>1</dim>
					<dim>16</dim>
					<dim>1</dim>
					<dim>1</dim>
				</port>
				<port id="1">
					<dim>1</dim>
				</port>
			</input>
			<output>
				<port id="2" precision="FP32">
					<dim>1</dim>
					<dim>1</dim>
					<dim>1</dim>
					<dim>1</dim>
				</port>
			</output>
		</layer>
		<layer id="193" name="Constant_128/EltwiseUnsqueeze82607_const" type="Const" version="opset1">
			<data element_type="f32" offset="28" shape="1,1,1,1" size="4"/>
			<output>
				<port id="1" precision="FP32">
					<dim>1</dim>
					<dim>1</dim>
					<dim>1</dim>
					<dim>1</dim>
				</port>
			</output>
		</layer>
		<layer id="194" name="Add_129" type="Add" version="opset1">
			<input>
				<port id="0">
					<dim>1</dim>
					<dim>1</dim>
					<dim>1</dim>
					<dim>1</dim>
				</port>
				<port id="1">
					<dim>1</dim>
					<dim>1</dim>
					<dim>1</dim>
					<dim>1</dim>
				</port>
			</input>
			<output>
				<port id="2" precision="FP32">
					<dim>1</dim>
					<dim>1</dim>
					<dim>1</dim>
					<dim>1</dim>
				</port>
			</output>
		</layer>
		<layer id="195" name="Constant_130/EltwiseUnsqueeze82611_const" type="Const" version="opset1">
			<data element_type="f32" offset="32" shape="1,1,1,1" size="4"/>
			<output>
				<port id="1" precision="FP32">
					<dim>1</dim>
					<dim>1</dim>
					<dim>1</dim>
					<dim>1</dim>
				</port>
			</output>
		</layer>
		<layer id="196" name="Pow_131" type="Power" version="opset1">
			<input>
				<port id="0">
					<dim>1</dim>
					<dim>1</dim>
					<dim>1</dim>
					<dim>1</dim>
				</port>
				<port id="1">
					<dim>1</dim>
					<dim>1</dim>
					<dim>1</dim>
					<dim>1</dim>
				</port>
			</input>
			<output>
				<port id="2" precision="FP32">
					<dim>1</dim>
					<dim>1</dim>
					<dim>1</dim>
					<dim>1</dim>
				</port>
			</output>
		</layer>
		<layer id="197" name="Div_132/reciprocal__input_port_1/value7288682117/EltwiseUnsqueeze85635_const" type="Const" version="opset1">
			<data element_type="f32" offset="60" shape="1,1,1,1" size="4"/>
			<output>
				<port id="1" precision="FP32">
					<dim>1</dim>
					<dim>1</dim>
					<dim>1</dim>
					<dim>1</dim>
				</port>
			</output>
		</layer>
		<layer id="198" name="Div_132/reciprocal_" type="Power" version="opset1">
			<input>
				<port id="0">
					<dim>1</dim>
					<dim>1</dim>
					<dim>1</dim>
					<dim>1</dim>
				</port>
				<port id="1">
					<dim>1</dim>
					<dim>1</dim>
					<dim>1</dim>
					<dim>1</dim>
				</port>
			</input>
			<output>
				<port id="2" precision="FP32">
					<dim>1</dim>
					<dim>1</dim>
					<dim>1</dim>
					<dim>1</dim>
				</port>
			</output>
		</layer>
		<layer id="199" name="Div_132" type="Multiply" version="opset1">
			<input>
				<port id="0">
					<dim>1</dim>
					<dim>16</dim>
					<dim>1</dim>
					<dim>1</dim>
				</port>
				<port id="1">
					<dim>1</dim>
					<dim>1</dim>
					<dim>1</dim>
					<dim>1</dim>
				</port>
			</input>
			<output>
				<port id="2" precision="FP32">
					<dim>1</dim>
					<dim>16</dim>
					<dim>1</dim>
					<dim>1</dim>
				</port>
			</output>
		</layer>
		<layer id="200" name="Mul_133" type="Multiply" version="opset1">
			<input>
				<port id="0">
					<dim>1</dim>
					<dim>16</dim>
					<dim>1</dim>
					<dim>1</dim>
				</port>
				<port id="1">
					<dim>1</dim>
					<dim>16</dim>
					<dim>1</dim>
					<dim>1</dim>
				</port>
			</input>
			<output>
				<port id="2" precision="FP32">
					<dim>1</dim>
					<dim>16</dim>
					<dim>1</dim>
					<dim>1</dim>
				</port>
			</output>
		</layer>
		<layer id="201" name="stage1.rebnconv5.gate.beta/Output_0/Data__const" type="Const" version="opset1">
			<data element_type="f32" offset="73488" shape="1,16,1,1" size="64"/>
			<output>
				<port id="1" precision="FP32">
					<dim>1</dim>
					<dim>16</dim>
					<dim>1</dim>
					<dim>1</dim>
				</port>
			</output>
		</layer>
		<layer id="202" name="Add_134" type="Add" version="opset1">
			<input>
				<port id="0">
					<dim>1</dim>
					<dim>16</dim>
					<dim>1</dim>
					<dim>1</dim>
				</port>
				<port id="1">
					<dim>1</dim>
					<dim>16</dim>
					<dim>1</dim>
					<dim>1</dim>
				</port>
			</input>
			<output>
				<port id="2" precision="FP32">
					<dim>1</dim>
					<dim>16</dim>
					<dim>1</dim>
					<dim>1</dim>
				</port>
			</output>
		</layer>
		<layer id="203" name="Tanh_135" type="Tanh" version="opset1">
			<input>
				<port id="0">
					<dim>1</dim>
					<dim>16</dim>
					<dim>1</dim>
					<dim>1</dim>
				</port>
			</input>
			<output>
				<port id="1" precision="FP32">
					<dim>1</dim>
					<dim>16</dim>
					<dim>1</dim>
					<dim>1</dim>
				</port>
			</output>
		</layer>
		<layer id="204" name="Constant_136/EltwiseUnsqueeze82615_const" type="Const" version="opset1">
			<data element_type="f32" offset="76" shape="1,1,1,1" size="4"/>
			<output>
				<port id="1" precision="FP32">
					<dim>1</dim>
					<dim>1</dim>
					<dim>1</dim>
					<dim>1</dim>
				</port>
			</output>
		</layer>
		<layer id="205" name="Add_137" type="Add" version="opset1">
			<input>
				<port id="0">
					<dim>1</dim>
					<dim>16</dim>
					<dim>1</dim>
					<dim>1</dim>
				</port>
				<port id="1">
					<dim>1</dim>
					<dim>1</dim>
					<dim>1</dim>
					<dim>1</dim>
				</port>
			</input>
			<output>
				<port id="2" precision="FP32">
					<dim>1</dim>
					<dim>16</dim>
					<dim>1</dim>
					<dim>1</dim>
				</port>
			</output>
		</layer>
		<layer id="206" name="Mul_138" type="Multiply" version="opset1">
			<input>
				<port id="0">
					<dim>1</dim>
					<dim>16</dim>
					<dim>20</dim>
					<dim>20</dim>
				</port>
				<port id="1">
					<dim>1</dim>
					<dim>16</dim>
					<dim>1</dim>
					<dim>1</dim>
				</port>
			</input>
			<output>
				<port id="2" precision="FP32">
					<dim>1</dim>
					<dim>16</dim>
					<dim>20</dim>
					<dim>20</dim>
				</port>
			</output>
		</layer>
		<layer id="207" name="BatchNormalization_140/mean/Fused_Mul_8942989431_const" type="Const" version="opset1">
			<data element_type="f32" offset="73552" shape="16,16,3,3" size="9216"/>
			<output>
				<port id="1" precision="FP32">
					<dim>16</dim>
					<dim>16</dim>
					<dim>3</dim>
					<dim>3</dim>
				</port>
			</output>
		</layer>
		<layer id="208" name="Conv_139/WithoutBiases" type="Convolution" version="opset1">
			<data dilations="1,1" output_padding="0,0" pads_begin="1,1" pads_end="1,1" strides="1,1"/>
			<input>
				<port id="0">
					<dim>1</dim>
					<dim>16</dim>
					<dim>20</dim>
					<dim>20</dim>
				</port>
				<port id="1">
					<dim>16</dim>
					<dim>16</dim>
					<dim>3</dim>
					<dim>3</dim>
				</port>
			</input>
			<output>
				<port id="2" precision="FP32">
					<dim>1</dim>
					<dim>16</dim>
					<dim>20</dim>
					<dim>20</dim>
				</port>
			</output>
		</layer>
		<layer id="209" name="data_add_791417914682235/EltwiseUnsqueeze86107_const" type="Const" version="opset1">
			<data element_type="f32" offset="82768" shape="1,16,1,1" size="64"/>
			<output>
				<port id="1" precision="FP32">
					<dim>1</dim>
					<dim>16</dim>
					<dim>1</dim>
					<dim>1</dim>
				</port>
			</output>
		</layer>
		<layer id="210" name="Conv_139/Fused_Add_" type="Add" version="opset1">
			<input>
				<port id="0">
					<dim>1</dim>
					<dim>16</dim>
					<dim>20</dim>
					<dim>20</dim>
				</port>
				<port id="1">
					<dim>1</dim>
					<dim>16</dim>
					<dim>1</dim>
					<dim>1</dim>
				</port>
			</input>
			<output>
				<port id="2" precision="FP32">
					<dim>1</dim>
					<dim>16</dim>
					<dim>20</dim>
					<dim>20</dim>
				</port>
			</output>
		</layer>
		<layer id="211" name="Relu_141" type="ReLU" version="opset1">
			<input>
				<port id="0">
					<dim>1</dim>
					<dim>16</dim>
					<dim>20</dim>
					<dim>20</dim>
				</port>
			</input>
			<output>
				<port id="1" precision="FP32">
					<dim>1</dim>
					<dim>16</dim>
					<dim>20</dim>
					<dim>20</dim>
				</port>
			</output>
		</layer>
		<layer id="212" name="MaxPool_142" type="MaxPool" version="opset1">
			<data kernel="2,2" pads_begin="0,0" pads_end="0,0" rounding_type="ceil" strides="2,2"/>
			<input>
				<port id="0">
					<dim>1</dim>
					<dim>16</dim>
					<dim>20</dim>
					<dim>20</dim>
				</port>
			</input>
			<output>
				<port id="1" precision="FP32">
					<dim>1</dim>
					<dim>16</dim>
					<dim>10</dim>
					<dim>10</dim>
				</port>
			</output>
		</layer>
		<layer id="213" name="5002/EltwiseUnsqueeze82619_const" type="Const" version="opset1">
			<data element_type="f32" offset="8" shape="1,1,1,1" size="4"/>
			<output>
				<port id="1" precision="FP32">
					<dim>1</dim>
					<dim>1</dim>
					<dim>1</dim>
					<dim>1</dim>
				</port>
			</output>
		</layer>
		<layer id="214" name="Pow_143" type="Power" version="opset1">
			<input>
				<port id="0">
					<dim>1</dim>
					<dim>16</dim>
					<dim>10</dim>
					<dim>10</dim>
				</port>
				<port id="1">
					<dim>1</dim>
					<dim>1</dim>
					<dim>1</dim>
					<dim>1</dim>
				</port>
			</input>
			<output>
				<port id="2" precision="FP32">
					<dim>1</dim>
					<dim>16</dim>
					<dim>10</dim>
					<dim>10</dim>
				</port>
			</output>
		</layer>
		<layer id="215" name="ReduceSum_144/Cast_1181345_const" type="Const" version="opset1">
			<data element_type="i64" offset="12" shape="2" size="16"/>
			<output>
				<port id="1" precision="I64">
					<dim>2</dim>
				</port>
			</output>
		</layer>
		<layer id="216" name="ReduceSum_144" type="ReduceSum" version="opset1">
			<data keep_dims="True"/>
			<input>
				<port id="0">
					<dim>1</dim>
					<dim>16</dim>
					<dim>10</dim>
					<dim>10</dim>
				</port>
				<port id="1">
					<dim>2</dim>
				</port>
			</input>
			<output>
				<port id="2" precision="FP32">
					<dim>1</dim>
					<dim>16</dim>
					<dim>1</dim>
					<dim>1</dim>
				</port>
			</output>
		</layer>
		<layer id="217" name="Constant_145/EltwiseUnsqueeze82623_const" type="Const" version="opset1">
			<data element_type="f32" offset="28" shape="1,1,1,1" size="4"/>
			<output>
				<port id="1" precision="FP32">
					<dim>1</dim>
					<dim>1</dim>
					<dim>1</dim>
					<dim>1</dim>
				</port>
			</output>
		</layer>
		<layer id="218" name="Add_146" type="Add" version="opset1">
			<input>
				<port id="0">
					<dim>1</dim>
					<dim>16</dim>
					<dim>1</dim>
					<dim>1</dim>
				</port>
				<port id="1">
					<dim>1</dim>
					<dim>1</dim>
					<dim>1</dim>
					<dim>1</dim>
				</port>
			</input>
			<output>
				<port id="2" precision="FP32">
					<dim>1</dim>
					<dim>16</dim>
					<dim>1</dim>
					<dim>1</dim>
				</port>
			</output>
		</layer>
		<layer id="219" name="Constant_147/EltwiseUnsqueeze82627_const" type="Const" version="opset1">
			<data element_type="f32" offset="32" shape="1,1,1,1" size="4"/>
			<output>
				<port id="1" precision="FP32">
					<dim>1</dim>
					<dim>1</dim>
					<dim>1</dim>
					<dim>1</dim>
				</port>
			</output>
		</layer>
		<layer id="220" name="Pow_148" type="Power" version="opset1">
			<input>
				<port id="0">
					<dim>1</dim>
					<dim>16</dim>
					<dim>1</dim>
					<dim>1</dim>
				</port>
				<port id="1">
					<dim>1</dim>
					<dim>1</dim>
					<dim>1</dim>
					<dim>1</dim>
				</port>
			</input>
			<output>
				<port id="2" precision="FP32">
					<dim>1</dim>
					<dim>16</dim>
					<dim>1</dim>
					<dim>1</dim>
				</port>
			</output>
		</layer>
		<layer id="221" name="stage1.rebnconv6.gate.alpha/Output_0/Data__const" type="Const" version="opset1">
			<data element_type="f32" offset="82832" shape="1,16,1,1" size="64"/>
			<output>
				<port id="1" precision="FP32">
					<dim>1</dim>
					<dim>16</dim>
					<dim>1</dim>
					<dim>1</dim>
				</port>
			</output>
		</layer>
		<layer id="222" name="Mul_149" type="Multiply" version="opset1">
			<input>
				<port id="0">
					<dim>1</dim>
					<dim>16</dim>
					<dim>1</dim>
					<dim>1</dim>
				</port>
				<port id="1">
					<dim>1</dim>
					<dim>16</dim>
					<dim>1</dim>
					<dim>1</dim>
				</port>
			</input>
			<output>
				<port id="2" precision="FP32">
					<dim>1</dim>
					<dim>16</dim>
					<dim>1</dim>
					<dim>1</dim>
				</port>
			</output>
		</layer>
		<layer id="223" name="stage1.rebnconv6.gate.gamma/Output_0/Data__const" type="Const" version="opset1">
			<data element_type="f32" offset="82896" shape="1,16,1,1" size="64"/>
			<output>
				<port id="1" precision="FP32">
					<dim>1</dim>
					<dim>16</dim>
					<dim>1</dim>
					<dim>1</dim>
				</port>
			</output>
		</layer>
		<layer id="224" name="5003/EltwiseUnsqueeze82631_const" type="Const" version="opset1">
			<data element_type="f32" offset="8" shape="1,1,1,1" size="4"/>
			<output>
				<port id="1" precision="FP32">
					<dim>1</dim>
					<dim>1</dim>
					<dim>1</dim>
					<dim>1</dim>
				</port>
			</output>
		</layer>
		<layer id="225" name="Pow_150" type="Power" version="opset1">
			<input>
				<port id="0">
					<dim>1</dim>
					<dim>16</dim>
					<dim>1</dim>
					<dim>1</dim>
				</port>
				<port id="1">
					<dim>1</dim>
					<dim>1</dim>
					<dim>1</dim>
					<dim>1</dim>
				</port>
			</input>
			<output>
				<port id="2" precision="FP32">
					<dim>1</dim>
					<dim>16</dim>
					<dim>1</dim>
					<dim>1</dim>
				</port>
			</output>
		</layer>
		<layer id="226" name="ReduceMean_151/Cast_1181663_const" type="Const" version="opset1">
			<data element_type="i64" offset="0" shape="1" size="8"/>
			<output>
				<port id="1" precision="I64">
					<dim>1</dim>
				</port>
			</output>
		</layer>
		<layer id="227" name="ReduceMean_151" type="ReduceMean" version="opset1">
			<data keep_dims="True"/>
			<input>
				<port id="0">
					<dim>1</dim>
					<dim>16</dim>
					<dim>1</dim>
					<dim>1</dim>
				</port>
				<port id="1">
					<dim>1</dim>
				</port>
			</input>
			<output>
				<port id="2" precision="FP32">
					<dim>1</dim>
					<dim>1</dim>
					<dim>1</dim>
					<dim>1</dim>
				</port>
			</output>
		</layer>
		<layer id="228" name="Constant_152/EltwiseUnsqueeze82635_const" type="Const" version="opset1">
			<data element_type="f32" offset="28" shape="1,1,1,1" size="4"/>
			<output>
				<port id="1" precision="FP32">
					<dim>1</dim>
					<dim>1</dim>
					<dim>1</dim>
					<dim>1</dim>
				</port>
			</output>
		</layer>
		<layer id="229" name="Add_153" type="Add" version="opset1">
			<input>
				<port id="0">
					<dim>1</dim>
					<dim>1</dim>
					<dim>1</dim>
					<dim>1</dim>
				</port>
				<port id="1">
					<dim>1</dim>
					<dim>1</dim>
					<dim>1</dim>
					<dim>1</dim>
				</port>
			</input>
			<output>
				<port id="2" precision="FP32">
					<dim>1</dim>
					<dim>1</dim>
					<dim>1</dim>
					<dim>1</dim>
				</port>
			</output>
		</layer>
		<layer id="230" name="Constant_154/EltwiseUnsqueeze82639_const" type="Const" version="opset1">
			<data element_type="f32" offset="32" shape="1,1,1,1" size="4"/>
			<output>
				<port id="1" precision="FP32">
					<dim>1</dim>
					<dim>1</dim>
					<dim>1</dim>
					<dim>1</dim>
				</port>
			</output>
		</layer>
		<layer id="231" name="Pow_155" type="Power" version="opset1">
			<input>
				<port id="0">
					<dim>1</dim>
					<dim>1</dim>
					<dim>1</dim>
					<dim>1</dim>
				</port>
				<port id="1">
					<dim>1</dim>
					<dim>1</dim>
					<dim>1</dim>
					<dim>1</dim>
				</port>
			</input>
			<output>
				<port id="2" precision="FP32">
					<dim>1</dim>
					<dim>1</dim>
					<dim>1</dim>
					<dim>1</dim>
				</port>
			</output>
		</layer>
		<layer id="232" name="Div_156/reciprocal__input_port_1/value7289282118/EltwiseUnsqueeze85639_const" type="Const" version="opset1">
			<data element_type="f32" offset="60" shape="1,1,1,1" size="4"/>
			<output>
				<port id="1" precision="FP32">
					<dim>1</dim>
					<dim>1</dim>
					<dim>1</dim>
					<dim>1</dim>
				</port>
			</output>
		</layer>
		<layer id="233" name="Div_156/reciprocal_" type="Power" version="opset1">
			<input>
				<port id="0">
					<dim>1</dim>
					<dim>1</dim>
					<dim>1</dim>
					<dim>1</dim>
				</port>
				<port id="1">
					<dim>1</dim>
					<dim>1</dim>
					<dim>1</dim>
					<dim>1</dim>
				</port>
			</input>
			<output>
				<port id="2" precision="FP32">
					<dim>1</dim>
					<dim>1</dim>
					<dim>1</dim>
					<dim>1</dim>
				</port>
			</output>
		</layer>
		<layer id="234" name="Div_156" type="Multiply" version="opset1">
			<input>
				<port id="0">
					<dim>1</dim>
					<dim>16</dim>
					<dim>1</dim>
					<dim>1</dim>
				</port>
				<port id="1">
					<dim>1</dim>
					<dim>1</dim>
					<dim>1</dim>
					<dim>1</dim>
				</port>
			</input>
			<output>
				<port id="2" precision="FP32">
					<dim>1</dim>
					<dim>16</dim>
					<dim>1</dim>
					<dim>1</dim>
				</port>
			</output>
		</layer>
		<layer id="235" name="Mul_157" type="Multiply" version="opset1">
			<input>
				<port id="0">
					<dim>1</dim>
					<dim>16</dim>
					<dim>1</dim>
					<dim>1</dim>
				</port>
				<port id="1">
					<dim>1</dim>
					<dim>16</dim>
					<dim>1</dim>
					<dim>1</dim>
				</port>
			</input>
			<output>
				<port id="2" precision="FP32">
					<dim>1</dim>
					<dim>16</dim>
					<dim>1</dim>
					<dim>1</dim>
				</port>
			</output>
		</layer>
		<layer id="236" name="stage1.rebnconv6.gate.beta/Output_0/Data__const" type="Const" version="opset1">
			<data element_type="f32" offset="82960" shape="1,16,1,1" size="64"/>
			<output>
				<port id="1" precision="FP32">
					<dim>1</dim>
					<dim>16</dim>
					<dim>1</dim>
					<dim>1</dim>
				</port>
			</output>
		</layer>
		<layer id="237" name="Add_158" type="Add" version="opset1">
			<input>
				<port id="0">
					<dim>1</dim>
					<dim>16</dim>
					<dim>1</dim>
					<dim>1</dim>
				</port>
				<port id="1">
					<dim>1</dim>
					<dim>16</dim>
					<dim>1</dim>
					<dim>1</dim>
				</port>
			</input>
			<output>
				<port id="2" precision="FP32">
					<dim>1</dim>
					<dim>16</dim>
					<dim>1</dim>
					<dim>1</dim>
				</port>
			</output>
		</layer>
		<layer id="238" name="Tanh_159" type="Tanh" version="opset1">
			<input>
				<port id="0">
					<dim>1</dim>
					<dim>16</dim>
					<dim>1</dim>
					<dim>1</dim>
				</port>
			</input>
			<output>
				<port id="1" precision="FP32">
					<dim>1</dim>
					<dim>16</dim>
					<dim>1</dim>
					<dim>1</dim>
				</port>
			</output>
		</layer>
		<layer id="239" name="Constant_160/EltwiseUnsqueeze82643_const" type="Const" version="opset1">
			<data element_type="f32" offset="76" shape="1,1,1,1" size="4"/>
			<output>
				<port id="1" precision="FP32">
					<dim>1</dim>
					<dim>1</dim>
					<dim>1</dim>
					<dim>1</dim>
				</port>
			</output>
		</layer>
		<layer id="240" name="Add_161" type="Add" version="opset1">
			<input>
				<port id="0">
					<dim>1</dim>
					<dim>16</dim>
					<dim>1</dim>
					<dim>1</dim>
				</port>
				<port id="1">
					<dim>1</dim>
					<dim>1</dim>
					<dim>1</dim>
					<dim>1</dim>
				</port>
			</input>
			<output>
				<port id="2" precision="FP32">
					<dim>1</dim>
					<dim>16</dim>
					<dim>1</dim>
					<dim>1</dim>
				</port>
			</output>
		</layer>
		<layer id="241" name="Mul_162" type="Multiply" version="opset1">
			<input>
				<port id="0">
					<dim>1</dim>
					<dim>16</dim>
					<dim>10</dim>
					<dim>10</dim>
				</port>
				<port id="1">
					<dim>1</dim>
					<dim>16</dim>
					<dim>1</dim>
					<dim>1</dim>
				</port>
			</input>
			<output>
				<port id="2" precision="FP32">
					<dim>1</dim>
					<dim>16</dim>
					<dim>10</dim>
					<dim>10</dim>
				</port>
			</output>
		</layer>
		<layer id="242" name="BatchNormalization_164/mean/Fused_Mul_8943389435_const" type="Const" version="opset1">
			<data element_type="f32" offset="83024" shape="16,16,3,3" size="9216"/>
			<output>
				<port id="1" precision="FP32">
					<dim>16</dim>
					<dim>16</dim>
					<dim>3</dim>
					<dim>3</dim>
				</port>
			</output>
		</layer>
		<layer id="243" name="Conv_163/WithoutBiases" type="Convolution" version="opset1">
			<data dilations="1,1" output_padding="0,0" pads_begin="1,1" pads_end="1,1" strides="1,1"/>
			<input>
				<port id="0">
					<dim>1</dim>
					<dim>16</dim>
					<dim>10</dim>
					<dim>10</dim>
				</port>
				<port id="1">
					<dim>16</dim>
					<dim>16</dim>
					<dim>3</dim>
					<dim>3</dim>
				</port>
			</input>
			<output>
				<port id="2" precision="FP32">
					<dim>1</dim>
					<dim>16</dim>
					<dim>10</dim>
					<dim>10</dim>
				</port>
			</output>
		</layer>
		<layer id="244" name="data_add_791497915482237/EltwiseUnsqueeze86115_const" type="Const" version="opset1">
			<data element_type="f32" offset="92240" shape="1,16,1,1" size="64"/>
			<output>
				<port id="1" precision="FP32">
					<dim>1</dim>
					<dim>16</dim>
					<dim>1</dim>
					<dim>1</dim>
				</port>
			</output>
		</layer>
		<layer id="245" name="Conv_163/Fused_Add_" type="Add" version="opset1">
			<input>
				<port id="0">
					<dim>1</dim>
					<dim>16</dim>
					<dim>10</dim>
					<dim>10</dim>
				</port>
				<port id="1">
					<dim>1</dim>
					<dim>16</dim>
					<dim>1</dim>
					<dim>1</dim>
				</port>
			</input>
			<output>
				<port id="2" precision="FP32">
					<dim>1</dim>
					<dim>16</dim>
					<dim>10</dim>
					<dim>10</dim>
				</port>
			</output>
		</layer>
		<layer id="246" name="Relu_165" type="ReLU" version="opset1">
			<input>
				<port id="0">
					<dim>1</dim>
					<dim>16</dim>
					<dim>10</dim>
					<dim>10</dim>
				</port>
			</input>
			<output>
				<port id="1" precision="FP32">
					<dim>1</dim>
					<dim>16</dim>
					<dim>10</dim>
					<dim>10</dim>
				</port>
			</output>
		</layer>
		<layer id="247" name="5004/EltwiseUnsqueeze82647_const" type="Const" version="opset1">
			<data element_type="f32" offset="8" shape="1,1,1,1" size="4"/>
			<output>
				<port id="1" precision="FP32">
					<dim>1</dim>
					<dim>1</dim>
					<dim>1</dim>
					<dim>1</dim>
				</port>
			</output>
		</layer>
		<layer id="248" name="Pow_166" type="Power" version="opset1">
			<input>
				<port id="0">
					<dim>1</dim>
					<dim>16</dim>
					<dim>10</dim>
					<dim>10</dim>
				</port>
				<port id="1">
					<dim>1</dim>
					<dim>1</dim>
					<dim>1</dim>
					<dim>1</dim>
				</port>
			</input>
			<output>
				<port id="2" precision="FP32">
					<dim>1</dim>
					<dim>16</dim>
					<dim>10</dim>
					<dim>10</dim>
				</port>
			</output>
		</layer>
		<layer id="249" name="ReduceSum_167/Cast_1181355_const" type="Const" version="opset1">
			<data element_type="i64" offset="12" shape="2" size="16"/>
			<output>
				<port id="1" precision="I64">
					<dim>2</dim>
				</port>
			</output>
		</layer>
		<layer id="250" name="ReduceSum_167" type="ReduceSum" version="opset1">
			<data keep_dims="True"/>
			<input>
				<port id="0">
					<dim>1</dim>
					<dim>16</dim>
					<dim>10</dim>
					<dim>10</dim>
				</port>
				<port id="1">
					<dim>2</dim>
				</port>
			</input>
			<output>
				<port id="2" precision="FP32">
					<dim>1</dim>
					<dim>16</dim>
					<dim>1</dim>
					<dim>1</dim>
				</port>
			</output>
		</layer>
		<layer id="251" name="Constant_168/EltwiseUnsqueeze82651_const" type="Const" version="opset1">
			<data element_type="f32" offset="28" shape="1,1,1,1" size="4"/>
			<output>
				<port id="1" precision="FP32">
					<dim>1</dim>
					<dim>1</dim>
					<dim>1</dim>
					<dim>1</dim>
				</port>
			</output>
		</layer>
		<layer id="252" name="Add_169" type="Add" version="opset1">
			<input>
				<port id="0">
					<dim>1</dim>
					<dim>16</dim>
					<dim>1</dim>
					<dim>1</dim>
				</port>
				<port id="1">
					<dim>1</dim>
					<dim>1</dim>
					<dim>1</dim>
					<dim>1</dim>
				</port>
			</input>
			<output>
				<port id="2" precision="FP32">
					<dim>1</dim>
					<dim>16</dim>
					<dim>1</dim>
					<dim>1</dim>
				</port>
			</output>
		</layer>
		<layer id="253" name="Constant_170/EltwiseUnsqueeze82655_const" type="Const" version="opset1">
			<data element_type="f32" offset="32" shape="1,1,1,1" size="4"/>
			<output>
				<port id="1" precision="FP32">
					<dim>1</dim>
					<dim>1</dim>
					<dim>1</dim>
					<dim>1</dim>
				</port>
			</output>
		</layer>
		<layer id="254" name="Pow_171" type="Power" version="opset1">
			<input>
				<port id="0">
					<dim>1</dim>
					<dim>16</dim>
					<dim>1</dim>
					<dim>1</dim>
				</port>
				<port id="1">
					<dim>1</dim>
					<dim>1</dim>
					<dim>1</dim>
					<dim>1</dim>
				</port>
			</input>
			<output>
				<port id="2" precision="FP32">
					<dim>1</dim>
					<dim>16</dim>
					<dim>1</dim>
					<dim>1</dim>
				</port>
			</output>
		</layer>
		<layer id="255" name="stage1.rebnconv7.gate.alpha/Output_0/Data__const" type="Const" version="opset1">
			<data element_type="f32" offset="92304" shape="1,16,1,1" size="64"/>
			<output>
				<port id="1" precision="FP32">
					<dim>1</dim>
					<dim>16</dim>
					<dim>1</dim>
					<dim>1</dim>
				</port>
			</output>
		</layer>
		<layer id="256" name="Mul_172" type="Multiply" version="opset1">
			<input>
				<port id="0">
					<dim>1</dim>
					<dim>16</dim>
					<dim>1</dim>
					<dim>1</dim>
				</port>
				<port id="1">
					<dim>1</dim>
					<dim>16</dim>
					<dim>1</dim>
					<dim>1</dim>
				</port>
			</input>
			<output>
				<port id="2" precision="FP32">
					<dim>1</dim>
					<dim>16</dim>
					<dim>1</dim>
					<dim>1</dim>
				</port>
			</output>
		</layer>
		<layer id="257" name="stage1.rebnconv7.gate.gamma/Output_0/Data__const" type="Const" version="opset1">
			<data element_type="f32" offset="92368" shape="1,16,1,1" size="64"/>
			<output>
				<port id="1" precision="FP32">
					<dim>1</dim>
					<dim>16</dim>
					<dim>1</dim>
					<dim>1</dim>
				</port>
			</output>
		</layer>
		<layer id="258" name="5005/EltwiseUnsqueeze82659_const" type="Const" version="opset1">
			<data element_type="f32" offset="8" shape="1,1,1,1" size="4"/>
			<output>
				<port id="1" precision="FP32">
					<dim>1</dim>
					<dim>1</dim>
					<dim>1</dim>
					<dim>1</dim>
				</port>
			</output>
		</layer>
		<layer id="259" name="Pow_173" type="Power" version="opset1">
			<input>
				<port id="0">
					<dim>1</dim>
					<dim>16</dim>
					<dim>1</dim>
					<dim>1</dim>
				</port>
				<port id="1">
					<dim>1</dim>
					<dim>1</dim>
					<dim>1</dim>
					<dim>1</dim>
				</port>
			</input>
			<output>
				<port id="2" precision="FP32">
					<dim>1</dim>
					<dim>16</dim>
					<dim>1</dim>
					<dim>1</dim>
				</port>
			</output>
		</layer>
		<layer id="260" name="ReduceMean_174/Cast_1182283_const" type="Const" version="opset1">
			<data element_type="i64" offset="0" shape="1" size="8"/>
			<output>
				<port id="1" precision="I64">
					<dim>1</dim>
				</port>
			</output>
		</layer>
		<layer id="261" name="ReduceMean_174" type="ReduceMean" version="opset1">
			<data keep_dims="True"/>
			<input>
				<port id="0">
					<dim>1</dim>
					<dim>16</dim>
					<dim>1</dim>
					<dim>1</dim>
				</port>
				<port id="1">
					<dim>1</dim>
				</port>
			</input>
			<output>
				<port id="2" precision="FP32">
					<dim>1</dim>
					<dim>1</dim>
					<dim>1</dim>
					<dim>1</dim>
				</port>
			</output>
		</layer>
		<layer id="262" name="Constant_175/EltwiseUnsqueeze82663_const" type="Const" version="opset1">
			<data element_type="f32" offset="28" shape="1,1,1,1" size="4"/>
			<output>
				<port id="1" precision="FP32">
					<dim>1</dim>
					<dim>1</dim>
					<dim>1</dim>
					<dim>1</dim>
				</port>
			</output>
		</layer>
		<layer id="263" name="Add_176" type="Add" version="opset1">
			<input>
				<port id="0">
					<dim>1</dim>
					<dim>1</dim>
					<dim>1</dim>
					<dim>1</dim>
				</port>
				<port id="1">
					<dim>1</dim>
					<dim>1</dim>
					<dim>1</dim>
					<dim>1</dim>
				</port>
			</input>
			<output>
				<port id="2" precision="FP32">
					<dim>1</dim>
					<dim>1</dim>
					<dim>1</dim>
					<dim>1</dim>
				</port>
			</output>
		</layer>
		<layer id="264" name="Constant_177/EltwiseUnsqueeze82667_const" type="Const" version="opset1">
			<data element_type="f32" offset="32" shape="1,1,1,1" size="4"/>
			<output>
				<port id="1" precision="FP32">
					<dim>1</dim>
					<dim>1</dim>
					<dim>1</dim>
					<dim>1</dim>
				</port>
			</output>
		</layer>
		<layer id="265" name="Pow_178" type="Power" version="opset1">
			<input>
				<port id="0">
					<dim>1</dim>
					<dim>1</dim>
					<dim>1</dim>
					<dim>1</dim>
				</port>
				<port id="1">
					<dim>1</dim>
					<dim>1</dim>
					<dim>1</dim>
					<dim>1</dim>
				</port>
			</input>
			<output>
				<port id="2" precision="FP32">
					<dim>1</dim>
					<dim>1</dim>
					<dim>1</dim>
					<dim>1</dim>
				</port>
			</output>
		</layer>
		<layer id="266" name="Div_179/reciprocal__input_port_1/value7289882119/EltwiseUnsqueeze85643_const" type="Const" version="opset1">
			<data element_type="f32" offset="60" shape="1,1,1,1" size="4"/>
			<output>
				<port id="1" precision="FP32">
					<dim>1</dim>
					<dim>1</dim>
					<dim>1</dim>
					<dim>1</dim>
				</port>
			</output>
		</layer>
		<layer id="267" name="Div_179/reciprocal_" type="Power" version="opset1">
			<input>
				<port id="0">
					<dim>1</dim>
					<dim>1</dim>
					<dim>1</dim>
					<dim>1</dim>
				</port>
				<port id="1">
					<dim>1</dim>
					<dim>1</dim>
					<dim>1</dim>
					<dim>1</dim>
				</port>
			</input>
			<output>
				<port id="2" precision="FP32">
					<dim>1</dim>
					<dim>1</dim>
					<dim>1</dim>
					<dim>1</dim>
				</port>
			</output>
		</layer>
		<layer id="268" name="Div_179" type="Multiply" version="opset1">
			<input>
				<port id="0">
					<dim>1</dim>
					<dim>16</dim>
					<dim>1</dim>
					<dim>1</dim>
				</port>
				<port id="1">
					<dim>1</dim>
					<dim>1</dim>
					<dim>1</dim>
					<dim>1</dim>
				</port>
			</input>
			<output>
				<port id="2" precision="FP32">
					<dim>1</dim>
					<dim>16</dim>
					<dim>1</dim>
					<dim>1</dim>
				</port>
			</output>
		</layer>
		<layer id="269" name="Mul_180" type="Multiply" version="opset1">
			<input>
				<port id="0">
					<dim>1</dim>
					<dim>16</dim>
					<dim>1</dim>
					<dim>1</dim>
				</port>
				<port id="1">
					<dim>1</dim>
					<dim>16</dim>
					<dim>1</dim>
					<dim>1</dim>
				</port>
			</input>
			<output>
				<port id="2" precision="FP32">
					<dim>1</dim>
					<dim>16</dim>
					<dim>1</dim>
					<dim>1</dim>
				</port>
			</output>
		</layer>
		<layer id="270" name="stage1.rebnconv7.gate.beta/Output_0/Data__const" type="Const" version="opset1">
			<data element_type="f32" offset="92432" shape="1,16,1,1" size="64"/>
			<output>
				<port id="1" precision="FP32">
					<dim>1</dim>
					<dim>16</dim>
					<dim>1</dim>
					<dim>1</dim>
				</port>
			</output>
		</layer>
		<layer id="271" name="Add_181" type="Add" version="opset1">
			<input>
				<port id="0">
					<dim>1</dim>
					<dim>16</dim>
					<dim>1</dim>
					<dim>1</dim>
				</port>
				<port id="1">
					<dim>1</dim>
					<dim>16</dim>
					<dim>1</dim>
					<dim>1</dim>
				</port>
			</input>
			<output>
				<port id="2" precision="FP32">
					<dim>1</dim>
					<dim>16</dim>
					<dim>1</dim>
					<dim>1</dim>
				</port>
			</output>
		</layer>
		<layer id="272" name="Tanh_182" type="Tanh" version="opset1">
			<input>
				<port id="0">
					<dim>1</dim>
					<dim>16</dim>
					<dim>1</dim>
					<dim>1</dim>
				</port>
			</input>
			<output>
				<port id="1" precision="FP32">
					<dim>1</dim>
					<dim>16</dim>
					<dim>1</dim>
					<dim>1</dim>
				</port>
			</output>
		</layer>
		<layer id="273" name="Constant_183/EltwiseUnsqueeze82671_const" type="Const" version="opset1">
			<data element_type="f32" offset="76" shape="1,1,1,1" size="4"/>
			<output>
				<port id="1" precision="FP32">
					<dim>1</dim>
					<dim>1</dim>
					<dim>1</dim>
					<dim>1</dim>
				</port>
			</output>
		</layer>
		<layer id="274" name="Add_184" type="Add" version="opset1">
			<input>
				<port id="0">
					<dim>1</dim>
					<dim>16</dim>
					<dim>1</dim>
					<dim>1</dim>
				</port>
				<port id="1">
					<dim>1</dim>
					<dim>1</dim>
					<dim>1</dim>
					<dim>1</dim>
				</port>
			</input>
			<output>
				<port id="2" precision="FP32">
					<dim>1</dim>
					<dim>16</dim>
					<dim>1</dim>
					<dim>1</dim>
				</port>
			</output>
		</layer>
		<layer id="275" name="Mul_185" type="Multiply" version="opset1">
			<input>
				<port id="0">
					<dim>1</dim>
					<dim>16</dim>
					<dim>10</dim>
					<dim>10</dim>
				</port>
				<port id="1">
					<dim>1</dim>
					<dim>16</dim>
					<dim>1</dim>
					<dim>1</dim>
				</port>
			</input>
			<output>
				<port id="2" precision="FP32">
					<dim>1</dim>
					<dim>16</dim>
					<dim>10</dim>
					<dim>10</dim>
				</port>
			</output>
		</layer>
		<layer id="276" name="BatchNormalization_187/mean/Fused_Mul_8943789439_const" type="Const" version="opset1">
			<data element_type="f32" offset="92496" shape="16,16,3,3" size="9216"/>
			<output>
				<port id="1" precision="FP32">
					<dim>16</dim>
					<dim>16</dim>
					<dim>3</dim>
					<dim>3</dim>
				</port>
			</output>
		</layer>
		<layer id="277" name="Conv_186/WithoutBiases" type="Convolution" version="opset1">
			<data dilations="2,2" output_padding="0,0" pads_begin="2,2" pads_end="2,2" strides="1,1"/>
			<input>
				<port id="0">
					<dim>1</dim>
					<dim>16</dim>
					<dim>10</dim>
					<dim>10</dim>
				</port>
				<port id="1">
					<dim>16</dim>
					<dim>16</dim>
					<dim>3</dim>
					<dim>3</dim>
				</port>
			</input>
			<output>
				<port id="2" precision="FP32">
					<dim>1</dim>
					<dim>16</dim>
					<dim>10</dim>
					<dim>10</dim>
				</port>
			</output>
		</layer>
		<layer id="278" name="data_add_791577916282239/EltwiseUnsqueeze86123_const" type="Const" version="opset1">
			<data element_type="f32" offset="101712" shape="1,16,1,1" size="64"/>
			<output>
				<port id="1" precision="FP32">
					<dim>1</dim>
					<dim>16</dim>
					<dim>1</dim>
					<dim>1</dim>
				</port>
			</output>
		</layer>
		<layer id="279" name="Conv_186/Fused_Add_" type="Add" version="opset1">
			<input>
				<port id="0">
					<dim>1</dim>
					<dim>16</dim>
					<dim>10</dim>
					<dim>10</dim>
				</port>
				<port id="1">
					<dim>1</dim>
					<dim>16</dim>
					<dim>1</dim>
					<dim>1</dim>
				</port>
			</input>
			<output>
				<port id="2" precision="FP32">
					<dim>1</dim>
					<dim>16</dim>
					<dim>10</dim>
					<dim>10</dim>
				</port>
			</output>
		</layer>
		<layer id="280" name="Relu_188" type="ReLU" version="opset1">
			<input>
				<port id="0">
					<dim>1</dim>
					<dim>16</dim>
					<dim>10</dim>
					<dim>10</dim>
				</port>
			</input>
			<output>
				<port id="1" precision="FP32">
					<dim>1</dim>
					<dim>16</dim>
					<dim>10</dim>
					<dim>10</dim>
				</port>
			</output>
		</layer>
		<layer id="281" name="Concat_189" type="Concat" version="opset1">
			<data axis="1"/>
			<input>
				<port id="0">
					<dim>1</dim>
					<dim>16</dim>
					<dim>10</dim>
					<dim>10</dim>
				</port>
				<port id="1">
					<dim>1</dim>
					<dim>16</dim>
					<dim>10</dim>
					<dim>10</dim>
				</port>
			</input>
			<output>
				<port id="2" precision="FP32">
					<dim>1</dim>
					<dim>32</dim>
					<dim>10</dim>
					<dim>10</dim>
				</port>
			</output>
		</layer>
		<layer id="282" name="5006/EltwiseUnsqueeze82675_const" type="Const" version="opset1">
			<data element_type="f32" offset="8" shape="1,1,1,1" size="4"/>
			<output>
				<port id="1" precision="FP32">
					<dim>1</dim>
					<dim>1</dim>
					<dim>1</dim>
					<dim>1</dim>
				</port>
			</output>
		</layer>
		<layer id="283" name="Pow_190" type="Power" version="opset1">
			<input>
				<port id="0">
					<dim>1</dim>
					<dim>32</dim>
					<dim>10</dim>
					<dim>10</dim>
				</port>
				<port id="1">
					<dim>1</dim>
					<dim>1</dim>
					<dim>1</dim>
					<dim>1</dim>
				</port>
			</input>
			<output>
				<port id="2" precision="FP32">
					<dim>1</dim>
					<dim>32</dim>
					<dim>10</dim>
					<dim>10</dim>
				</port>
			</output>
		</layer>
		<layer id="284" name="ReduceSum_191/Cast_1181671_const" type="Const" version="opset1">
			<data element_type="i64" offset="12" shape="2" size="16"/>
			<output>
				<port id="1" precision="I64">
					<dim>2</dim>
				</port>
			</output>
		</layer>
		<layer id="285" name="ReduceSum_191" type="ReduceSum" version="opset1">
			<data keep_dims="True"/>
			<input>
				<port id="0">
					<dim>1</dim>
					<dim>32</dim>
					<dim>10</dim>
					<dim>10</dim>
				</port>
				<port id="1">
					<dim>2</dim>
				</port>
			</input>
			<output>
				<port id="2" precision="FP32">
					<dim>1</dim>
					<dim>32</dim>
					<dim>1</dim>
					<dim>1</dim>
				</port>
			</output>
		</layer>
		<layer id="286" name="Constant_192/EltwiseUnsqueeze82679_const" type="Const" version="opset1">
			<data element_type="f32" offset="28" shape="1,1,1,1" size="4"/>
			<output>
				<port id="1" precision="FP32">
					<dim>1</dim>
					<dim>1</dim>
					<dim>1</dim>
					<dim>1</dim>
				</port>
			</output>
		</layer>
		<layer id="287" name="Add_193" type="Add" version="opset1">
			<input>
				<port id="0">
					<dim>1</dim>
					<dim>32</dim>
					<dim>1</dim>
					<dim>1</dim>
				</port>
				<port id="1">
					<dim>1</dim>
					<dim>1</dim>
					<dim>1</dim>
					<dim>1</dim>
				</port>
			</input>
			<output>
				<port id="2" precision="FP32">
					<dim>1</dim>
					<dim>32</dim>
					<dim>1</dim>
					<dim>1</dim>
				</port>
			</output>
		</layer>
		<layer id="288" name="Constant_194/EltwiseUnsqueeze82683_const" type="Const" version="opset1">
			<data element_type="f32" offset="32" shape="1,1,1,1" size="4"/>
			<output>
				<port id="1" precision="FP32">
					<dim>1</dim>
					<dim>1</dim>
					<dim>1</dim>
					<dim>1</dim>
				</port>
			</output>
		</layer>
		<layer id="289" name="Pow_195" type="Power" version="opset1">
			<input>
				<port id="0">
					<dim>1</dim>
					<dim>32</dim>
					<dim>1</dim>
					<dim>1</dim>
				</port>
				<port id="1">
					<dim>1</dim>
					<dim>1</dim>
					<dim>1</dim>
					<dim>1</dim>
				</port>
			</input>
			<output>
				<port id="2" precision="FP32">
					<dim>1</dim>
					<dim>32</dim>
					<dim>1</dim>
					<dim>1</dim>
				</port>
			</output>
		</layer>
		<layer id="290" name="stage1.rebnconv6d.gate.alpha/Output_0/Data__const" type="Const" version="opset1">
			<data element_type="f32" offset="101776" shape="1,32,1,1" size="128"/>
			<output>
				<port id="1" precision="FP32">
					<dim>1</dim>
					<dim>32</dim>
					<dim>1</dim>
					<dim>1</dim>
				</port>
			</output>
		</layer>
		<layer id="291" name="Mul_196" type="Multiply" version="opset1">
			<input>
				<port id="0">
					<dim>1</dim>
					<dim>32</dim>
					<dim>1</dim>
					<dim>1</dim>
				</port>
				<port id="1">
					<dim>1</dim>
					<dim>32</dim>
					<dim>1</dim>
					<dim>1</dim>
				</port>
			</input>
			<output>
				<port id="2" precision="FP32">
					<dim>1</dim>
					<dim>32</dim>
					<dim>1</dim>
					<dim>1</dim>
				</port>
			</output>
		</layer>
		<layer id="292" name="stage1.rebnconv6d.gate.gamma/Output_0/Data__const" type="Const" version="opset1">
			<data element_type="f32" offset="101904" shape="1,32,1,1" size="128"/>
			<output>
				<port id="1" precision="FP32">
					<dim>1</dim>
					<dim>32</dim>
					<dim>1</dim>
					<dim>1</dim>
				</port>
			</output>
		</layer>
		<layer id="293" name="5007/EltwiseUnsqueeze82687_const" type="Const" version="opset1">
			<data element_type="f32" offset="8" shape="1,1,1,1" size="4"/>
			<output>
				<port id="1" precision="FP32">
					<dim>1</dim>
					<dim>1</dim>
					<dim>1</dim>
					<dim>1</dim>
				</port>
			</output>
		</layer>
		<layer id="294" name="Pow_197" type="Power" version="opset1">
			<input>
				<port id="0">
					<dim>1</dim>
					<dim>32</dim>
					<dim>1</dim>
					<dim>1</dim>
				</port>
				<port id="1">
					<dim>1</dim>
					<dim>1</dim>
					<dim>1</dim>
					<dim>1</dim>
				</port>
			</input>
			<output>
				<port id="2" precision="FP32">
					<dim>1</dim>
					<dim>32</dim>
					<dim>1</dim>
					<dim>1</dim>
				</port>
			</output>
		</layer>
		<layer id="295" name="ReduceMean_198/Cast_1181993_const" type="Const" version="opset1">
			<data element_type="i64" offset="0" shape="1" size="8"/>
			<output>
				<port id="1" precision="I64">
					<dim>1</dim>
				</port>
			</output>
		</layer>
		<layer id="296" name="ReduceMean_198" type="ReduceMean" version="opset1">
			<data keep_dims="True"/>
			<input>
				<port id="0">
					<dim>1</dim>
					<dim>32</dim>
					<dim>1</dim>
					<dim>1</dim>
				</port>
				<port id="1">
					<dim>1</dim>
				</port>
			</input>
			<output>
				<port id="2" precision="FP32">
					<dim>1</dim>
					<dim>1</dim>
					<dim>1</dim>
					<dim>1</dim>
				</port>
			</output>
		</layer>
		<layer id="297" name="Constant_199/EltwiseUnsqueeze82691_const" type="Const" version="opset1">
			<data element_type="f32" offset="28" shape="1,1,1,1" size="4"/>
			<output>
				<port id="1" precision="FP32">
					<dim>1</dim>
					<dim>1</dim>
					<dim>1</dim>
					<dim>1</dim>
				</port>
			</output>
		</layer>
		<layer id="298" name="Add_200" type="Add" version="opset1">
			<input>
				<port id="0">
					<dim>1</dim>
					<dim>1</dim>
					<dim>1</dim>
					<dim>1</dim>
				</port>
				<port id="1">
					<dim>1</dim>
					<dim>1</dim>
					<dim>1</dim>
					<dim>1</dim>
				</port>
			</input>
			<output>
				<port id="2" precision="FP32">
					<dim>1</dim>
					<dim>1</dim>
					<dim>1</dim>
					<dim>1</dim>
				</port>
			</output>
		</layer>
		<layer id="299" name="Constant_201/EltwiseUnsqueeze82695_const" type="Const" version="opset1">
			<data element_type="f32" offset="32" shape="1,1,1,1" size="4"/>
			<output>
				<port id="1" precision="FP32">
					<dim>1</dim>
					<dim>1</dim>
					<dim>1</dim>
					<dim>1</dim>
				</port>
			</output>
		</layer>
		<layer id="300" name="Pow_202" type="Power" version="opset1">
			<input>
				<port id="0">
					<dim>1</dim>
					<dim>1</dim>
					<dim>1</dim>
					<dim>1</dim>
				</port>
				<port id="1">
					<dim>1</dim>
					<dim>1</dim>
					<dim>1</dim>
					<dim>1</dim>
				</port>
			</input>
			<output>
				<port id="2" precision="FP32">
					<dim>1</dim>
					<dim>1</dim>
					<dim>1</dim>
					<dim>1</dim>
				</port>
			</output>
		</layer>
		<layer id="301" name="Div_203/reciprocal__input_port_1/value7290482120/EltwiseUnsqueeze85647_const" type="Const" version="opset1">
			<data element_type="f32" offset="60" shape="1,1,1,1" size="4"/>
			<output>
				<port id="1" precision="FP32">
					<dim>1</dim>
					<dim>1</dim>
					<dim>1</dim>
					<dim>1</dim>
				</port>
			</output>
		</layer>
		<layer id="302" name="Div_203/reciprocal_" type="Power" version="opset1">
			<input>
				<port id="0">
					<dim>1</dim>
					<dim>1</dim>
					<dim>1</dim>
					<dim>1</dim>
				</port>
				<port id="1">
					<dim>1</dim>
					<dim>1</dim>
					<dim>1</dim>
					<dim>1</dim>
				</port>
			</input>
			<output>
				<port id="2" precision="FP32">
					<dim>1</dim>
					<dim>1</dim>
					<dim>1</dim>
					<dim>1</dim>
				</port>
			</output>
		</layer>
		<layer id="303" name="Div_203" type="Multiply" version="opset1">
			<input>
				<port id="0">
					<dim>1</dim>
					<dim>32</dim>
					<dim>1</dim>
					<dim>1</dim>
				</port>
				<port id="1">
					<dim>1</dim>
					<dim>1</dim>
					<dim>1</dim>
					<dim>1</dim>
				</port>
			</input>
			<output>
				<port id="2" precision="FP32">
					<dim>1</dim>
					<dim>32</dim>
					<dim>1</dim>
					<dim>1</dim>
				</port>
			</output>
		</layer>
		<layer id="304" name="Mul_204" type="Multiply" version="opset1">
			<input>
				<port id="0">
					<dim>1</dim>
					<dim>32</dim>
					<dim>1</dim>
					<dim>1</dim>
				</port>
				<port id="1">
					<dim>1</dim>
					<dim>32</dim>
					<dim>1</dim>
					<dim>1</dim>
				</port>
			</input>
			<output>
				<port id="2" precision="FP32">
					<dim>1</dim>
					<dim>32</dim>
					<dim>1</dim>
					<dim>1</dim>
				</port>
			</output>
		</layer>
		<layer id="305" name="stage1.rebnconv6d.gate.beta/Output_0/Data__const" type="Const" version="opset1">
			<data element_type="f32" offset="102032" shape="1,32,1,1" size="128"/>
			<output>
				<port id="1" precision="FP32">
					<dim>1</dim>
					<dim>32</dim>
					<dim>1</dim>
					<dim>1</dim>
				</port>
			</output>
		</layer>
		<layer id="306" name="Add_205" type="Add" version="opset1">
			<input>
				<port id="0">
					<dim>1</dim>
					<dim>32</dim>
					<dim>1</dim>
					<dim>1</dim>
				</port>
				<port id="1">
					<dim>1</dim>
					<dim>32</dim>
					<dim>1</dim>
					<dim>1</dim>
				</port>
			</input>
			<output>
				<port id="2" precision="FP32">
					<dim>1</dim>
					<dim>32</dim>
					<dim>1</dim>
					<dim>1</dim>
				</port>
			</output>
		</layer>
		<layer id="307" name="Tanh_206" type="Tanh" version="opset1">
			<input>
				<port id="0">
					<dim>1</dim>
					<dim>32</dim>
					<dim>1</dim>
					<dim>1</dim>
				</port>
			</input>
			<output>
				<port id="1" precision="FP32">
					<dim>1</dim>
					<dim>32</dim>
					<dim>1</dim>
					<dim>1</dim>
				</port>
			</output>
		</layer>
		<layer id="308" name="Constant_207/EltwiseUnsqueeze82699_const" type="Const" version="opset1">
			<data element_type="f32" offset="76" shape="1,1,1,1" size="4"/>
			<output>
				<port id="1" precision="FP32">
					<dim>1</dim>
					<dim>1</dim>
					<dim>1</dim>
					<dim>1</dim>
				</port>
			</output>
		</layer>
		<layer id="309" name="Add_208" type="Add" version="opset1">
			<input>
				<port id="0">
					<dim>1</dim>
					<dim>32</dim>
					<dim>1</dim>
					<dim>1</dim>
				</port>
				<port id="1">
					<dim>1</dim>
					<dim>1</dim>
					<dim>1</dim>
					<dim>1</dim>
				</port>
			</input>
			<output>
				<port id="2" precision="FP32">
					<dim>1</dim>
					<dim>32</dim>
					<dim>1</dim>
					<dim>1</dim>
				</port>
			</output>
		</layer>
		<layer id="310" name="Mul_209" type="Multiply" version="opset1">
			<input>
				<port id="0">
					<dim>1</dim>
					<dim>32</dim>
					<dim>10</dim>
					<dim>10</dim>
				</port>
				<port id="1">
					<dim>1</dim>
					<dim>32</dim>
					<dim>1</dim>
					<dim>1</dim>
				</port>
			</input>
			<output>
				<port id="2" precision="FP32">
					<dim>1</dim>
					<dim>32</dim>
					<dim>10</dim>
					<dim>10</dim>
				</port>
			</output>
		</layer>
		<layer id="311" name="BatchNormalization_211/mean/Fused_Mul_8944189443_const" type="Const" version="opset1">
			<data element_type="f32" offset="102160" shape="16,32,3,3" size="18432"/>
			<output>
				<port id="1" precision="FP32">
					<dim>16</dim>
					<dim>32</dim>
					<dim>3</dim>
					<dim>3</dim>
				</port>
			</output>
		</layer>
		<layer id="312" name="Conv_210/WithoutBiases" type="Convolution" version="opset1">
			<data dilations="1,1" output_padding="0,0" pads_begin="1,1" pads_end="1,1" strides="1,1"/>
			<input>
				<port id="0">
					<dim>1</dim>
					<dim>32</dim>
					<dim>10</dim>
					<dim>10</dim>
				</port>
				<port id="1">
					<dim>16</dim>
					<dim>32</dim>
					<dim>3</dim>
					<dim>3</dim>
				</port>
			</input>
			<output>
				<port id="2" precision="FP32">
					<dim>1</dim>
					<dim>16</dim>
					<dim>10</dim>
					<dim>10</dim>
				</port>
			</output>
		</layer>
		<layer id="313" name="data_add_791657917082241/EltwiseUnsqueeze86131_const" type="Const" version="opset1">
			<data element_type="f32" offset="120592" shape="1,16,1,1" size="64"/>
			<output>
				<port id="1" precision="FP32">
					<dim>1</dim>
					<dim>16</dim>
					<dim>1</dim>
					<dim>1</dim>
				</port>
			</output>
		</layer>
		<layer id="314" name="Conv_210/Fused_Add_" type="Add" version="opset1">
			<input>
				<port id="0">
					<dim>1</dim>
					<dim>16</dim>
					<dim>10</dim>
					<dim>10</dim>
				</port>
				<port id="1">
					<dim>1</dim>
					<dim>16</dim>
					<dim>1</dim>
					<dim>1</dim>
				</port>
			</input>
			<output>
				<port id="2" precision="FP32">
					<dim>1</dim>
					<dim>16</dim>
					<dim>10</dim>
					<dim>10</dim>
				</port>
			</output>
		</layer>
		<layer id="315" name="Relu_212" type="ReLU" version="opset1">
			<input>
				<port id="0">
					<dim>1</dim>
					<dim>16</dim>
					<dim>10</dim>
					<dim>10</dim>
				</port>
			</input>
			<output>
				<port id="1" precision="FP32">
					<dim>1</dim>
					<dim>16</dim>
					<dim>10</dim>
					<dim>10</dim>
				</port>
			</output>
		</layer>
		<layer id="316" name="Shape_223" type="ShapeOf" version="opset3">
			<data output_type="i64"/>
			<input>
				<port id="0">
					<dim>1</dim>
					<dim>16</dim>
					<dim>10</dim>
					<dim>10</dim>
				</port>
			</input>
			<output>
				<port id="1" precision="I64">
					<dim>4</dim>
				</port>
			</output>
		</layer>
		<layer id="317" name="Slice_227/Cast_1181315_const" type="Const" version="opset1">
			<data element_type="i64" offset="120656" shape="1" size="8"/>
			<output>
				<port id="1" precision="I64">
					<dim>1</dim>
				</port>
			</output>
		</layer>
		<layer id="318" name="Slice_227/Cast_2181317_const" type="Const" version="opset1">
			<data element_type="i64" offset="120664" shape="1" size="8"/>
			<output>
				<port id="1" precision="I64">
					<dim>1</dim>
				</port>
			</output>
		</layer>
		<layer id="319" name="Slice_227/Cast_3181319_const" type="Const" version="opset1">
			<data element_type="i64" offset="0" shape="1" size="8"/>
			<output>
				<port id="1" precision="I64">
					<dim>1</dim>
				</port>
			</output>
		</layer>
		<layer id="320" name="Slice_227" type="StridedSlice" version="opset1">
			<data begin_mask="1" ellipsis_mask="0" end_mask="0" new_axis_mask="0" shrink_axis_mask="0"/>
			<input>
				<port id="0">
					<dim>4</dim>
				</port>
				<port id="1">
					<dim>1</dim>
				</port>
				<port id="2">
					<dim>1</dim>
				</port>
				<port id="3">
					<dim>1</dim>
				</port>
			</input>
			<output>
				<port id="4" precision="I64">
					<dim>2</dim>
				</port>
			</output>
		</layer>
		<layer id="321" name="Shape_213" type="ShapeOf" version="opset3">
			<data output_type="i64"/>
			<input>
				<port id="0">
					<dim>1</dim>
					<dim>16</dim>
					<dim>20</dim>
					<dim>20</dim>
				</port>
			</input>
			<output>
				<port id="1" precision="I64">
					<dim>4</dim>
				</port>
			</output>
		</layer>
		<layer id="322" name="Gather_2155054/Cast_1181751_const" type="Const" version="opset1">
			<data element_type="i32" offset="120672" shape="" size="4"/>
			<output>
				<port id="1" precision="I32"/>
			</output>
		</layer>
		<layer id="323" name="Gather_2155054/Cast_2181753_const" type="Const" version="opset1">
			<data element_type="i64" offset="120656" shape="" size="8"/>
			<output>
				<port id="1" precision="I64"/>
			</output>
		</layer>
		<layer id="324" name="Gather_2155054" type="Gather" version="opset1">
			<input>
				<port id="0">
					<dim>4</dim>
				</port>
				<port id="1"/>
				<port id="2"/>
			</input>
			<output>
				<port id="3" precision="I64"/>
			</output>
		</layer>
		<layer id="325" name="Unsqueeze_219/Dims/Output_0/Data__const" type="Const" version="opset1">
			<data element_type="i64" offset="120656" shape="1" size="8"/>
			<output>
				<port id="1" precision="I64">
					<dim>1</dim>
				</port>
			</output>
		</layer>
		<layer id="326" name="Unsqueeze_219/Unsqueeze" type="Unsqueeze" version="opset1">
			<input>
				<port id="0"/>
				<port id="1">
					<dim>1</dim>
				</port>
			</input>
			<output>
				<port id="2" precision="I64">
					<dim>1</dim>
				</port>
			</output>
		</layer>
		<layer id="327" name="Shape_216" type="ShapeOf" version="opset3">
			<data output_type="i64"/>
			<input>
				<port id="0">
					<dim>1</dim>
					<dim>16</dim>
					<dim>20</dim>
					<dim>20</dim>
				</port>
			</input>
			<output>
				<port id="1" precision="I64">
					<dim>4</dim>
				</port>
			</output>
		</layer>
		<layer id="328" name="Gather_2185068/Cast_1181293_const" type="Const" version="opset1">
			<data element_type="i32" offset="120676" shape="" size="4"/>
			<output>
				<port id="1" precision="I32"/>
			</output>
		</layer>
		<layer id="329" name="Gather_2185068/Cast_2181295_const" type="Const" version="opset1">
			<data element_type="i64" offset="120656" shape="" size="8"/>
			<output>
				<port id="1" precision="I64"/>
			</output>
		</layer>
		<layer id="330" name="Gather_2185068" type="Gather" version="opset1">
			<input>
				<port id="0">
					<dim>4</dim>
				</port>
				<port id="1"/>
				<port id="2"/>
			</input>
			<output>
				<port id="3" precision="I64"/>
			</output>
		</layer>
		<layer id="331" name="Unsqueeze_220/Dims/Output_0/Data__const" type="Const" version="opset1">
			<data element_type="i64" offset="120656" shape="1" size="8"/>
			<output>
				<port id="1" precision="I64">
					<dim>1</dim>
				</port>
			</output>
		</layer>
		<layer id="332" name="Unsqueeze_220/Unsqueeze" type="Unsqueeze" version="opset1">
			<input>
				<port id="0"/>
				<port id="1">
					<dim>1</dim>
				</port>
			</input>
			<output>
				<port id="2" precision="I64">
					<dim>1</dim>
				</port>
			</output>
		</layer>
		<layer id="333" name="Concat_221" type="Concat" version="opset1">
			<data axis="0"/>
			<input>
				<port id="0">
					<dim>1</dim>
				</port>
				<port id="1">
					<dim>1</dim>
				</port>
			</input>
			<output>
				<port id="2" precision="I64">
					<dim>2</dim>
				</port>
			</output>
		</layer>
		<layer id="334" name="Concat_229" type="Concat" version="opset1">
			<data axis="0"/>
			<input>
				<port id="0">
					<dim>2</dim>
				</port>
				<port id="1">
					<dim>2</dim>
				</port>
			</input>
			<output>
				<port id="2" precision="I64">
					<dim>4</dim>
				</port>
			</output>
		</layer>
		<layer id="335" name="Resize_231/StridedSlice_sizes/Cast_1181949_const" type="Const" version="opset1">
			<data element_type="i64" offset="120664" shape="1" size="8"/>
			<output>
				<port id="1" precision="I64">
					<dim>1</dim>
				</port>
			</output>
		</layer>
		<layer id="336" name="Resize_231/StridedSlice_sizes/Cast_2181951_const" type="Const" version="opset1">
			<data element_type="i64" offset="120680" shape="1" size="8"/>
			<output>
				<port id="1" precision="I64">
					<dim>1</dim>
				</port>
			</output>
		</layer>
		<layer id="337" name="Resize_231/StridedSlice_sizes/Cast_3181953_const" type="Const" version="opset1">
			<data element_type="i64" offset="0" shape="1" size="8"/>
			<output>
				<port id="1" precision="I64">
					<dim>1</dim>
				</port>
			</output>
		</layer>
		<layer id="338" name="Resize_231/StridedSlice_sizes" type="StridedSlice" version="opset1">
			<data begin_mask="0" ellipsis_mask="0" end_mask="0" new_axis_mask="0" shrink_axis_mask="0"/>
			<input>
				<port id="0">
					<dim>4</dim>
				</port>
				<port id="1">
					<dim>1</dim>
				</port>
				<port id="2">
					<dim>1</dim>
				</port>
				<port id="3">
					<dim>1</dim>
				</port>
			</input>
			<output>
				<port id="4" precision="I64">
					<dim>2</dim>
				</port>
			</output>
		</layer>
		<layer id="339" name="37184" type="Convert" version="opset1">
			<data destination_type="f32"/>
			<input>
				<port id="0">
					<dim>4</dim>
				</port>
			</input>
			<output>
				<port id="1" precision="FP32">
					<dim>4</dim>
				</port>
			</output>
		</layer>
		<layer id="340" name="Resize_231/ShapeOf_" type="ShapeOf" version="opset3">
			<data output_type="i64"/>
			<input>
				<port id="0">
					<dim>1</dim>
					<dim>16</dim>
					<dim>10</dim>
					<dim>10</dim>
				</port>
			</input>
			<output>
				<port id="1" precision="I64">
					<dim>4</dim>
				</port>
			</output>
		</layer>
		<layer id="341" name="37183" type="Convert" version="opset1">
			<data destination_type="f32"/>
			<input>
				<port id="0">
					<dim>4</dim>
				</port>
			</input>
			<output>
				<port id="1" precision="FP32">
					<dim>4</dim>
				</port>
			</output>
		</layer>
		<layer id="342" name="Resize_231/Div_" type="Divide" version="opset1">
			<input>
				<port id="0">
					<dim>4</dim>
				</port>
				<port id="1">
					<dim>4</dim>
				</port>
			</input>
			<output>
				<port id="2" precision="FP32">
					<dim>4</dim>
				</port>
			</output>
		</layer>
		<layer id="343" name="Resize_231/Add__input_port_1/value37182_const" type="Const" version="opset1">
			<data element_type="f32" offset="120688" shape="1" size="4"/>
			<output>
				<port id="1" precision="FP32">
					<dim>1</dim>
				</port>
			</output>
		</layer>
		<layer id="344" name="Resize_231/Add_" type="Add" version="opset1">
			<input>
				<port id="0">
					<dim>4</dim>
				</port>
				<port id="1">
					<dim>1</dim>
				</port>
			</input>
			<output>
				<port id="2" precision="FP32">
					<dim>4</dim>
				</port>
			</output>
		</layer>
		<layer id="345" name="Resize_231/StridedSlice_scales/Cast_1182389_const" type="Const" version="opset1">
			<data element_type="i64" offset="120664" shape="1" size="8"/>
			<output>
				<port id="1" precision="I64">
					<dim>1</dim>
				</port>
			</output>
		</layer>
		<layer id="346" name="Resize_231/StridedSlice_scales/Cast_2182391_const" type="Const" version="opset1">
			<data element_type="i64" offset="120680" shape="1" size="8"/>
			<output>
				<port id="1" precision="I64">
					<dim>1</dim>
				</port>
			</output>
		</layer>
		<layer id="347" name="Resize_231/StridedSlice_scales/Cast_3182393_const" type="Const" version="opset1">
			<data element_type="i64" offset="0" shape="1" size="8"/>
			<output>
				<port id="1" precision="I64">
					<dim>1</dim>
				</port>
			</output>
		</layer>
		<layer id="348" name="Resize_231/StridedSlice_scales" type="StridedSlice" version="opset1">
			<data begin_mask="0" ellipsis_mask="0" end_mask="0" new_axis_mask="0" shrink_axis_mask="0"/>
			<input>
				<port id="0">
					<dim>4</dim>
				</port>
				<port id="1">
					<dim>1</dim>
				</port>
				<port id="2">
					<dim>1</dim>
				</port>
				<port id="3">
					<dim>1</dim>
				</port>
			</input>
			<output>
				<port id="4" precision="FP32">
					<dim>2</dim>
				</port>
			</output>
		</layer>
		<layer id="349" name="Resize_231/axis_37178_const" type="Const" version="opset1">
			<data element_type="i64" offset="12" shape="2" size="16"/>
			<output>
				<port id="1" precision="I64">
					<dim>2</dim>
				</port>
			</output>
		</layer>
		<layer id="350" name="Resize_231" type="Interpolate" version="opset4">
			<data antialias="0" coordinate_transformation_mode="align_corners" cube_coeff="-0.75" mode="linear_onnx" nearest_mode="floor" pads_begin="0,0,0,0" pads_end="0,0,0,0" shape_calculation_mode="sizes"/>
			<input>
				<port id="0">
					<dim>1</dim>
					<dim>16</dim>
					<dim>10</dim>
					<dim>10</dim>
				</port>
				<port id="1">
					<dim>2</dim>
				</port>
				<port id="2">
					<dim>2</dim>
				</port>
				<port id="3">
					<dim>2</dim>
				</port>
			</input>
			<output>
				<port id="4" precision="FP32">
					<dim>1</dim>
					<dim>16</dim>
					<dim>20</dim>
					<dim>20</dim>
				</port>
			</output>
		</layer>
		<layer id="351" name="Concat_232" type="Concat" version="opset1">
			<data axis="1"/>
			<input>
				<port id="0">
					<dim>1</dim>
					<dim>16</dim>
					<dim>20</dim>
					<dim>20</dim>
				</port>
				<port id="1">
					<dim>1</dim>
					<dim>16</dim>
					<dim>20</dim>
					<dim>20</dim>
				</port>
			</input>
			<output>
				<port id="2" precision="FP32">
					<dim>1</dim>
					<dim>32</dim>
					<dim>20</dim>
					<dim>20</dim>
				</port>
			</output>
		</layer>
		<layer id="352" name="5008/EltwiseUnsqueeze82703_const" type="Const" version="opset1">
			<data element_type="f32" offset="8" shape="1,1,1,1" size="4"/>
			<output>
				<port id="1" precision="FP32">
					<dim>1</dim>
					<dim>1</dim>
					<dim>1</dim>
					<dim>1</dim>
				</port>
			</output>
		</layer>
		<layer id="353" name="Pow_233" type="Power" version="opset1">
			<input>
				<port id="0">
					<dim>1</dim>
					<dim>32</dim>
					<dim>20</dim>
					<dim>20</dim>
				</port>
				<port id="1">
					<dim>1</dim>
					<dim>1</dim>
					<dim>1</dim>
					<dim>1</dim>
				</port>
			</input>
			<output>
				<port id="2" precision="FP32">
					<dim>1</dim>
					<dim>32</dim>
					<dim>20</dim>
					<dim>20</dim>
				</port>
			</output>
		</layer>
		<layer id="354" name="ReduceSum_234/Cast_1182329_const" type="Const" version="opset1">
			<data element_type="i64" offset="12" shape="2" size="16"/>
			<output>
				<port id="1" precision="I64">
					<dim>2</dim>
				</port>
			</output>
		</layer>
		<layer id="355" name="ReduceSum_234" type="ReduceSum" version="opset1">
			<data keep_dims="True"/>
			<input>
				<port id="0">
					<dim>1</dim>
					<dim>32</dim>
					<dim>20</dim>
					<dim>20</dim>
				</port>
				<port id="1">
					<dim>2</dim>
				</port>
			</input>
			<output>
				<port id="2" precision="FP32">
					<dim>1</dim>
					<dim>32</dim>
					<dim>1</dim>
					<dim>1</dim>
				</port>
			</output>
		</layer>
		<layer id="356" name="Constant_235/EltwiseUnsqueeze82707_const" type="Const" version="opset1">
			<data element_type="f32" offset="120692" shape="1,1,1,1" size="4"/>
			<output>
				<port id="1" precision="FP32">
					<dim>1</dim>
					<dim>1</dim>
					<dim>1</dim>
					<dim>1</dim>
				</port>
			</output>
		</layer>
		<layer id="357" name="Add_236" type="Add" version="opset1">
			<input>
				<port id="0">
					<dim>1</dim>
					<dim>32</dim>
					<dim>1</dim>
					<dim>1</dim>
				</port>
				<port id="1">
					<dim>1</dim>
					<dim>1</dim>
					<dim>1</dim>
					<dim>1</dim>
				</port>
			</input>
			<output>
				<port id="2" precision="FP32">
					<dim>1</dim>
					<dim>32</dim>
					<dim>1</dim>
					<dim>1</dim>
				</port>
			</output>
		</layer>
		<layer id="358" name="Constant_237/EltwiseUnsqueeze82711_const" type="Const" version="opset1">
			<data element_type="f32" offset="32" shape="1,1,1,1" size="4"/>
			<output>
				<port id="1" precision="FP32">
					<dim>1</dim>
					<dim>1</dim>
					<dim>1</dim>
					<dim>1</dim>
				</port>
			</output>
		</layer>
		<layer id="359" name="Pow_238" type="Power" version="opset1">
			<input>
				<port id="0">
					<dim>1</dim>
					<dim>32</dim>
					<dim>1</dim>
					<dim>1</dim>
				</port>
				<port id="1">
					<dim>1</dim>
					<dim>1</dim>
					<dim>1</dim>
					<dim>1</dim>
				</port>
			</input>
			<output>
				<port id="2" precision="FP32">
					<dim>1</dim>
					<dim>32</dim>
					<dim>1</dim>
					<dim>1</dim>
				</port>
			</output>
		</layer>
		<layer id="360" name="stage1.rebnconv5d.gate.alpha/Output_0/Data__const" type="Const" version="opset1">
			<data element_type="f32" offset="120696" shape="1,32,1,1" size="128"/>
			<output>
				<port id="1" precision="FP32">
					<dim>1</dim>
					<dim>32</dim>
					<dim>1</dim>
					<dim>1</dim>
				</port>
			</output>
		</layer>
		<layer id="361" name="Mul_239" type="Multiply" version="opset1">
			<input>
				<port id="0">
					<dim>1</dim>
					<dim>32</dim>
					<dim>1</dim>
					<dim>1</dim>
				</port>
				<port id="1">
					<dim>1</dim>
					<dim>32</dim>
					<dim>1</dim>
					<dim>1</dim>
				</port>
			</input>
			<output>
				<port id="2" precision="FP32">
					<dim>1</dim>
					<dim>32</dim>
					<dim>1</dim>
					<dim>1</dim>
				</port>
			</output>
		</layer>
		<layer id="362" name="stage1.rebnconv5d.gate.gamma/Output_0/Data__const" type="Const" version="opset1">
			<data element_type="f32" offset="120824" shape="1,32,1,1" size="128"/>
			<output>
				<port id="1" precision="FP32">
					<dim>1</dim>
					<dim>32</dim>
					<dim>1</dim>
					<dim>1</dim>
				</port>
			</output>
		</layer>
		<layer id="363" name="5009/EltwiseUnsqueeze82715_const" type="Const" version="opset1">
			<data element_type="f32" offset="8" shape="1,1,1,1" size="4"/>
			<output>
				<port id="1" precision="FP32">
					<dim>1</dim>
					<dim>1</dim>
					<dim>1</dim>
					<dim>1</dim>
				</port>
			</output>
		</layer>
		<layer id="364" name="Pow_240" type="Power" version="opset1">
			<input>
				<port id="0">
					<dim>1</dim>
					<dim>32</dim>
					<dim>1</dim>
					<dim>1</dim>
				</port>
				<port id="1">
					<dim>1</dim>
					<dim>1</dim>
					<dim>1</dim>
					<dim>1</dim>
				</port>
			</input>
			<output>
				<port id="2" precision="FP32">
					<dim>1</dim>
					<dim>32</dim>
					<dim>1</dim>
					<dim>1</dim>
				</port>
			</output>
		</layer>
		<layer id="365" name="ReduceMean_241/Cast_1181231_const" type="Const" version="opset1">
			<data element_type="i64" offset="0" shape="1" size="8"/>
			<output>
				<port id="1" precision="I64">
					<dim>1</dim>
				</port>
			</output>
		</layer>
		<layer id="366" name="ReduceMean_241" type="ReduceMean" version="opset1">
			<data keep_dims="True"/>
			<input>
				<port id="0">
					<dim>1</dim>
					<dim>32</dim>
					<dim>1</dim>
					<dim>1</dim>
				</port>
				<port id="1">
					<dim>1</dim>
				</port>
			</input>
			<output>
				<port id="2" precision="FP32">
					<dim>1</dim>
					<dim>1</dim>
					<dim>1</dim>
					<dim>1</dim>
				</port>
			</output>
		</layer>
		<layer id="367" name="Constant_242/EltwiseUnsqueeze82719_const" type="Const" version="opset1">
			<data element_type="f32" offset="120692" shape="1,1,1,1" size="4"/>
			<output>
				<port id="1" precision="FP32">
					<dim>1</dim>
					<dim>1</dim>
					<dim>1</dim>
					<dim>1</dim>
				</port>
			</output>
		</layer>
		<layer id="368" name="Add_243" type="Add" version="opset1">
			<input>
				<port id="0">
					<dim>1</dim>
					<dim>1</dim>
					<dim>1</dim>
					<dim>1</dim>
				</port>
				<port id="1">
					<dim>1</dim>
					<dim>1</dim>
					<dim>1</dim>
					<dim>1</dim>
				</port>
			</input>
			<output>
				<port id="2" precision="FP32">
					<dim>1</dim>
					<dim>1</dim>
					<dim>1</dim>
					<dim>1</dim>
				</port>
			</output>
		</layer>
		<layer id="369" name="Constant_244/EltwiseUnsqueeze82723_const" type="Const" version="opset1">
			<data element_type="f32" offset="32" shape="1,1,1,1" size="4"/>
			<output>
				<port id="1" precision="FP32">
					<dim>1</dim>
					<dim>1</dim>
					<dim>1</dim>
					<dim>1</dim>
				</port>
			</output>
		</layer>
		<layer id="370" name="Pow_245" type="Power" version="opset1">
			<input>
				<port id="0">
					<dim>1</dim>
					<dim>1</dim>
					<dim>1</dim>
					<dim>1</dim>
				</port>
				<port id="1">
					<dim>1</dim>
					<dim>1</dim>
					<dim>1</dim>
					<dim>1</dim>
				</port>
			</input>
			<output>
				<port id="2" precision="FP32">
					<dim>1</dim>
					<dim>1</dim>
					<dim>1</dim>
					<dim>1</dim>
				</port>
			</output>
		</layer>
		<layer id="371" name="Div_246/reciprocal__input_port_1/value7291082121/EltwiseUnsqueeze85651_const" type="Const" version="opset1">
			<data element_type="f32" offset="60" shape="1,1,1,1" size="4"/>
			<output>
				<port id="1" precision="FP32">
					<dim>1</dim>
					<dim>1</dim>
					<dim>1</dim>
					<dim>1</dim>
				</port>
			</output>
		</layer>
		<layer id="372" name="Div_246/reciprocal_" type="Power" version="opset1">
			<input>
				<port id="0">
					<dim>1</dim>
					<dim>1</dim>
					<dim>1</dim>
					<dim>1</dim>
				</port>
				<port id="1">
					<dim>1</dim>
					<dim>1</dim>
					<dim>1</dim>
					<dim>1</dim>
				</port>
			</input>
			<output>
				<port id="2" precision="FP32">
					<dim>1</dim>
					<dim>1</dim>
					<dim>1</dim>
					<dim>1</dim>
				</port>
			</output>
		</layer>
		<layer id="373" name="Div_246" type="Multiply" version="opset1">
			<input>
				<port id="0">
					<dim>1</dim>
					<dim>32</dim>
					<dim>1</dim>
					<dim>1</dim>
				</port>
				<port id="1">
					<dim>1</dim>
					<dim>1</dim>
					<dim>1</dim>
					<dim>1</dim>
				</port>
			</input>
			<output>
				<port id="2" precision="FP32">
					<dim>1</dim>
					<dim>32</dim>
					<dim>1</dim>
					<dim>1</dim>
				</port>
			</output>
		</layer>
		<layer id="374" name="Mul_247" type="Multiply" version="opset1">
			<input>
				<port id="0">
					<dim>1</dim>
					<dim>32</dim>
					<dim>1</dim>
					<dim>1</dim>
				</port>
				<port id="1">
					<dim>1</dim>
					<dim>32</dim>
					<dim>1</dim>
					<dim>1</dim>
				</port>
			</input>
			<output>
				<port id="2" precision="FP32">
					<dim>1</dim>
					<dim>32</dim>
					<dim>1</dim>
					<dim>1</dim>
				</port>
			</output>
		</layer>
		<layer id="375" name="stage1.rebnconv5d.gate.beta/Output_0/Data__const" type="Const" version="opset1">
			<data element_type="f32" offset="120952" shape="1,32,1,1" size="128"/>
			<output>
				<port id="1" precision="FP32">
					<dim>1</dim>
					<dim>32</dim>
					<dim>1</dim>
					<dim>1</dim>
				</port>
			</output>
		</layer>
		<layer id="376" name="Add_248" type="Add" version="opset1">
			<input>
				<port id="0">
					<dim>1</dim>
					<dim>32</dim>
					<dim>1</dim>
					<dim>1</dim>
				</port>
				<port id="1">
					<dim>1</dim>
					<dim>32</dim>
					<dim>1</dim>
					<dim>1</dim>
				</port>
			</input>
			<output>
				<port id="2" precision="FP32">
					<dim>1</dim>
					<dim>32</dim>
					<dim>1</dim>
					<dim>1</dim>
				</port>
			</output>
		</layer>
		<layer id="377" name="Tanh_249" type="Tanh" version="opset1">
			<input>
				<port id="0">
					<dim>1</dim>
					<dim>32</dim>
					<dim>1</dim>
					<dim>1</dim>
				</port>
			</input>
			<output>
				<port id="1" precision="FP32">
					<dim>1</dim>
					<dim>32</dim>
					<dim>1</dim>
					<dim>1</dim>
				</port>
			</output>
		</layer>
		<layer id="378" name="Constant_250/EltwiseUnsqueeze82727_const" type="Const" version="opset1">
			<data element_type="f32" offset="76" shape="1,1,1,1" size="4"/>
			<output>
				<port id="1" precision="FP32">
					<dim>1</dim>
					<dim>1</dim>
					<dim>1</dim>
					<dim>1</dim>
				</port>
			</output>
		</layer>
		<layer id="379" name="Add_251" type="Add" version="opset1">
			<input>
				<port id="0">
					<dim>1</dim>
					<dim>32</dim>
					<dim>1</dim>
					<dim>1</dim>
				</port>
				<port id="1">
					<dim>1</dim>
					<dim>1</dim>
					<dim>1</dim>
					<dim>1</dim>
				</port>
			</input>
			<output>
				<port id="2" precision="FP32">
					<dim>1</dim>
					<dim>32</dim>
					<dim>1</dim>
					<dim>1</dim>
				</port>
			</output>
		</layer>
		<layer id="380" name="Mul_252" type="Multiply" version="opset1">
			<input>
				<port id="0">
					<dim>1</dim>
					<dim>32</dim>
					<dim>20</dim>
					<dim>20</dim>
				</port>
				<port id="1">
					<dim>1</dim>
					<dim>32</dim>
					<dim>1</dim>
					<dim>1</dim>
				</port>
			</input>
			<output>
				<port id="2" precision="FP32">
					<dim>1</dim>
					<dim>32</dim>
					<dim>20</dim>
					<dim>20</dim>
				</port>
			</output>
		</layer>
		<layer id="381" name="BatchNormalization_254/mean/Fused_Mul_8944589447_const" type="Const" version="opset1">
			<data element_type="f32" offset="121080" shape="16,32,3,3" size="18432"/>
			<output>
				<port id="1" precision="FP32">
					<dim>16</dim>
					<dim>32</dim>
					<dim>3</dim>
					<dim>3</dim>
				</port>
			</output>
		</layer>
		<layer id="382" name="Conv_253/WithoutBiases" type="Convolution" version="opset1">
			<data dilations="1,1" output_padding="0,0" pads_begin="1,1" pads_end="1,1" strides="1,1"/>
			<input>
				<port id="0">
					<dim>1</dim>
					<dim>32</dim>
					<dim>20</dim>
					<dim>20</dim>
				</port>
				<port id="1">
					<dim>16</dim>
					<dim>32</dim>
					<dim>3</dim>
					<dim>3</dim>
				</port>
			</input>
			<output>
				<port id="2" precision="FP32">
					<dim>1</dim>
					<dim>16</dim>
					<dim>20</dim>
					<dim>20</dim>
				</port>
			</output>
		</layer>
		<layer id="383" name="data_add_791737917882243/EltwiseUnsqueeze86139_const" type="Const" version="opset1">
			<data element_type="f32" offset="139512" shape="1,16,1,1" size="64"/>
			<output>
				<port id="1" precision="FP32">
					<dim>1</dim>
					<dim>16</dim>
					<dim>1</dim>
					<dim>1</dim>
				</port>
			</output>
		</layer>
		<layer id="384" name="Conv_253/Fused_Add_" type="Add" version="opset1">
			<input>
				<port id="0">
					<dim>1</dim>
					<dim>16</dim>
					<dim>20</dim>
					<dim>20</dim>
				</port>
				<port id="1">
					<dim>1</dim>
					<dim>16</dim>
					<dim>1</dim>
					<dim>1</dim>
				</port>
			</input>
			<output>
				<port id="2" precision="FP32">
					<dim>1</dim>
					<dim>16</dim>
					<dim>20</dim>
					<dim>20</dim>
				</port>
			</output>
		</layer>
		<layer id="385" name="Relu_255" type="ReLU" version="opset1">
			<input>
				<port id="0">
					<dim>1</dim>
					<dim>16</dim>
					<dim>20</dim>
					<dim>20</dim>
				</port>
			</input>
			<output>
				<port id="1" precision="FP32">
					<dim>1</dim>
					<dim>16</dim>
					<dim>20</dim>
					<dim>20</dim>
				</port>
			</output>
		</layer>
		<layer id="386" name="Shape_266" type="ShapeOf" version="opset3">
			<data output_type="i64"/>
			<input>
				<port id="0">
					<dim>1</dim>
					<dim>16</dim>
					<dim>20</dim>
					<dim>20</dim>
				</port>
			</input>
			<output>
				<port id="1" precision="I64">
					<dim>4</dim>
				</port>
			</output>
		</layer>
		<layer id="387" name="Slice_270/Cast_1181533_const" type="Const" version="opset1">
			<data element_type="i64" offset="120656" shape="1" size="8"/>
			<output>
				<port id="1" precision="I64">
					<dim>1</dim>
				</port>
			</output>
		</layer>
		<layer id="388" name="Slice_270/Cast_2181535_const" type="Const" version="opset1">
			<data element_type="i64" offset="120664" shape="1" size="8"/>
			<output>
				<port id="1" precision="I64">
					<dim>1</dim>
				</port>
			</output>
		</layer>
		<layer id="389" name="Slice_270/Cast_3181537_const" type="Const" version="opset1">
			<data element_type="i64" offset="0" shape="1" size="8"/>
			<output>
				<port id="1" precision="I64">
					<dim>1</dim>
				</port>
			</output>
		</layer>
		<layer id="390" name="Slice_270" type="StridedSlice" version="opset1">
			<data begin_mask="1" ellipsis_mask="0" end_mask="0" new_axis_mask="0" shrink_axis_mask="0"/>
			<input>
				<port id="0">
					<dim>4</dim>
				</port>
				<port id="1">
					<dim>1</dim>
				</port>
				<port id="2">
					<dim>1</dim>
				</port>
				<port id="3">
					<dim>1</dim>
				</port>
			</input>
			<output>
				<port id="4" precision="I64">
					<dim>2</dim>
				</port>
			</output>
		</layer>
		<layer id="391" name="Shape_256" type="ShapeOf" version="opset3">
			<data output_type="i64"/>
			<input>
				<port id="0">
					<dim>1</dim>
					<dim>16</dim>
					<dim>40</dim>
					<dim>40</dim>
				</port>
			</input>
			<output>
				<port id="1" precision="I64">
					<dim>4</dim>
				</port>
			</output>
		</layer>
		<layer id="392" name="Gather_2585120/Cast_1182641_const" type="Const" version="opset1">
			<data element_type="i32" offset="120672" shape="" size="4"/>
			<output>
				<port id="1" precision="I32"/>
			</output>
		</layer>
		<layer id="393" name="Gather_2585120/Cast_2182643_const" type="Const" version="opset1">
			<data element_type="i64" offset="120656" shape="" size="8"/>
			<output>
				<port id="1" precision="I64"/>
			</output>
		</layer>
		<layer id="394" name="Gather_2585120" type="Gather" version="opset1">
			<input>
				<port id="0">
					<dim>4</dim>
				</port>
				<port id="1"/>
				<port id="2"/>
			</input>
			<output>
				<port id="3" precision="I64"/>
			</output>
		</layer>
…
		<edge from-layer="4667" from-port="1" to-layer="4668" to-port="1"/>
		<edge from-layer="4640" from-port="1" to-layer="4669" to-port="0"/>
		<edge from-layer="4668" from-port="2" to-layer="4669" to-port="1"/>
		<edge from-layer="4669" from-port="2" to-layer="4671" to-port="0"/>
		<edge from-layer="4670" from-port="1" to-layer="4671" to-port="1"/>
		<edge from-layer="4671" from-port="2" to-layer="4673" to-port="0"/>
		<edge from-layer="4672" from-port="1" to-layer="4673" to-port="1"/>
		<edge from-layer="4673" from-port="2" to-layer="4674" to-port="0"/>
		<edge from-layer="4674" from-port="1" to-layer="4675" to-port="0"/>
		<edge from-layer="4640" from-port="1" to-layer="4675" to-port="1"/>
		<edge from-layer="4675" from-port="2" to-layer="4677" to-port="0"/>
		<edge from-layer="4676" from-port="1" to-layer="4677" to-port="1"/>
		<edge from-layer="4677" from-port="2" to-layer="4679" to-port="0"/>
		<edge from-layer="4678" from-port="1" to-layer="4679" to-port="1"/>
		<edge from-layer="4679" from-port="2" to-layer="4681" to-port="0"/>
		<edge from-layer="4680" from-port="1" to-layer="4681" to-port="1"/>
		<edge from-layer="4681" from-port="2" to-layer="4683" to-port="0"/>
		<edge from-layer="4682" from-port="1" to-layer="4683" to-port="1"/>
		<edge from-layer="4683" from-port="2" to-layer="4685" to-port="0"/>
		<edge from-layer="4684" from-port="1" to-layer="4685" to-port="1"/>
		<edge from-layer="4685" from-port="2" to-layer="4688" to-port="0"/>
		<edge from-layer="4687" from-port="1" to-layer="4688" to-port="1"/>
		<edge from-layer="4688" from-port="2" to-layer="4690" to-port="0"/>
		<edge from-layer="4689" from-port="1" to-layer="4690" to-port="1"/>
		<edge from-layer="4690" from-port="2" to-layer="4692" to-port="0"/>
		<edge from-layer="4691" from-port="1" to-layer="4692" to-port="1"/>
		<edge from-layer="4692" from-port="2" to-layer="4694" to-port="0"/>
		<edge from-layer="4693" from-port="1" to-layer="4694" to-port="1"/>
		<edge from-layer="4694" from-port="2" to-layer="4696" to-port="0"/>
		<edge from-layer="4695" from-port="1" to-layer="4696" to-port="1"/>
		<edge from-layer="4686" from-port="1" to-layer="4697" to-port="0"/>
		<edge from-layer="4696" from-port="2" to-layer="4697" to-port="1"/>
		<edge from-layer="4685" from-port="2" to-layer="4698" to-port="0"/>
		<edge from-layer="4697" from-port="2" to-layer="4698" to-port="1"/>
		<edge from-layer="4698" from-port="2" to-layer="4700" to-port="0"/>
		<edge from-layer="4699" from-port="1" to-layer="4700" to-port="1"/>
		<edge from-layer="4700" from-port="2" to-layer="4701" to-port="0"/>
		<edge from-layer="4701" from-port="1" to-layer="4703" to-port="0"/>
		<edge from-layer="4702" from-port="1" to-layer="4703" to-port="1"/>
		<edge from-layer="4675" from-port="2" to-layer="4704" to-port="0"/>
		<edge from-layer="4703" from-port="2" to-layer="4704" to-port="1"/>
		<edge from-layer="4704" from-port="2" to-layer="4706" to-port="0"/>
		<edge from-layer="4705" from-port="1" to-layer="4706" to-port="1"/>
		<edge from-layer="4706" from-port="2" to-layer="4708" to-port="0"/>
		<edge from-layer="4707" from-port="1" to-layer="4708" to-port="1"/>
		<edge from-layer="4708" from-port="2" to-layer="4709" to-port="0"/>
		<edge from-layer="4709" from-port="1" to-layer="4710" to-port="0"/>
		<edge from-layer="4710" from-port="1" to-layer="4714" to-port="0"/>
		<edge from-layer="4711" from-port="1" to-layer="4714" to-port="1"/>
		<edge from-layer="4712" from-port="1" to-layer="4714" to-port="2"/>
		<edge from-layer="4713" from-port="1" to-layer="4714" to-port="3"/>
		<edge from-layer="4605" from-port="1" to-layer="4715" to-port="0"/>
		<edge from-layer="4715" from-port="1" to-layer="4718" to-port="0"/>
		<edge from-layer="4716" from-port="1" to-layer="4718" to-port="1"/>
		<edge from-layer="4717" from-port="1" to-layer="4718" to-port="2"/>
		<edge from-layer="4718" from-port="3" to-layer="4720" to-port="0"/>
		<edge from-layer="4719" from-port="1" to-layer="4720" to-port="1"/>
		<edge from-layer="4605" from-port="1" to-layer="4721" to-port="0"/>
		<edge from-layer="4721" from-port="1" to-layer="4724" to-port="0"/>
		<edge from-layer="4722" from-port="1" to-layer="4724" to-port="1"/>
		<edge from-layer="4723" from-port="1" to-layer="4724" to-port="2"/>
		<edge from-layer="4724" from-port="3" to-layer="4726" to-port="0"/>
		<edge from-layer="4725" from-port="1" to-layer="4726" to-port="1"/>
		<edge from-layer="4720" from-port="2" to-layer="4727" to-port="0"/>
		<edge from-layer="4726" from-port="2" to-layer="4727" to-port="1"/>
		<edge from-layer="4714" from-port="4" to-layer="4728" to-port="0"/>
		<edge from-layer="4727" from-port="2" to-layer="4728" to-port="1"/>
		<edge from-layer="4728" from-port="2" to-layer="4732" to-port="0"/>
		<edge from-layer="4729" from-port="1" to-layer="4732" to-port="1"/>
		<edge from-layer="4730" from-port="1" to-layer="4732" to-port="2"/>
		<edge from-layer="4731" from-port="1" to-layer="4732" to-port="3"/>
		<edge from-layer="4728" from-port="2" to-layer="4733" to-port="0"/>
		<edge from-layer="4709" from-port="1" to-layer="4734" to-port="0"/>
		<edge from-layer="4734" from-port="1" to-layer="4735" to-port="0"/>
		<edge from-layer="4733" from-port="1" to-layer="4736" to-port="0"/>
		<edge from-layer="4735" from-port="1" to-layer="4736" to-port="1"/>
		<edge from-layer="4736" from-port="2" to-layer="4738" to-port="0"/>
		<edge from-layer="4737" from-port="1" to-layer="4738" to-port="1"/>
		<edge from-layer="4738" from-port="2" to-layer="4742" to-port="0"/>
		<edge from-layer="4739" from-port="1" to-layer="4742" to-port="1"/>
		<edge from-layer="4740" from-port="1" to-layer="4742" to-port="2"/>
		<edge from-layer="4741" from-port="1" to-layer="4742" to-port="3"/>
		<edge from-layer="4709" from-port="1" to-layer="4744" to-port="0"/>
		<edge from-layer="4732" from-port="4" to-layer="4744" to-port="1"/>
		<edge from-layer="4742" from-port="4" to-layer="4744" to-port="2"/>
		<edge from-layer="4743" from-port="1" to-layer="4744" to-port="3"/>
		<edge from-layer="4744" from-port="4" to-layer="4745" to-port="0"/>
		<edge from-layer="4605" from-port="1" to-layer="4745" to-port="1"/>
		<edge from-layer="4745" from-port="2" to-layer="4747" to-port="0"/>
		<edge from-layer="4746" from-port="1" to-layer="4747" to-port="1"/>
		<edge from-layer="4747" from-port="2" to-layer="4749" to-port="0"/>
		<edge from-layer="4748" from-port="1" to-layer="4749" to-port="1"/>
		<edge from-layer="4749" from-port="2" to-layer="4751" to-port="0"/>
		<edge from-layer="4750" from-port="1" to-layer="4751" to-port="1"/>
		<edge from-layer="4751" from-port="2" to-layer="4753" to-port="0"/>
		<edge from-layer="4752" from-port="1" to-layer="4753" to-port="1"/>
		<edge from-layer="4753" from-port="2" to-layer="4755" to-port="0"/>
		<edge from-layer="4754" from-port="1" to-layer="4755" to-port="1"/>
		<edge from-layer="4755" from-port="2" to-layer="4758" to-port="0"/>
		<edge from-layer="4757" from-port="1" to-layer="4758" to-port="1"/>
		<edge from-layer="4758" from-port="2" to-layer="4760" to-port="0"/>
		<edge from-layer="4759" from-port="1" to-layer="4760" to-port="1"/>
		<edge from-layer="4760" from-port="2" to-layer="4762" to-port="0"/>
		<edge from-layer="4761" from-port="1" to-layer="4762" to-port="1"/>
		<edge from-layer="4762" from-port="2" to-layer="4764" to-port="0"/>
		<edge from-layer="4763" from-port="1" to-layer="4764" to-port="1"/>
		<edge from-layer="4764" from-port="2" to-layer="4766" to-port="0"/>
		<edge from-layer="4765" from-port="1" to-layer="4766" to-port="1"/>
		<edge from-layer="4756" from-port="1" to-layer="4767" to-port="0"/>
		<edge from-layer="4766" from-port="2" to-layer="4767" to-port="1"/>
		<edge from-layer="4755" from-port="2" to-layer="4768" to-port="0"/>
		<edge from-layer="4767" from-port="2" to-layer="4768" to-port="1"/>
		<edge from-layer="4768" from-port="2" to-layer="4770" to-port="0"/>
		<edge from-layer="4769" from-port="1" to-layer="4770" to-port="1"/>
		<edge from-layer="4770" from-port="2" to-layer="4771" to-port="0"/>
		<edge from-layer="4771" from-port="1" to-layer="4773" to-port="0"/>
		<edge from-layer="4772" from-port="1" to-layer="4773" to-port="1"/>
		<edge from-layer="4745" from-port="2" to-layer="4774" to-port="0"/>
		<edge from-layer="4773" from-port="2" to-layer="4774" to-port="1"/>
		<edge from-layer="4774" from-port="2" to-layer="4776" to-port="0"/>
		<edge from-layer="4775" from-port="1" to-layer="4776" to-port="1"/>
		<edge from-layer="4776" from-port="2" to-layer="4778" to-port="0"/>
		<edge from-layer="4777" from-port="1" to-layer="4778" to-port="1"/>
		<edge from-layer="4778" from-port="2" to-layer="4779" to-port="0"/>
		<edge from-layer="4779" from-port="1" to-layer="4780" to-port="0"/>
		<edge from-layer="4780" from-port="1" to-layer="4784" to-port="0"/>
		<edge from-layer="4781" from-port="1" to-layer="4784" to-port="1"/>
		<edge from-layer="4782" from-port="1" to-layer="4784" to-port="2"/>
		<edge from-layer="4783" from-port="1" to-layer="4784" to-port="3"/>
		<edge from-layer="4570" from-port="1" to-layer="4785" to-port="0"/>
		<edge from-layer="4785" from-port="1" to-layer="4788" to-port="0"/>
		<edge from-layer="4786" from-port="1" to-layer="4788" to-port="1"/>
		<edge from-layer="4787" from-port="1" to-layer="4788" to-port="2"/>
		<edge from-layer="4788" from-port="3" to-layer="4790" to-port="0"/>
		<edge from-layer="4789" from-port="1" to-layer="4790" to-port="1"/>
		<edge from-layer="4570" from-port="1" to-layer="4791" to-port="0"/>
		<edge from-layer="4791" from-port="1" to-layer="4794" to-port="0"/>
		<edge from-layer="4792" from-port="1" to-layer="4794" to-port="1"/>
		<edge from-layer="4793" from-port="1" to-layer="4794" to-port="2"/>
		<edge from-layer="4794" from-port="3" to-layer="4796" to-port="0"/>
		<edge from-layer="4795" from-port="1" to-layer="4796" to-port="1"/>
		<edge from-layer="4790" from-port="2" to-layer="4797" to-port="0"/>
		<edge from-layer="4796" from-port="2" to-layer="4797" to-port="1"/>
		<edge from-layer="4784" from-port="4" to-layer="4798" to-port="0"/>
		<edge from-layer="4797" from-port="2" to-layer="4798" to-port="1"/>
		<edge from-layer="4798" from-port="2" to-layer="4802" to-port="0"/>
		<edge from-layer="4799" from-port="1" to-layer="4802" to-port="1"/>
		<edge from-layer="4800" from-port="1" to-layer="4802" to-port="2"/>
		<edge from-layer="4801" from-port="1" to-layer="4802" to-port="3"/>
		<edge from-layer="4798" from-port="2" to-layer="4803" to-port="0"/>
		<edge from-layer="4779" from-port="1" to-layer="4804" to-port="0"/>
		<edge from-layer="4804" from-port="1" to-layer="4805" to-port="0"/>
		<edge from-layer="4803" from-port="1" to-layer="4806" to-port="0"/>
		<edge from-layer="4805" from-port="1" to-layer="4806" to-port="1"/>
		<edge from-layer="4806" from-port="2" to-layer="4808" to-port="0"/>
		<edge from-layer="4807" from-port="1" to-layer="4808" to-port="1"/>
		<edge from-layer="4808" from-port="2" to-layer="4812" to-port="0"/>
		<edge from-layer="4809" from-port="1" to-layer="4812" to-port="1"/>
		<edge from-layer="4810" from-port="1" to-layer="4812" to-port="2"/>
		<edge from-layer="4811" from-port="1" to-layer="4812" to-port="3"/>
		<edge from-layer="4779" from-port="1" to-layer="4814" to-port="0"/>
		<edge from-layer="4802" from-port="4" to-layer="4814" to-port="1"/>
		<edge from-layer="4812" from-port="4" to-layer="4814" to-port="2"/>
		<edge from-layer="4813" from-port="1" to-layer="4814" to-port="3"/>
		<edge from-layer="4814" from-port="4" to-layer="4815" to-port="0"/>
		<edge from-layer="4570" from-port="1" to-layer="4815" to-port="1"/>
		<edge from-layer="4815" from-port="2" to-layer="4817" to-port="0"/>
		<edge from-layer="4816" from-port="1" to-layer="4817" to-port="1"/>
		<edge from-layer="4817" from-port="2" to-layer="4819" to-port="0"/>
		<edge from-layer="4818" from-port="1" to-layer="4819" to-port="1"/>
		<edge from-layer="4819" from-port="2" to-layer="4821" to-port="0"/>
		<edge from-layer="4820" from-port="1" to-layer="4821" to-port="1"/>
		<edge from-layer="4821" from-port="2" to-layer="4823" to-port="0"/>
		<edge from-layer="4822" from-port="1" to-layer="4823" to-port="1"/>
		<edge from-layer="4823" from-port="2" to-layer="4825" to-port="0"/>
		<edge from-layer="4824" from-port="1" to-layer="4825" to-port="1"/>
		<edge from-layer="4825" from-port="2" to-layer="4828" to-port="0"/>
		<edge from-layer="4827" from-port="1" to-layer="4828" to-port="1"/>
		<edge from-layer="4828" from-port="2" to-layer="4830" to-port="0"/>
		<edge from-layer="4829" from-port="1" to-layer="4830" to-port="1"/>
		<edge from-layer="4830" from-port="2" to-layer="4832" to-port="0"/>
		<edge from-layer="4831" from-port="1" to-layer="4832" to-port="1"/>
		<edge from-layer="4832" from-port="2" to-layer="4834" to-port="0"/>
		<edge from-layer="4833" from-port="1" to-layer="4834" to-port="1"/>
		<edge from-layer="4834" from-port="2" to-layer="4836" to-port="0"/>
		<edge from-layer="4835" from-port="1" to-layer="4836" to-port="1"/>
		<edge from-layer="4826" from-port="1" to-layer="4837" to-port="0"/>
		<edge from-layer="4836" from-port="2" to-layer="4837" to-port="1"/>
		<edge from-layer="4825" from-port="2" to-layer="4838" to-port="0"/>
		<edge from-layer="4837" from-port="2" to-layer="4838" to-port="1"/>
		<edge from-layer="4838" from-port="2" to-layer="4840" to-port="0"/>
		<edge from-layer="4839" from-port="1" to-layer="4840" to-port="1"/>
		<edge from-layer="4840" from-port="2" to-layer="4841" to-port="0"/>
		<edge from-layer="4841" from-port="1" to-layer="4843" to-port="0"/>
		<edge from-layer="4842" from-port="1" to-layer="4843" to-port="1"/>
		<edge from-layer="4815" from-port="2" to-layer="4844" to-port="0"/>
		<edge from-layer="4843" from-port="2" to-layer="4844" to-port="1"/>
		<edge from-layer="4844" from-port="2" to-layer="4846" to-port="0"/>
		<edge from-layer="4845" from-port="1" to-layer="4846" to-port="1"/>
		<edge from-layer="4846" from-port="2" to-layer="4848" to-port="0"/>
		<edge from-layer="4847" from-port="1" to-layer="4848" to-port="1"/>
		<edge from-layer="4848" from-port="2" to-layer="4849" to-port="0"/>
		<edge from-layer="4849" from-port="1" to-layer="4850" to-port="0"/>
		<edge from-layer="4850" from-port="1" to-layer="4854" to-port="0"/>
		<edge from-layer="4851" from-port="1" to-layer="4854" to-port="1"/>
		<edge from-layer="4852" from-port="1" to-layer="4854" to-port="2"/>
		<edge from-layer="4853" from-port="1" to-layer="4854" to-port="3"/>
		<edge from-layer="4535" from-port="1" to-layer="4855" to-port="0"/>
		<edge from-layer="4855" from-port="1" to-layer="4858" to-port="0"/>
		<edge from-layer="4856" from-port="1" to-layer="4858" to-port="1"/>
		<edge from-layer="4857" from-port="1" to-layer="4858" to-port="2"/>
		<edge from-layer="4858" from-port="3" to-layer="4860" to-port="0"/>
		<edge from-layer="4859" from-port="1" to-layer="4860" to-port="1"/>
		<edge from-layer="4535" from-port="1" to-layer="4861" to-port="0"/>
		<edge from-layer="4861" from-port="1" to-layer="4864" to-port="0"/>
		<edge from-layer="4862" from-port="1" to-layer="4864" to-port="1"/>
		<edge from-layer="4863" from-port="1" to-layer="4864" to-port="2"/>
		<edge from-layer="4864" from-port="3" to-layer="4866" to-port="0"/>
		<edge from-layer="4865" from-port="1" to-layer="4866" to-port="1"/>
		<edge from-layer="4860" from-port="2" to-layer="4867" to-port="0"/>
		<edge from-layer="4866" from-port="2" to-layer="4867" to-port="1"/>
		<edge from-layer="4854" from-port="4" to-layer="4868" to-port="0"/>
		<edge from-layer="4867" from-port="2" to-layer="4868" to-port="1"/>
		<edge from-layer="4868" from-port="2" to-layer="4872" to-port="0"/>
		<edge from-layer="4869" from-port="1" to-layer="4872" to-port="1"/>
		<edge from-layer="4870" from-port="1" to-layer="4872" to-port="2"/>
		<edge from-layer="4871" from-port="1" to-layer="4872" to-port="3"/>
		<edge from-layer="4868" from-port="2" to-layer="4873" to-port="0"/>
		<edge from-layer="4849" from-port="1" to-layer="4874" to-port="0"/>
		<edge from-layer="4874" from-port="1" to-layer="4875" to-port="0"/>
		<edge from-layer="4873" from-port="1" to-layer="4876" to-port="0"/>
		<edge from-layer="4875" from-port="1" to-layer="4876" to-port="1"/>
		<edge from-layer="4876" from-port="2" to-layer="4878" to-port="0"/>
		<edge from-layer="4877" from-port="1" to-layer="4878" to-port="1"/>
		<edge from-layer="4878" from-port="2" to-layer="4882" to-port="0"/>
		<edge from-layer="4879" from-port="1" to-layer="4882" to-port="1"/>
		<edge from-layer="4880" from-port="1" to-layer="4882" to-port="2"/>
		<edge from-layer="4881" from-port="1" to-layer="4882" to-port="3"/>
		<edge from-layer="4849" from-port="1" to-layer="4884" to-port="0"/>
		<edge from-layer="4872" from-port="4" to-layer="4884" to-port="1"/>
		<edge from-layer="4882" from-port="4" to-layer="4884" to-port="2"/>
		<edge from-layer="4883" from-port="1" to-layer="4884" to-port="3"/>
		<edge from-layer="4884" from-port="4" to-layer="4885" to-port="0"/>
		<edge from-layer="4535" from-port="1" to-layer="4885" to-port="1"/>
		<edge from-layer="4885" from-port="2" to-layer="4887" to-port="0"/>
		<edge from-layer="4886" from-port="1" to-layer="4887" to-port="1"/>
		<edge from-layer="4887" from-port="2" to-layer="4889" to-port="0"/>
		<edge from-layer="4888" from-port="1" to-layer="4889" to-port="1"/>
		<edge from-layer="4889" from-port="2" to-layer="4891" to-port="0"/>
		<edge from-layer="4890" from-port="1" to-layer="4891" to-port="1"/>
		<edge from-layer="4891" from-port="2" to-layer="4893" to-port="0"/>
		<edge from-layer="4892" from-port="1" to-layer="4893" to-port="1"/>
		<edge from-layer="4893" from-port="2" to-layer="4895" to-port="0"/>
		<edge from-layer="4894" from-port="1" to-layer="4895" to-port="1"/>
		<edge from-layer="4895" from-port="2" to-layer="4898" to-port="0"/>
		<edge from-layer="4897" from-port="1" to-layer="4898" to-port="1"/>
		<edge from-layer="4898" from-port="2" to-layer="4900" to-port="0"/>
		<edge from-layer="4899" from-port="1" to-layer="4900" to-port="1"/>
		<edge from-layer="4900" from-port="2" to-layer="4902" to-port="0"/>
		<edge from-layer="4901" from-port="1" to-layer="4902" to-port="1"/>
		<edge from-layer="4902" from-port="2" to-layer="4904" to-port="0"/>
		<edge from-layer="4903" from-port="1" to-layer="4904" to-port="1"/>
		<edge from-layer="4904" from-port="2" to-layer="4906" to-port="0"/>
		<edge from-layer="4905" from-port="1" to-layer="4906" to-port="1"/>
		<edge from-layer="4896" from-port="1" to-layer="4907" to-port="0"/>
		<edge from-layer="4906" from-port="2" to-layer="4907" to-port="1"/>
		<edge from-layer="4895" from-port="2" to-layer="4908" to-port="0"/>
		<edge from-layer="4907" from-port="2" to-layer="4908" to-port="1"/>
		<edge from-layer="4908" from-port="2" to-layer="4910" to-port="0"/>
		<edge from-layer="4909" from-port="1" to-layer="4910" to-port="1"/>
		<edge from-layer="4910" from-port="2" to-layer="4911" to-port="0"/>
		<edge from-layer="4911" from-port="1" to-layer="4913" to-port="0"/>
		<edge from-layer="4912" from-port="1" to-layer="4913" to-port="1"/>
		<edge from-layer="4885" from-port="2" to-layer="4914" to-port="0"/>
		<edge from-layer="4913" from-port="2" to-layer="4914" to-port="1"/>
		<edge from-layer="4914" from-port="2" to-layer="4916" to-port="0"/>
		<edge from-layer="4915" from-port="1" to-layer="4916" to-port="1"/>
		<edge from-layer="4916" from-port="2" to-layer="4918" to-port="0"/>
		<edge from-layer="4917" from-port="1" to-layer="4918" to-port="1"/>
		<edge from-layer="4918" from-port="2" to-layer="4919" to-port="0"/>
		<edge from-layer="4919" from-port="1" to-layer="4920" to-port="0"/>
		<edge from-layer="4920" from-port="1" to-layer="4924" to-port="0"/>
		<edge from-layer="4921" from-port="1" to-layer="4924" to-port="1"/>
		<edge from-layer="4922" from-port="1" to-layer="4924" to-port="2"/>
		<edge from-layer="4923" from-port="1" to-layer="4924" to-port="3"/>
		<edge from-layer="4500" from-port="1" to-layer="4925" to-port="0"/>
		<edge from-layer="4925" from-port="1" to-layer="4928" to-port="0"/>
		<edge from-layer="4926" from-port="1" to-layer="4928" to-port="1"/>
		<edge from-layer="4927" from-port="1" to-layer="4928" to-port="2"/>
		<edge from-layer="4928" from-port="3" to-layer="4930" to-port="0"/>
		<edge from-layer="4929" from-port="1" to-layer="4930" to-port="1"/>
		<edge from-layer="4500" from-port="1" to-layer="4931" to-port="0"/>
		<edge from-layer="4931" from-port="1" to-layer="4934" to-port="0"/>
		<edge from-layer="4932" from-port="1" to-layer="4934" to-port="1"/>
		<edge from-layer="4933" from-port="1" to-layer="4934" to-port="2"/>
		<edge from-layer="4934" from-port="3" to-layer="4936" to-port="0"/>
		<edge from-layer="4935" from-port="1" to-layer="4936" to-port="1"/>
		<edge from-layer="4930" from-port="2" to-layer="4937" to-port="0"/>
		<edge from-layer="4936" from-port="2" to-layer="4937" to-port="1"/>
		<edge from-layer="4924" from-port="4" to-layer="4938" to-port="0"/>
		<edge from-layer="4937" from-port="2" to-layer="4938" to-port="1"/>
		<edge from-layer="4938" from-port="2" to-layer="4942" to-port="0"/>
		<edge from-layer="4939" from-port="1" to-layer="4942" to-port="1"/>
		<edge from-layer="4940" from-port="1" to-layer="4942" to-port="2"/>
		<edge from-layer="4941" from-port="1" to-layer="4942" to-port="3"/>
		<edge from-layer="4938" from-port="2" to-layer="4943" to-port="0"/>
		<edge from-layer="4919" from-port="1" to-layer="4944" to-port="0"/>
		<edge from-layer="4944" from-port="1" to-layer="4945" to-port="0"/>
		<edge from-layer="4943" from-port="1" to-layer="4946" to-port="0"/>
		<edge from-layer="4945" from-port="1" to-layer="4946" to-port="1"/>
		<edge from-layer="4946" from-port="2" to-layer="4948" to-port="0"/>
		<edge from-layer="4947" from-port="1" to-layer="4948" to-port="1"/>
		<edge from-layer="4948" from-port="2" to-layer="4952" to-port="0"/>
		<edge from-layer="4949" from-port="1" to-layer="4952" to-port="1"/>
		<edge from-layer="4950" from-port="1" to-layer="4952" to-port="2"/>
		<edge from-layer="4951" from-port="1" to-layer="4952" to-port="3"/>
		<edge from-layer="4919" from-port="1" to-layer="4954" to-port="0"/>
		<edge from-layer="4942" from-port="4" to-layer="4954" to-port="1"/>
		<edge from-layer="4952" from-port="4" to-layer="4954" to-port="2"/>
		<edge from-layer="4953" from-port="1" to-layer="4954" to-port="3"/>
		<edge from-layer="4954" from-port="4" to-layer="4955" to-port="0"/>
		<edge from-layer="4500" from-port="1" to-layer="4955" to-port="1"/>
		<edge from-layer="4955" from-port="2" to-layer="4957" to-port="0"/>
		<edge from-layer="4956" from-port="1" to-layer="4957" to-port="1"/>
		<edge from-layer="4957" from-port="2" to-layer="4959" to-port="0"/>
		<edge from-layer="4958" from-port="1" to-layer="4959" to-port="1"/>
		<edge from-layer="4959" from-port="2" to-layer="4961" to-port="0"/>
		<edge from-layer="4960" from-port="1" to-layer="4961" to-port="1"/>
		<edge from-layer="4961" from-port="2" to-layer="4963" to-port="0"/>
		<edge from-layer="4962" from-port="1" to-layer="4963" to-port="1"/>
		<edge from-layer="4963" from-port="2" to-layer="4965" to-port="0"/>
		<edge from-layer="4964" from-port="1" to-layer="4965" to-port="1"/>
		<edge from-layer="4965" from-port="2" to-layer="4968" to-port="0"/>
		<edge from-layer="4967" from-port="1" to-layer="4968" to-port="1"/>
		<edge from-layer="4968" from-port="2" to-layer="4970" to-port="0"/>
		<edge from-layer="4969" from-port="1" to-layer="4970" to-port="1"/>
		<edge from-layer="4970" from-port="2" to-layer="4972" to-port="0"/>
		<edge from-layer="4971" from-port="1" to-layer="4972" to-port="1"/>
		<edge from-layer="4972" from-port="2" to-layer="4974" to-port="0"/>
		<edge from-layer="4973" from-port="1" to-layer="4974" to-port="1"/>
		<edge from-layer="4974" from-port="2" to-layer="4976" to-port="0"/>
		<edge from-layer="4975" from-port="1" to-layer="4976" to-port="1"/>
		<edge from-layer="4966" from-port="1" to-layer="4977" to-port="0"/>
		<edge from-layer="4976" from-port="2" to-layer="4977" to-port="1"/>
		<edge from-layer="4965" from-port="2" to-layer="4978" to-port="0"/>
		<edge from-layer="4977" from-port="2" to-layer="4978" to-port="1"/>
		<edge from-layer="4978" from-port="2" to-layer="4980" to-port="0"/>
		<edge from-layer="4979" from-port="1" to-layer="4980" to-port="1"/>
		<edge from-layer="4980" from-port="2" to-layer="4981" to-port="0"/>
		<edge from-layer="4981" from-port="1" to-layer="4983" to-port="0"/>
		<edge from-layer="4982" from-port="1" to-layer="4983" to-port="1"/>
		<edge from-layer="4955" from-port="2" to-layer="4984" to-port="0"/>
		<edge from-layer="4983" from-port="2" to-layer="4984" to-port="1"/>
		<edge from-layer="4984" from-port="2" to-layer="4986" to-port="0"/>
		<edge from-layer="4985" from-port="1" to-layer="4986" to-port="1"/>
		<edge from-layer="4986" from-port="2" to-layer="4988" to-port="0"/>
		<edge from-layer="4987" from-port="1" to-layer="4988" to-port="1"/>
		<edge from-layer="4988" from-port="2" to-layer="4989" to-port="0"/>
		<edge from-layer="4989" from-port="1" to-layer="4990" to-port="0"/>
		<edge from-layer="4990" from-port="1" to-layer="4994" to-port="0"/>
		<edge from-layer="4991" from-port="1" to-layer="4994" to-port="1"/>
		<edge from-layer="4992" from-port="1" to-layer="4994" to-port="2"/>
		<edge from-layer="4993" from-port="1" to-layer="4994" to-port="3"/>
		<edge from-layer="4465" from-port="1" to-layer="4995" to-port="0"/>
		<edge from-layer="4995" from-port="1" to-layer="4998" to-port="0"/>
		<edge from-layer="4996" from-port="1" to-layer="4998" to-port="1"/>
		<edge from-layer="4997" from-port="1" to-layer="4998" to-port="2"/>
		<edge from-layer="4998" from-port="3" to-layer="5000" to-port="0"/>
		<edge from-layer="4999" from-port="1" to-layer="5000" to-port="1"/>
		<edge from-layer="4465" from-port="1" to-layer="5001" to-port="0"/>
		<edge from-layer="5001" from-port="1" to-layer="5004" to-port="0"/>
		<edge from-layer="5002" from-port="1" to-layer="5004" to-port="1"/>
		<edge from-layer="5003" from-port="1" to-layer="5004" to-port="2"/>
		<edge from-layer="5004" from-port="3" to-layer="5006" to-port="0"/>
		<edge from-layer="5005" from-port="1" to-layer="5006" to-port="1"/>
		<edge from-layer="5000" from-port="2" to-layer="5007" to-port="0"/>
		<edge from-layer="5006" from-port="2" to-layer="5007" to-port="1"/>
		<edge from-layer="4994" from-port="4" to-layer="5008" to-port="0"/>
		<edge from-layer="5007" from-port="2" to-layer="5008" to-port="1"/>
		<edge from-layer="5008" from-port="2" to-layer="5012" to-port="0"/>
		<edge from-layer="5009" from-port="1" to-layer="5012" to-port="1"/>
		<edge from-layer="5010" from-port="1" to-layer="5012" to-port="2"/>
		<edge from-layer="5011" from-port="1" to-layer="5012" to-port="3"/>
		<edge from-layer="5008" from-port="2" to-layer="5013" to-port="0"/>
		<edge from-layer="4989" from-port="1" to-layer="5014" to-port="0"/>
		<edge from-layer="5014" from-port="1" to-layer="5015" to-port="0"/>
		<edge from-layer="5013" from-port="1" to-layer="5016" to-port="0"/>
		<edge from-layer="5015" from-port="1" to-layer="5016" to-port="1"/>
		<edge from-layer="5016" from-port="2" to-layer="5018" to-port="0"/>
		<edge from-layer="5017" from-port="1" to-layer="5018" to-port="1"/>
		<edge from-layer="5018" from-port="2" to-layer="5022" to-port="0"/>
		<edge from-layer="5019" from-port="1" to-layer="5022" to-port="1"/>
		<edge from-layer="5020" from-port="1" to-layer="5022" to-port="2"/>
		<edge from-layer="5021" from-port="1" to-layer="5022" to-port="3"/>
		<edge from-layer="4989" from-port="1" to-layer="5024" to-port="0"/>
		<edge from-layer="5012" from-port="4" to-layer="5024" to-port="1"/>
		<edge from-layer="5022" from-port="4" to-layer="5024" to-port="2"/>
		<edge from-layer="5023" from-port="1" to-layer="5024" to-port="3"/>
		<edge from-layer="5024" from-port="4" to-layer="5025" to-port="0"/>
		<edge from-layer="4465" from-port="1" to-layer="5025" to-port="1"/>
		<edge from-layer="5025" from-port="2" to-layer="5027" to-port="0"/>
		<edge from-layer="5026" from-port="1" to-layer="5027" to-port="1"/>
		<edge from-layer="5027" from-port="2" to-layer="5029" to-port="0"/>
		<edge from-layer="5028" from-port="1" to-layer="5029" to-port="1"/>
		<edge from-layer="5029" from-port="2" to-layer="5031" to-port="0"/>
		<edge from-layer="5030" from-port="1" to-layer="5031" to-port="1"/>
		<edge from-layer="5031" from-port="2" to-layer="5033" to-port="0"/>
		<edge from-layer="5032" from-port="1" to-layer="5033" to-port="1"/>
		<edge from-layer="5033" from-port="2" to-layer="5035" to-port="0"/>
		<edge from-layer="5034" from-port="1" to-layer="5035" to-port="1"/>
		<edge from-layer="5035" from-port="2" to-layer="5038" to-port="0"/>
		<edge from-layer="5037" from-port="1" to-layer="5038" to-port="1"/>
		<edge from-layer="5038" from-port="2" to-layer="5040" to-port="0"/>
		<edge from-layer="5039" from-port="1" to-layer="5040" to-port="1"/>
		<edge from-layer="5040" from-port="2" to-layer="5042" to-port="0"/>
		<edge from-layer="5041" from-port="1" to-layer="5042" to-port="1"/>
		<edge from-layer="5042" from-port="2" to-layer="5044" to-port="0"/>
		<edge from-layer="5043" from-port="1" to-layer="5044" to-port="1"/>
		<edge from-layer="5044" from-port="2" to-layer="5046" to-port="0"/>
		<edge from-layer="5045" from-port="1" to-layer="5046" to-port="1"/>
		<edge from-layer="5036" from-port="1" to-layer="5047" to-port="0"/>
		<edge from-layer="5046" from-port="2" to-layer="5047" to-port="1"/>
		<edge from-layer="5035" from-port="2" to-layer="5048" to-port="0"/>
		<edge from-layer="5047" from-port="2" to-layer="5048" to-port="1"/>
		<edge from-layer="5048" from-port="2" to-layer="5050" to-port="0"/>
		<edge from-layer="5049" from-port="1" to-layer="5050" to-port="1"/>
		<edge from-layer="5050" from-port="2" to-layer="5051" to-port="0"/>
		<edge from-layer="5051" from-port="1" to-layer="5053" to-port="0"/>
		<edge from-layer="5052" from-port="1" to-layer="5053" to-port="1"/>
		<edge from-layer="5025" from-port="2" to-layer="5054" to-port="0"/>
		<edge from-layer="5053" from-port="2" to-layer="5054" to-port="1"/>
		<edge from-layer="5054" from-port="2" to-layer="5056" to-port="0"/>
		<edge from-layer="5055" from-port="1" to-layer="5056" to-port="1"/>
		<edge from-layer="5056" from-port="2" to-layer="5058" to-port="0"/>
		<edge from-layer="5057" from-port="1" to-layer="5058" to-port="1"/>
		<edge from-layer="5058" from-port="2" to-layer="5059" to-port="0"/>
		<edge from-layer="5059" from-port="1" to-layer="5060" to-port="0"/>
		<edge from-layer="4431" from-port="1" to-layer="5060" to-port="1"/>
		<edge from-layer="5060" from-port="2" to-layer="5062" to-port="0"/>
		<edge from-layer="5061" from-port="1" to-layer="5062" to-port="1"/>
		<edge from-layer="5062" from-port="2" to-layer="5064" to-port="0"/>
		<edge from-layer="5063" from-port="1" to-layer="5064" to-port="1"/>
		<edge from-layer="4361" from-port="2" to-layer="5066" to-port="0"/>
		<edge from-layer="5065" from-port="1" to-layer="5066" to-port="1"/>
		<edge from-layer="5066" from-port="2" to-layer="5068" to-port="0"/>
		<edge from-layer="5067" from-port="1" to-layer="5068" to-port="1"/>
		<edge from-layer="5068" from-port="2" to-layer="5069" to-port="0"/>
		<edge from-layer="5069" from-port="1" to-layer="5073" to-port="0"/>
		<edge from-layer="5070" from-port="1" to-layer="5073" to-port="1"/>
		<edge from-layer="5071" from-port="1" to-layer="5073" to-port="2"/>
		<edge from-layer="5072" from-port="1" to-layer="5073" to-port="3"/>
		<edge from-layer="5064" from-port="2" to-layer="5074" to-port="0"/>
		<edge from-layer="5074" from-port="1" to-layer="5077" to-port="0"/>
		<edge from-layer="5075" from-port="1" to-layer="5077" to-port="1"/>
		<edge from-layer="5076" from-port="1" to-layer="5077" to-port="2"/>
		<edge from-layer="5077" from-port="3" to-layer="5079" to-port="0"/>
		<edge from-layer="5078" from-port="1" to-layer="5079" to-port="1"/>
		<edge from-layer="5064" from-port="2" to-layer="5080" to-port="0"/>
		<edge from-layer="5080" from-port="1" to-layer="5083" to-port="0"/>
		<edge from-layer="5081" from-port="1" to-layer="5083" to-port="1"/>
		<edge from-layer="5082" from-port="1" to-layer="5083" to-port="2"/>
		<edge from-layer="5083" from-port="3" to-layer="5085" to-port="0"/>
		<edge from-layer="5084" from-port="1" to-layer="5085" to-port="1"/>
		<edge from-layer="5079" from-port="2" to-layer="5086" to-port="0"/>
		<edge from-layer="5085" from-port="2" to-layer="5086" to-port="1"/>
		<edge from-layer="5073" from-port="4" to-layer="5087" to-port="0"/>
		<edge from-layer="5086" from-port="2" to-layer="5087" to-port="1"/>
		<edge from-layer="5087" from-port="2" to-layer="5091" to-port="0"/>
		<edge from-layer="5088" from-port="1" to-layer="5091" to-port="1"/>
		<edge from-layer="5089" from-port="1" to-layer="5091" to-port="2"/>
		<edge from-layer="5090" from-port="1" to-layer="5091" to-port="3"/>
		<edge from-layer="5087" from-port="2" to-layer="5092" to-port="0"/>
		<edge from-layer="5068" from-port="2" to-layer="5093" to-port="0"/>
		<edge from-layer="5093" from-port="1" to-layer="5094" to-port="0"/>
		<edge from-layer="5092" from-port="1" to-layer="5095" to-port="0"/>
		<edge from-layer="5094" from-port="1" to-layer="5095" to-port="1"/>
		<edge from-layer="5095" from-port="2" to-layer="5097" to-port="0"/>
		<edge from-layer="5096" from-port="1" to-layer="5097" to-port="1"/>
		<edge from-layer="5097" from-port="2" to-layer="5101" to-port="0"/>
		<edge from-layer="5098" from-port="1" to-layer="5101" to-port="1"/>
		<edge from-layer="5099" from-port="1" to-layer="5101" to-port="2"/>
		<edge from-layer="5100" from-port="1" to-layer="5101" to-port="3"/>
		<edge from-layer="5068" from-port="2" to-layer="5103" to-port="0"/>
		<edge from-layer="5091" from-port="4" to-layer="5103" to-port="1"/>
		<edge from-layer="5101" from-port="4" to-layer="5103" to-port="2"/>
		<edge from-layer="5102" from-port="1" to-layer="5103" to-port="3"/>
		<edge from-layer="3767" from-port="2" to-layer="5105" to-port="0"/>
		<edge from-layer="5104" from-port="1" to-layer="5105" to-port="1"/>
		<edge from-layer="5105" from-port="2" to-layer="5107" to-port="0"/>
		<edge from-layer="5106" from-port="1" to-layer="5107" to-port="1"/>
		<edge from-layer="5107" from-port="2" to-layer="5108" to-port="0"/>
		<edge from-layer="5108" from-port="1" to-layer="5112" to-port="0"/>
		<edge from-layer="5109" from-port="1" to-layer="5112" to-port="1"/>
		<edge from-layer="5110" from-port="1" to-layer="5112" to-port="2"/>
		<edge from-layer="5111" from-port="1" to-layer="5112" to-port="3"/>
		<edge from-layer="5064" from-port="2" to-layer="5113" to-port="0"/>
		<edge from-layer="5113" from-port="1" to-layer="5116" to-port="0"/>
		<edge from-layer="5114" from-port="1" to-layer="5116" to-port="1"/>
		<edge from-layer="5115" from-port="1" to-layer="5116" to-port="2"/>
		<edge from-layer="5116" from-port="3" to-layer="5118" to-port="0"/>
		<edge from-layer="5117" from-port="1" to-layer="5118" to-port="1"/>
		<edge from-layer="5064" from-port="2" to-layer="5119" to-port="0"/>
		<edge from-layer="5119" from-port="1" to-layer="5122" to-port="0"/>
		<edge from-layer="5120" from-port="1" to-layer="5122" to-port="1"/>
		<edge from-layer="5121" from-port="1" to-layer="5122" to-port="2"/>
		<edge from-layer="5122" from-port="3" to-layer="5124" to-port="0"/>
		<edge from-layer="5123" from-port="1" to-layer="5124" to-port="1"/>
		<edge from-layer="5118" from-port="2" to-layer="5125" to-port="0"/>
		<edge from-layer="5124" from-port="2" to-layer="5125" to-port="1"/>
		<edge from-layer="5112" from-port="4" to-layer="5126" to-port="0"/>
		<edge from-layer="5125" from-port="2" to-layer="5126" to-port="1"/>
		<edge from-layer="5126" from-port="2" to-layer="5130" to-port="0"/>
		<edge from-layer="5127" from-port="1" to-layer="5130" to-port="1"/>
		<edge from-layer="5128" from-port="1" to-layer="5130" to-port="2"/>
		<edge from-layer="5129" from-port="1" to-layer="5130" to-port="3"/>
		<edge from-layer="5126" from-port="2" to-layer="5131" to-port="0"/>
		<edge from-layer="5107" from-port="2" to-layer="5132" to-port="0"/>
		<edge from-layer="5132" from-port="1" to-layer="5133" to-port="0"/>
		<edge from-layer="5131" from-port="1" to-layer="5134" to-port="0"/>
		<edge from-layer="5133" from-port="1" to-layer="5134" to-port="1"/>
		<edge from-layer="5134" from-port="2" to-layer="5136" to-port="0"/>
		<edge from-layer="5135" from-port="1" to-layer="5136" to-port="1"/>
		<edge from-layer="5136" from-port="2" to-layer="5140" to-port="0"/>
		<edge from-layer="5137" from-port="1" to-layer="5140" to-port="1"/>
		<edge from-layer="5138" from-port="1" to-layer="5140" to-port="2"/>
		<edge from-layer="5139" from-port="1" to-layer="5140" to-port="3"/>
		<edge from-layer="5107" from-port="2" to-layer="5142" to-port="0"/>
		<edge from-layer="5130" from-port="4" to-layer="5142" to-port="1"/>
		<edge from-layer="5140" from-port="4" to-layer="5142" to-port="2"/>
		<edge from-layer="5141" from-port="1" to-layer="5142" to-port="3"/>
		<edge from-layer="3278" from-port="2" to-layer="5144" to-port="0"/>
		<edge from-layer="5143" from-port="1" to-layer="5144" to-port="1"/>
		<edge from-layer="5144" from-port="2" to-layer="5146" to-port="0"/>
		<edge from-layer="5145" from-port="1" to-layer="5146" to-port="1"/>
		<edge from-layer="5146" from-port="2" to-layer="5147" to-port="0"/>
		<edge from-layer="5147" from-port="1" to-layer="5151" to-port="0"/>
		<edge from-layer="5148" from-port="1" to-layer="5151" to-port="1"/>
		<edge from-layer="5149" from-port="1" to-layer="5151" to-port="2"/>
		<edge from-layer="5150" from-port="1" to-layer="5151" to-port="3"/>
		<edge from-layer="5064" from-port="2" to-layer="5152" to-port="0"/>
		<edge from-layer="5152" from-port="1" to-layer="5155" to-port="0"/>
		<edge from-layer="5153" from-port="1" to-layer="5155" to-port="1"/>
		<edge from-layer="5154" from-port="1" to-layer="5155" to-port="2"/>
		<edge from-layer="5155" from-port="3" to-layer="5157" to-port="0"/>
		<edge from-layer="5156" from-port="1" to-layer="5157" to-port="1"/>
		<edge from-layer="5064" from-port="2" to-layer="5158" to-port="0"/>
		<edge from-layer="5158" from-port="1" to-layer="5161" to-port="0"/>
		<edge from-layer="5159" from-port="1" to-layer="5161" to-port="1"/>
		<edge from-layer="5160" from-port="1" to-layer="5161" to-port="2"/>
		<edge from-layer="5161" from-port="3" to-layer="5163" to-port="0"/>
		<edge from-layer="5162" from-port="1" to-layer="5163" to-port="1"/>
		<edge from-layer="5157" from-port="2" to-layer="5164" to-port="0"/>
		<edge from-layer="5163" from-port="2" to-layer="5164" to-port="1"/>
		<edge from-layer="5151" from-port="4" to-layer="5165" to-port="0"/>
		<edge from-layer="5164" from-port="2" to-layer="5165" to-port="1"/>
		<edge from-layer="5165" from-port="2" to-layer="5169" to-port="0"/>
		<edge from-layer="5166" from-port="1" to-layer="5169" to-port="1"/>
		<edge from-layer="5167" from-port="1" to-layer="5169" to-port="2"/>
		<edge from-layer="5168" from-port="1" to-layer="5169" to-port="3"/>
		<edge from-layer="5165" from-port="2" to-layer="5170" to-port="0"/>
		<edge from-layer="5146" from-port="2" to-layer="5171" to-port="0"/>
		<edge from-layer="5171" from-port="1" to-layer="5172" to-port="0"/>
		<edge from-layer="5170" from-port="1" to-layer="5173" to-port="0"/>
		<edge from-layer="5172" from-port="1" to-layer="5173" to-port="1"/>
		<edge from-layer="5173" from-port="2" to-layer="5175" to-port="0"/>
		<edge from-layer="5174" from-port="1" to-layer="5175" to-port="1"/>
		<edge from-layer="5175" from-port="2" to-layer="5179" to-port="0"/>
		<edge from-layer="5176" from-port="1" to-layer="5179" to-port="1"/>
		<edge from-layer="5177" from-port="1" to-layer="5179" to-port="2"/>
		<edge from-layer="5178" from-port="1" to-layer="5179" to-port="3"/>
		<edge from-layer="5146" from-port="2" to-layer="5181" to-port="0"/>
		<edge from-layer="5169" from-port="4" to-layer="5181" to-port="1"/>
		<edge from-layer="5179" from-port="4" to-layer="5181" to-port="2"/>
		<edge from-layer="5180" from-port="1" to-layer="5181" to-port="3"/>
		<edge from-layer="2894" from-port="2" to-layer="5183" to-port="0"/>
		<edge from-layer="5182" from-port="1" to-layer="5183" to-port="1"/>
		<edge from-layer="5183" from-port="2" to-layer="5185" to-port="0"/>
		<edge from-layer="5184" from-port="1" to-layer="5185" to-port="1"/>
		<edge from-layer="5185" from-port="2" to-layer="5186" to-port="0"/>
		<edge from-layer="5186" from-port="1" to-layer="5190" to-port="0"/>
		<edge from-layer="5187" from-port="1" to-layer="5190" to-port="1"/>
		<edge from-layer="5188" from-port="1" to-layer="5190" to-port="2"/>
		<edge from-layer="5189" from-port="1" to-layer="5190" to-port="3"/>
		<edge from-layer="5064" from-port="2" to-layer="5191" to-port="0"/>
		<edge from-layer="5191" from-port="1" to-layer="5194" to-port="0"/>
		<edge from-layer="5192" from-port="1" to-layer="5194" to-port="1"/>
		<edge from-layer="5193" from-port="1" to-layer="5194" to-port="2"/>
		<edge from-layer="5194" from-port="3" to-layer="5196" to-port="0"/>
		<edge from-layer="5195" from-port="1" to-layer="5196" to-port="1"/>
		<edge from-layer="5064" from-port="2" to-layer="5197" to-port="0"/>
		<edge from-layer="5197" from-port="1" to-layer="5200" to-port="0"/>
		<edge from-layer="5198" from-port="1" to-layer="5200" to-port="1"/>
		<edge from-layer="5199" from-port="1" to-layer="5200" to-port="2"/>
		<edge from-layer="5200" from-port="3" to-layer="5202" to-port="0"/>
		<edge from-layer="5201" from-port="1" to-layer="5202" to-port="1"/>
		<edge from-layer="5196" from-port="2" to-layer="5203" to-port="0"/>
		<edge from-layer="5202" from-port="2" to-layer="5203" to-port="1"/>
		<edge from-layer="5190" from-port="4" to-layer="5204" to-port="0"/>
		<edge from-layer="5203" from-port="2" to-layer="5204" to-port="1"/>
		<edge from-layer="5204" from-port="2" to-layer="5208" to-port="0"/>
		<edge from-layer="5205" from-port="1" to-layer="5208" to-port="1"/>
		<edge from-layer="5206" from-port="1" to-layer="5208" to-port="2"/>
		<edge from-layer="5207" from-port="1" to-layer="5208" to-port="3"/>
		<edge from-layer="5204" from-port="2" to-layer="5209" to-port="0"/>
		<edge from-layer="5185" from-port="2" to-layer="5210" to-port="0"/>
		<edge from-layer="5210" from-port="1" to-layer="5211" to-port="0"/>
		<edge from-layer="5209" from-port="1" to-layer="5212" to-port="0"/>
		<edge from-layer="5211" from-port="1" to-layer="5212" to-port="1"/>
		<edge from-layer="5212" from-port="2" to-layer="5214" to-port="0"/>
		<edge from-layer="5213" from-port="1" to-layer="5214" to-port="1"/>
		<edge from-layer="5214" from-port="2" to-layer="5218" to-port="0"/>
		<edge from-layer="5215" from-port="1" to-layer="5218" to-port="1"/>
		<edge from-layer="5216" from-port="1" to-layer="5218" to-port="2"/>
		<edge from-layer="5217" from-port="1" to-layer="5218" to-port="3"/>
		<edge from-layer="5185" from-port="2" to-layer="5220" to-port="0"/>
		<edge from-layer="5208" from-port="4" to-layer="5220" to-port="1"/>
		<edge from-layer="5218" from-port="4" to-layer="5220" to-port="2"/>
		<edge from-layer="5219" from-port="1" to-layer="5220" to-port="3"/>
		<edge from-layer="2582" from-port="2" to-layer="5222" to-port="0"/>
		<edge from-layer="5221" from-port="1" to-layer="5222" to-port="1"/>
		<edge from-layer="5222" from-port="2" to-layer="5224" to-port="0"/>
		<edge from-layer="5223" from-port="1" to-layer="5224" to-port="1"/>
		<edge from-layer="5224" from-port="2" to-layer="5225" to-port="0"/>
		<edge from-layer="5225" from-port="1" to-layer="5229" to-port="0"/>
		<edge from-layer="5226" from-port="1" to-layer="5229" to-port="1"/>
		<edge from-layer="5227" from-port="1" to-layer="5229" to-port="2"/>
		<edge from-layer="5228" from-port="1" to-layer="5229" to-port="3"/>
		<edge from-layer="5064" from-port="2" to-layer="5230" to-port="0"/>
		<edge from-layer="5230" from-port="1" to-layer="5233" to-port="0"/>
		<edge from-layer="5231" from-port="1" to-layer="5233" to-port="1"/>
		<edge from-layer="5232" from-port="1" to-layer="5233" to-port="2"/>
		<edge from-layer="5233" from-port="3" to-layer="5235" to-port="0"/>
		<edge from-layer="5234" from-port="1" to-layer="5235" to-port="1"/>
		<edge from-layer="5064" from-port="2" to-layer="5236" to-port="0"/>
		<edge from-layer="5236" from-port="1" to-layer="5239" to-port="0"/>
		<edge from-layer="5237" from-port="1" to-layer="5239" to-port="1"/>
		<edge from-layer="5238" from-port="1" to-layer="5239" to-port="2"/>
		<edge from-layer="5239" from-port="3" to-layer="5241" to-port="0"/>
		<edge from-layer="5240" from-port="1" to-layer="5241" to-port="1"/>
		<edge from-layer="5235" from-port="2" to-layer="5242" to-port="0"/>
		<edge from-layer="5241" from-port="2" to-layer="5242" to-port="1"/>
		<edge from-layer="5229" from-port="4" to-layer="5243" to-port="0"/>
		<edge from-layer="5242" from-port="2" to-layer="5243" to-port="1"/>
		<edge from-layer="5243" from-port="2" to-layer="5247" to-port="0"/>
		<edge from-layer="5244" from-port="1" to-layer="5247" to-port="1"/>
		<edge from-layer="5245" from-port="1" to-layer="5247" to-port="2"/>
		<edge from-layer="5246" from-port="1" to-layer="5247" to-port="3"/>
		<edge from-layer="5243" from-port="2" to-layer="5248" to-port="0"/>
		<edge from-layer="5224" from-port="2" to-layer="5249" to-port="0"/>
		<edge from-layer="5249" from-port="1" to-layer="5250" to-port="0"/>
		<edge from-layer="5248" from-port="1" to-layer="5251" to-port="0"/>
		<edge from-layer="5250" from-port="1" to-layer="5251" to-port="1"/>
		<edge from-layer="5251" from-port="2" to-layer="5253" to-port="0"/>
		<edge from-layer="5252" from-port="1" to-layer="5253" to-port="1"/>
		<edge from-layer="5253" from-port="2" to-layer="5257" to-port="0"/>
		<edge from-layer="5254" from-port="1" to-layer="5257" to-port="1"/>
		<edge from-layer="5255" from-port="1" to-layer="5257" to-port="2"/>
		<edge from-layer="5256" from-port="1" to-layer="5257" to-port="3"/>
		<edge from-layer="5224" from-port="2" to-layer="5259" to-port="0"/>
		<edge from-layer="5247" from-port="4" to-layer="5259" to-port="1"/>
		<edge from-layer="5257" from-port="4" to-layer="5259" to-port="2"/>
		<edge from-layer="5258" from-port="1" to-layer="5259" to-port="3"/>
		<edge from-layer="5064" from-port="2" to-layer="5260" to-port="0"/>
		<edge from-layer="5103" from-port="4" to-layer="5260" to-port="1"/>
		<edge from-layer="5142" from-port="4" to-layer="5260" to-port="2"/>
		<edge from-layer="5181" from-port="4" to-layer="5260" to-port="3"/>
		<edge from-layer="5220" from-port="4" to-layer="5260" to-port="4"/>
		<edge from-layer="5259" from-port="4" to-layer="5260" to-port="5"/>
		<edge from-layer="5260" from-port="6" to-layer="5262" to-port="0"/>
		<edge from-layer="5261" from-port="1" to-layer="5262" to-port="1"/>
		<edge from-layer="5262" from-port="2" to-layer="5264" to-port="0"/>
		<edge from-layer="5263" from-port="1" to-layer="5264" to-port="1"/>
		<edge from-layer="5264" from-port="2" to-layer="5265" to-port="0"/>
		<edge from-layer="5265" from-port="1" to-layer="5266" to-port="0"/>
		<edge from-layer="5064" from-port="2" to-layer="5267" to-port="0"/>
		<edge from-layer="5267" from-port="1" to-layer="5268" to-port="0"/>
		<edge from-layer="5103" from-port="4" to-layer="5269" to-port="0"/>
		<edge from-layer="5269" from-port="1" to-layer="5270" to-port="0"/>
		<edge from-layer="5142" from-port="4" to-layer="5271" to-port="0"/>
		<edge from-layer="5271" from-port="1" to-layer="5272" to-port="0"/>
		<edge from-layer="5181" from-port="4" to-layer="5273" to-port="0"/>
		<edge from-layer="5273" from-port="1" to-layer="5274" to-port="0"/>
		<edge from-layer="5220" from-port="4" to-layer="5275" to-port="0"/>
		<edge from-layer="5275" from-port="1" to-layer="5276" to-port="0"/>
		<edge from-layer="5259" from-port="4" to-layer="5277" to-port="0"/>
		<edge from-layer="5277" from-port="1" to-layer="5278" to-port="0"/>
	</edges>
	<meta_data>
		<MO_version value="2021.2.0-1877-176bdf51370-releases/2021/2"/>
		<cli_parameters>
			<caffe_parser_path value="DIR"/>
			<data_type value="float"/>
			<disable_nhwc_to_nchw value="False"/>
			<disable_omitting_optional value="False"/>
			<disable_resnet_optimization value="False"/>
			<disable_weights_compression value="False"/>
			<enable_concat_optimization value="False"/>
			<enable_flattening_nested_params value="False"/>
			<enable_ssd_gluoncv value="False"/>
			<extensions value="DIR"/>
			<framework value="onnx"/>
			<freeze_placeholder_with_value value="{}"/>
			<generate_deprecated_IR_V7 value="False"/>
			<input_model value="DIR\U2GE.onnx"/>
			<input_model_is_text value="False"/>
			<input_shape value="[1,3,320,320]"/>
			<k value="DIR\CustomLayersMapping.xml"/>
			<keep_shape_ops value="True"/>
			<legacy_mxnet_model value="False"/>
			<log_level value="ERROR"/>
			<mean_scale_values value="{}"/>
			<mean_values value="()"/>
			<model_name value="U2GE1"/>
			<output_dir value="DIR"/>
			<placeholder_data_types value="{}"/>
			<placeholder_shapes value="[  1   3 320 320]"/>
			<progress value="False"/>
			<remove_memory value="False"/>
			<remove_output_softmax value="False"/>
			<reverse_input_channels value="True"/>
			<save_params_from_nd value="False"/>
			<scale_values value="()"/>
			<silent value="False"/>
			<static_shape value="False"/>
			<stream_output value="False"/>
			<unset unset_cli_parameters="batch, counts, disable_fusing, disable_gfusing, finegrain_fusing, input, input_checkpoint, input_meta_graph, input_proto, input_symbol, mean_file, mean_file_offsets, move_to_preprocess, nd_prefix_name, output, pretrained_model_name, saved_model_dir, saved_model_tags, scale, tensorboard_logdir, tensorflow_custom_layer_libraries, tensorflow_custom_operations_config_update, tensorflow_object_detection_api_pipeline_config, tensorflow_use_custom_operations_config, transformations_config"/>
		</cli_parameters>
	</meta_data>
</net>
