<?xml version="1.0" ?>
<net name="u2P" version="10">
	<layers>
		<layer id="0" name="input.1" type="Parameter" version="opset1">
			<data element_type="f32" shape="1,3,320,320"/>
			<output>
				<port id="0" precision="FP32">
					<dim>1</dim>
					<dim>3</dim>
					<dim>320</dim>
					<dim>320</dim>
				</port>
			</output>
		</layer>
		<layer id="1" name="1967/Output_0/Data__const" type="Const" version="opset1">
			<data element_type="f32" offset="0" shape="64,3,3,3" size="6912"/>
			<output>
				<port id="1" precision="FP32">
					<dim>64</dim>
					<dim>3</dim>
					<dim>3</dim>
					<dim>3</dim>
				</port>
			</output>
		</layer>
		<layer id="2" name="Conv_0/WithoutBiases" type="Convolution" version="opset1">
			<data dilations="1,1" output_padding="0,0" pads_begin="1,1" pads_end="1,1" strides="1,1"/>
			<input>
				<port id="0">
					<dim>1</dim>
					<dim>3</dim>
					<dim>320</dim>
					<dim>320</dim>
				</port>
				<port id="1">
					<dim>64</dim>
					<dim>3</dim>
					<dim>3</dim>
					<dim>3</dim>
				</port>
			</input>
			<output>
				<port id="2" precision="FP32">
					<dim>1</dim>
					<dim>64</dim>
					<dim>320</dim>
					<dim>320</dim>
				</port>
			</output>
		</layer>
		<layer id="3" name="Conv_0/Dims1428125564/EltwiseUnsqueeze25863_const" type="Const" version="opset1">
			<data element_type="f32" offset="6912" shape="1,64,1,1" size="256"/>
			<output>
				<port id="1" precision="FP32">
					<dim>1</dim>
					<dim>64</dim>
					<dim>1</dim>
					<dim>1</dim>
				</port>
			</output>
		</layer>
		<layer id="4" name="Conv_0" type="Add" version="opset1">
			<input>
				<port id="0">
					<dim>1</dim>
					<dim>64</dim>
					<dim>320</dim>
					<dim>320</dim>
				</port>
				<port id="1">
					<dim>1</dim>
					<dim>64</dim>
					<dim>1</dim>
					<dim>1</dim>
				</port>
			</input>
			<output>
				<port id="2" precision="FP32">
					<dim>1</dim>
					<dim>64</dim>
					<dim>320</dim>
					<dim>320</dim>
				</port>
			</output>
		</layer>
		<layer id="5" name="Relu_1" type="ReLU" version="opset1">
			<input>
				<port id="0">
					<dim>1</dim>
					<dim>64</dim>
					<dim>320</dim>
					<dim>320</dim>
				</port>
			</input>
			<output>
				<port id="1" precision="FP32">
					<dim>1</dim>
					<dim>64</dim>
					<dim>320</dim>
					<dim>320</dim>
				</port>
			</output>
		</layer>
		<layer id="6" name="1970/Output_0/Data__const" type="Const" version="opset1">
			<data element_type="f32" offset="7168" shape="16,64,3,3" size="36864"/>
			<output>
				<port id="1" precision="FP32">
					<dim>16</dim>
					<dim>64</dim>
					<dim>3</dim>
					<dim>3</dim>
				</port>
			</output>
		</layer>
		<layer id="7" name="Conv_2/WithoutBiases" type="Convolution" version="opset1">
			<data dilations="1,1" output_padding="0,0" pads_begin="1,1" pads_end="1,1" strides="1,1"/>
			<input>
				<port id="0">
					<dim>1</dim>
					<dim>64</dim>
					<dim>320</dim>
					<dim>320</dim>
				</port>
				<port id="1">
					<dim>16</dim>
					<dim>64</dim>
					<dim>3</dim>
					<dim>3</dim>
				</port>
			</input>
			<output>
				<port id="2" precision="FP32">
					<dim>1</dim>
					<dim>16</dim>
					<dim>320</dim>
					<dim>320</dim>
				</port>
			</output>
		</layer>
		<layer id="8" name="Conv_2/Dims1462325621/EltwiseUnsqueeze26091_const" type="Const" version="opset1">
			<data element_type="f32" offset="44032" shape="1,16,1,1" size="64"/>
			<output>
				<port id="1" precision="FP32">
					<dim>1</dim>
					<dim>16</dim>
					<dim>1</dim>
					<dim>1</dim>
				</port>
			</output>
		</layer>
		<layer id="9" name="Conv_2" type="Add" version="opset1">
			<input>
				<port id="0">
					<dim>1</dim>
					<dim>16</dim>
					<dim>320</dim>
					<dim>320</dim>
				</port>
				<port id="1">
					<dim>1</dim>
					<dim>16</dim>
					<dim>1</dim>
					<dim>1</dim>
				</port>
			</input>
			<output>
				<port id="2" precision="FP32">
					<dim>1</dim>
					<dim>16</dim>
					<dim>320</dim>
					<dim>320</dim>
				</port>
			</output>
		</layer>
		<layer id="10" name="Relu_3" type="ReLU" version="opset1">
			<input>
				<port id="0">
					<dim>1</dim>
					<dim>16</dim>
					<dim>320</dim>
					<dim>320</dim>
				</port>
			</input>
			<output>
				<port id="1" precision="FP32">
					<dim>1</dim>
					<dim>16</dim>
					<dim>320</dim>
					<dim>320</dim>
				</port>
			</output>
		</layer>
		<layer id="11" name="MaxPool_4" type="MaxPool" version="opset1">
			<data kernel="2,2" pads_begin="0,0" pads_end="0,0" rounding_type="ceil" strides="2,2"/>
			<input>
				<port id="0">
					<dim>1</dim>
					<dim>16</dim>
					<dim>320</dim>
					<dim>320</dim>
				</port>
			</input>
			<output>
				<port id="1" precision="FP32">
					<dim>1</dim>
					<dim>16</dim>
					<dim>160</dim>
					<dim>160</dim>
				</port>
			</output>
		</layer>
		<layer id="12" name="1973/Output_0/Data__const" type="Const" version="opset1">
			<data element_type="f32" offset="44096" shape="16,16,3,3" size="9216"/>
			<output>
				<port id="1" precision="FP32">
					<dim>16</dim>
					<dim>16</dim>
					<dim>3</dim>
					<dim>3</dim>
				</port>
			</output>
		</layer>
		<layer id="13" name="Conv_5/WithoutBiases" type="Convolution" version="opset1">
			<data dilations="1,1" output_padding="0,0" pads_begin="1,1" pads_end="1,1" strides="1,1"/>
			<input>
				<port id="0">
					<dim>1</dim>
					<dim>16</dim>
					<dim>160</dim>
					<dim>160</dim>
				</port>
				<port id="1">
					<dim>16</dim>
					<dim>16</dim>
					<dim>3</dim>
					<dim>3</dim>
				</port>
			</input>
			<output>
				<port id="2" precision="FP32">
					<dim>1</dim>
					<dim>16</dim>
					<dim>160</dim>
					<dim>160</dim>
				</port>
			</output>
		</layer>
		<layer id="14" name="Conv_5/Dims1464125624/EltwiseUnsqueeze26103_const" type="Const" version="opset1">
			<data element_type="f32" offset="53312" shape="1,16,1,1" size="64"/>
			<output>
				<port id="1" precision="FP32">
					<dim>1</dim>
					<dim>16</dim>
					<dim>1</dim>
					<dim>1</dim>
				</port>
			</output>
		</layer>
		<layer id="15" name="Conv_5" type="Add" version="opset1">
			<input>
				<port id="0">
					<dim>1</dim>
					<dim>16</dim>
					<dim>160</dim>
					<dim>160</dim>
				</port>
				<port id="1">
					<dim>1</dim>
					<dim>16</dim>
					<dim>1</dim>
					<dim>1</dim>
				</port>
			</input>
			<output>
				<port id="2" precision="FP32">
					<dim>1</dim>
					<dim>16</dim>
					<dim>160</dim>
					<dim>160</dim>
				</port>
			</output>
		</layer>
		<layer id="16" name="Relu_6" type="ReLU" version="opset1">
			<input>
				<port id="0">
					<dim>1</dim>
					<dim>16</dim>
					<dim>160</dim>
					<dim>160</dim>
				</port>
			</input>
			<output>
				<port id="1" precision="FP32">
					<dim>1</dim>
					<dim>16</dim>
					<dim>160</dim>
					<dim>160</dim>
				</port>
			</output>
		</layer>
		<layer id="17" name="MaxPool_7" type="MaxPool" version="opset1">
			<data kernel="2,2" pads_begin="0,0" pads_end="0,0" rounding_type="ceil" strides="2,2"/>
			<input>
				<port id="0">
					<dim>1</dim>
					<dim>16</dim>
					<dim>160</dim>
					<dim>160</dim>
				</port>
			</input>
			<output>
				<port id="1" precision="FP32">
					<dim>1</dim>
					<dim>16</dim>
					<dim>80</dim>
					<dim>80</dim>
				</port>
			</output>
		</layer>
		<layer id="18" name="1976/Output_0/Data__const" type="Const" version="opset1">
			<data element_type="f32" offset="53376" shape="16,16,3,3" size="9216"/>
			<output>
				<port id="1" precision="FP32">
					<dim>16</dim>
					<dim>16</dim>
					<dim>3</dim>
					<dim>3</dim>
				</port>
			</output>
		</layer>
		<layer id="19" name="Conv_8/WithoutBiases" type="Convolution" version="opset1">
			<data dilations="1,1" output_padding="0,0" pads_begin="1,1" pads_end="1,1" strides="1,1"/>
			<input>
				<port id="0">
					<dim>1</dim>
					<dim>16</dim>
					<dim>80</dim>
					<dim>80</dim>
				</port>
				<port id="1">
					<dim>16</dim>
					<dim>16</dim>
					<dim>3</dim>
					<dim>3</dim>
				</port>
			</input>
			<output>
				<port id="2" precision="FP32">
					<dim>1</dim>
					<dim>16</dim>
					<dim>80</dim>
					<dim>80</dim>
				</port>
			</output>
		</layer>
		<layer id="20" name="Conv_8/Dims1474925642/EltwiseUnsqueeze26175_const" type="Const" version="opset1">
			<data element_type="f32" offset="62592" shape="1,16,1,1" size="64"/>
			<output>
				<port id="1" precision="FP32">
					<dim>1</dim>
					<dim>16</dim>
					<dim>1</dim>
					<dim>1</dim>
				</port>
			</output>
		</layer>
		<layer id="21" name="Conv_8" type="Add" version="opset1">
			<input>
				<port id="0">
					<dim>1</dim>
					<dim>16</dim>
					<dim>80</dim>
					<dim>80</dim>
				</port>
				<port id="1">
					<dim>1</dim>
					<dim>16</dim>
					<dim>1</dim>
					<dim>1</dim>
				</port>
			</input>
			<output>
				<port id="2" precision="FP32">
					<dim>1</dim>
					<dim>16</dim>
					<dim>80</dim>
					<dim>80</dim>
				</port>
			</output>
		</layer>
		<layer id="22" name="Relu_9" type="ReLU" version="opset1">
			<input>
				<port id="0">
					<dim>1</dim>
					<dim>16</dim>
					<dim>80</dim>
					<dim>80</dim>
				</port>
			</input>
			<output>
				<port id="1" precision="FP32">
					<dim>1</dim>
					<dim>16</dim>
					<dim>80</dim>
					<dim>80</dim>
				</port>
			</output>
		</layer>
		<layer id="23" name="MaxPool_10" type="MaxPool" version="opset1">
			<data kernel="2,2" pads_begin="0,0" pads_end="0,0" rounding_type="ceil" strides="2,2"/>
			<input>
				<port id="0">
					<dim>1</dim>
					<dim>16</dim>
					<dim>80</dim>
					<dim>80</dim>
				</port>
			</input>
			<output>
				<port id="1" precision="FP32">
					<dim>1</dim>
					<dim>16</dim>
					<dim>40</dim>
					<dim>40</dim>
				</port>
			</output>
		</layer>
		<layer id="24" name="1979/Output_0/Data__const" type="Const" version="opset1">
			<data element_type="f32" offset="62656" shape="16,16,3,3" size="9216"/>
			<output>
				<port id="1" precision="FP32">
					<dim>16</dim>
					<dim>16</dim>
					<dim>3</dim>
					<dim>3</dim>
				</port>
			</output>
		</layer>
		<layer id="25" name="Conv_11/WithoutBiases" type="Convolution" version="opset1">
			<data dilations="1,1" output_padding="0,0" pads_begin="1,1" pads_end="1,1" strides="1,1"/>
			<input>
				<port id="0">
					<dim>1</dim>
					<dim>16</dim>
					<dim>40</dim>
					<dim>40</dim>
				</port>
				<port id="1">
					<dim>16</dim>
					<dim>16</dim>
					<dim>3</dim>
					<dim>3</dim>
				</port>
			</input>
			<output>
				<port id="2" precision="FP32">
					<dim>1</dim>
					<dim>16</dim>
					<dim>40</dim>
					<dim>40</dim>
				</port>
			</output>
		</layer>
		<layer id="26" name="Conv_11/Dims1434725575/EltwiseUnsqueeze25907_const" type="Const" version="opset1">
			<data element_type="f32" offset="71872" shape="1,16,1,1" size="64"/>
			<output>
				<port id="1" precision="FP32">
					<dim>1</dim>
					<dim>16</dim>
					<dim>1</dim>
					<dim>1</dim>
				</port>
			</output>
		</layer>
		<layer id="27" name="Conv_11" type="Add" version="opset1">
			<input>
				<port id="0">
					<dim>1</dim>
					<dim>16</dim>
					<dim>40</dim>
					<dim>40</dim>
				</port>
				<port id="1">
					<dim>1</dim>
					<dim>16</dim>
					<dim>1</dim>
					<dim>1</dim>
				</port>
			</input>
			<output>
				<port id="2" precision="FP32">
					<dim>1</dim>
					<dim>16</dim>
					<dim>40</dim>
					<dim>40</dim>
				</port>
			</output>
		</layer>
		<layer id="28" name="Relu_12" type="ReLU" version="opset1">
			<input>
				<port id="0">
					<dim>1</dim>
					<dim>16</dim>
					<dim>40</dim>
					<dim>40</dim>
				</port>
			</input>
			<output>
				<port id="1" precision="FP32">
					<dim>1</dim>
					<dim>16</dim>
					<dim>40</dim>
					<dim>40</dim>
				</port>
			</output>
		</layer>
		<layer id="29" name="MaxPool_13" type="MaxPool" version="opset1">
			<data kernel="2,2" pads_begin="0,0" pads_end="0,0" rounding_type="ceil" strides="2,2"/>
			<input>
				<port id="0">
					<dim>1</dim>
					<dim>16</dim>
					<dim>40</dim>
					<dim>40</dim>
				</port>
			</input>
			<output>
				<port id="1" precision="FP32">
					<dim>1</dim>
					<dim>16</dim>
					<dim>20</dim>
					<dim>20</dim>
				</port>
			</output>
		</layer>
		<layer id="30" name="1982/Output_0/Data__const" type="Const" version="opset1">
			<data element_type="f32" offset="71936" shape="16,16,3,3" size="9216"/>
			<output>
				<port id="1" precision="FP32">
					<dim>16</dim>
					<dim>16</dim>
					<dim>3</dim>
					<dim>3</dim>
				</port>
			</output>
		</layer>
		<layer id="31" name="Conv_14/WithoutBiases" type="Convolution" version="opset1">
			<data dilations="1,1" output_padding="0,0" pads_begin="1,1" pads_end="1,1" strides="1,1"/>
			<input>
				<port id="0">
					<dim>1</dim>
					<dim>16</dim>
					<dim>20</dim>
					<dim>20</dim>
				</port>
				<port id="1">
					<dim>16</dim>
					<dim>16</dim>
					<dim>3</dim>
					<dim>3</dim>
				</port>
			</input>
			<output>
				<port id="2" precision="FP32">
					<dim>1</dim>
					<dim>16</dim>
					<dim>20</dim>
					<dim>20</dim>
				</port>
			</output>
		</layer>
		<layer id="32" name="Conv_14/Dims1456925612/EltwiseUnsqueeze26055_const" type="Const" version="opset1">
			<data element_type="f32" offset="81152" shape="1,16,1,1" size="64"/>
			<output>
				<port id="1" precision="FP32">
					<dim>1</dim>
					<dim>16</dim>
					<dim>1</dim>
					<dim>1</dim>
				</port>
			</output>
		</layer>
		<layer id="33" name="Conv_14" type="Add" version="opset1">
			<input>
				<port id="0">
					<dim>1</dim>
					<dim>16</dim>
					<dim>20</dim>
					<dim>20</dim>
				</port>
				<port id="1">
					<dim>1</dim>
					<dim>16</dim>
					<dim>1</dim>
					<dim>1</dim>
				</port>
			</input>
			<output>
				<port id="2" precision="FP32">
					<dim>1</dim>
					<dim>16</dim>
					<dim>20</dim>
					<dim>20</dim>
				</port>
			</output>
		</layer>
		<layer id="34" name="Relu_15" type="ReLU" version="opset1">
			<input>
				<port id="0">
					<dim>1</dim>
					<dim>16</dim>
					<dim>20</dim>
					<dim>20</dim>
				</port>
			</input>
			<output>
				<port id="1" precision="FP32">
					<dim>1</dim>
					<dim>16</dim>
					<dim>20</dim>
					<dim>20</dim>
				</port>
			</output>
		</layer>
		<layer id="35" name="MaxPool_16" type="MaxPool" version="opset1">
			<data kernel="2,2" pads_begin="0,0" pads_end="0,0" rounding_type="ceil" strides="2,2"/>
			<input>
				<port id="0">
					<dim>1</dim>
					<dim>16</dim>
					<dim>20</dim>
					<dim>20</dim>
				</port>
			</input>
			<output>
				<port id="1" precision="FP32">
					<dim>1</dim>
					<dim>16</dim>
					<dim>10</dim>
					<dim>10</dim>
				</port>
			</output>
		</layer>
		<layer id="36" name="1985/Output_0/Data__const" type="Const" version="opset1">
			<data element_type="f32" offset="81216" shape="16,16,3,3" size="9216"/>
			<output>
				<port id="1" precision="FP32">
					<dim>16</dim>
					<dim>16</dim>
					<dim>3</dim>
					<dim>3</dim>
				</port>
			</output>
		</layer>
		<layer id="37" name="Conv_17/WithoutBiases" type="Convolution" version="opset1">
			<data dilations="1,1" output_padding="0,0" pads_begin="1,1" pads_end="1,1" strides="1,1"/>
			<input>
				<port id="0">
					<dim>1</dim>
					<dim>16</dim>
					<dim>10</dim>
					<dim>10</dim>
				</port>
				<port id="1">
					<dim>16</dim>
					<dim>16</dim>
					<dim>3</dim>
					<dim>3</dim>
				</port>
			</input>
			<output>
				<port id="2" precision="FP32">
					<dim>1</dim>
					<dim>16</dim>
					<dim>10</dim>
					<dim>10</dim>
				</port>
			</output>
		</layer>
		<layer id="38" name="Conv_17/Dims1476125644/EltwiseUnsqueeze26183_const" type="Const" version="opset1">
			<data element_type="f32" offset="90432" shape="1,16,1,1" size="64"/>
			<output>
				<port id="1" precision="FP32">
					<dim>1</dim>
					<dim>16</dim>
					<dim>1</dim>
					<dim>1</dim>
				</port>
			</output>
		</layer>
		<layer id="39" name="Conv_17" type="Add" version="opset1">
			<input>
				<port id="0">
					<dim>1</dim>
					<dim>16</dim>
					<dim>10</dim>
					<dim>10</dim>
				</port>
				<port id="1">
					<dim>1</dim>
					<dim>16</dim>
					<dim>1</dim>
					<dim>1</dim>
				</port>
			</input>
			<output>
				<port id="2" precision="FP32">
					<dim>1</dim>
					<dim>16</dim>
					<dim>10</dim>
					<dim>10</dim>
				</port>
			</output>
		</layer>
		<layer id="40" name="Relu_18" type="ReLU" version="opset1">
			<input>
				<port id="0">
					<dim>1</dim>
					<dim>16</dim>
					<dim>10</dim>
					<dim>10</dim>
				</port>
			</input>
			<output>
				<port id="1" precision="FP32">
					<dim>1</dim>
					<dim>16</dim>
					<dim>10</dim>
					<dim>10</dim>
				</port>
			</output>
		</layer>
		<layer id="41" name="1988/Output_0/Data__const" type="Const" version="opset1">
			<data element_type="f32" offset="90496" shape="16,16,3,3" size="9216"/>
			<output>
				<port id="1" precision="FP32">
					<dim>16</dim>
					<dim>16</dim>
					<dim>3</dim>
					<dim>3</dim>
				</port>
			</output>
		</layer>
		<layer id="42" name="Conv_19/WithoutBiases" type="Convolution" version="opset1">
			<data dilations="2,2" output_padding="0,0" pads_begin="2,2" pads_end="2,2" strides="1,1"/>
			<input>
				<port id="0">
					<dim>1</dim>
					<dim>16</dim>
					<dim>10</dim>
					<dim>10</dim>
				</port>
				<port id="1">
					<dim>16</dim>
					<dim>16</dim>
					<dim>3</dim>
					<dim>3</dim>
				</port>
			</input>
			<output>
				<port id="2" precision="FP32">
					<dim>1</dim>
					<dim>16</dim>
					<dim>10</dim>
					<dim>10</dim>
				</port>
			</output>
		</layer>
		<layer id="43" name="Conv_19/Dims1444925592/EltwiseUnsqueeze25975_const" type="Const" version="opset1">
			<data element_type="f32" offset="99712" shape="1,16,1,1" size="64"/>
			<output>
				<port id="1" precision="FP32">
					<dim>1</dim>
					<dim>16</dim>
					<dim>1</dim>
					<dim>1</dim>
				</port>
			</output>
		</layer>
		<layer id="44" name="Conv_19" type="Add" version="opset1">
			<input>
				<port id="0">
					<dim>1</dim>
					<dim>16</dim>
					<dim>10</dim>
					<dim>10</dim>
				</port>
				<port id="1">
					<dim>1</dim>
					<dim>16</dim>
					<dim>1</dim>
					<dim>1</dim>
				</port>
			</input>
			<output>
				<port id="2" precision="FP32">
					<dim>1</dim>
					<dim>16</dim>
					<dim>10</dim>
					<dim>10</dim>
				</port>
			</output>
		</layer>
		<layer id="45" name="Relu_20" type="ReLU" version="opset1">
			<input>
				<port id="0">
					<dim>1</dim>
					<dim>16</dim>
					<dim>10</dim>
					<dim>10</dim>
				</port>
			</input>
			<output>
				<port id="1" precision="FP32">
					<dim>1</dim>
					<dim>16</dim>
					<dim>10</dim>
					<dim>10</dim>
				</port>
			</output>
		</layer>
		<layer id="46" name="Concat_21" type="Concat" version="opset1">
			<data axis="1"/>
			<input>
				<port id="0">
					<dim>1</dim>
					<dim>16</dim>
					<dim>10</dim>
					<dim>10</dim>
				</port>
				<port id="1">
					<dim>1</dim>
					<dim>16</dim>
					<dim>10</dim>
					<dim>10</dim>
				</port>
			</input>
			<output>
				<port id="2" precision="FP32">
					<dim>1</dim>
					<dim>32</dim>
					<dim>10</dim>
					<dim>10</dim>
				</port>
			</output>
		</layer>
		<layer id="47" name="1991/Output_0/Data__const" type="Const" version="opset1">
			<data element_type="f32" offset="99776" shape="16,32,3,3" size="18432"/>
			<output>
				<port id="1" precision="FP32">
					<dim>16</dim>
					<dim>32</dim>
					<dim>3</dim>
					<dim>3</dim>
				</port>
			</output>
		</layer>
		<layer id="48" name="Conv_22/WithoutBiases" type="Convolution" version="opset1">
			<data dilations="1,1" output_padding="0,0" pads_begin="1,1" pads_end="1,1" strides="1,1"/>
			<input>
				<port id="0">
					<dim>1</dim>
					<dim>32</dim>
					<dim>10</dim>
					<dim>10</dim>
				</port>
				<port id="1">
					<dim>16</dim>
					<dim>32</dim>
					<dim>3</dim>
					<dim>3</dim>
				</port>
			</input>
			<output>
				<port id="2" precision="FP32">
					<dim>1</dim>
					<dim>16</dim>
					<dim>10</dim>
					<dim>10</dim>
				</port>
			</output>
		</layer>
		<layer id="49" name="Conv_22/Dims1470125634/EltwiseUnsqueeze26143_const" type="Const" version="opset1">
			<data element_type="f32" offset="118208" shape="1,16,1,1" size="64"/>
			<output>
				<port id="1" precision="FP32">
					<dim>1</dim>
					<dim>16</dim>
					<dim>1</dim>
					<dim>1</dim>
				</port>
			</output>
		</layer>
		<layer id="50" name="Conv_22" type="Add" version="opset1">
			<input>
				<port id="0">
					<dim>1</dim>
					<dim>16</dim>
					<dim>10</dim>
					<dim>10</dim>
				</port>
				<port id="1">
					<dim>1</dim>
					<dim>16</dim>
					<dim>1</dim>
					<dim>1</dim>
				</port>
			</input>
			<output>
				<port id="2" precision="FP32">
					<dim>1</dim>
					<dim>16</dim>
					<dim>10</dim>
					<dim>10</dim>
				</port>
			</output>
		</layer>
		<layer id="51" name="Relu_23" type="ReLU" version="opset1">
			<input>
				<port id="0">
					<dim>1</dim>
					<dim>16</dim>
					<dim>10</dim>
					<dim>10</dim>
				</port>
			</input>
			<output>
				<port id="1" precision="FP32">
					<dim>1</dim>
					<dim>16</dim>
					<dim>10</dim>
					<dim>10</dim>
				</port>
			</output>
		</layer>
		<layer id="52" name="Shape_34" type="ShapeOf" version="opset3">
			<data output_type="i64"/>
			<input>
				<port id="0">
					<dim>1</dim>
					<dim>16</dim>
					<dim>10</dim>
					<dim>10</dim>
				</port>
			</input>
			<output>
				<port id="1" precision="I64">
					<dim>4</dim>
				</port>
			</output>
		</layer>
		<layer id="53" name="Slice_38/Cast_162173_const" type="Const" version="opset1">
			<data element_type="i64" offset="118272" shape="1" size="8"/>
			<output>
				<port id="1" precision="I64">
					<dim>1</dim>
				</port>
			</output>
		</layer>
		<layer id="54" name="Slice_38/Cast_262175_const" type="Const" version="opset1">
			<data element_type="i64" offset="118280" shape="1" size="8"/>
			<output>
				<port id="1" precision="I64">
					<dim>1</dim>
				</port>
			</output>
		</layer>
		<layer id="55" name="Slice_38/Cast_362177_const" type="Const" version="opset1">
			<data element_type="i64" offset="118288" shape="1" size="8"/>
			<output>
				<port id="1" precision="I64">
					<dim>1</dim>
				</port>
			</output>
		</layer>
		<layer id="56" name="Slice_38" type="StridedSlice" version="opset1">
			<data begin_mask="1" ellipsis_mask="0" end_mask="0" new_axis_mask="0" shrink_axis_mask="0"/>
			<input>
				<port id="0">
					<dim>4</dim>
				</port>
				<port id="1">
					<dim>1</dim>
				</port>
				<port id="2">
					<dim>1</dim>
				</port>
				<port id="3">
					<dim>1</dim>
				</port>
			</input>
			<output>
				<port id="4" precision="I64">
					<dim>2</dim>
				</port>
			</output>
		</layer>
		<layer id="57" name="Shape_24" type="ShapeOf" version="opset3">
			<data output_type="i64"/>
			<input>
				<port id="0">
					<dim>1</dim>
					<dim>16</dim>
					<dim>20</dim>
					<dim>20</dim>
				</port>
			</input>
			<output>
				<port id="1" precision="I64">
					<dim>4</dim>
				</port>
			</output>
		</layer>
		<layer id="58" name="Gather_261596/Cast_161889_const" type="Const" version="opset1">
			<data element_type="i32" offset="118296" shape="" size="4"/>
			<output>
				<port id="1" precision="I32"/>
			</output>
		</layer>
		<layer id="59" name="Gather_261596/Cast_261891_const" type="Const" version="opset1">
			<data element_type="i64" offset="118272" shape="" size="8"/>
			<output>
				<port id="1" precision="I64"/>
			</output>
		</layer>
		<layer id="60" name="Gather_261596" type="Gather" version="opset1">
			<input>
				<port id="0">
					<dim>4</dim>
				</port>
				<port id="1"/>
				<port id="2"/>
			</input>
			<output>
				<port id="3" precision="I64"/>
			</output>
		</layer>
		<layer id="61" name="Unsqueeze_30/Dims/Output_0/Data__const" type="Const" version="opset1">
			<data element_type="i64" offset="118272" shape="1" size="8"/>
			<output>
				<port id="1" precision="I64">
					<dim>1</dim>
				</port>
			</output>
		</layer>
		<layer id="62" name="Unsqueeze_30/Unsqueeze" type="Unsqueeze" version="opset1">
			<input>
				<port id="0"/>
				<port id="1">
					<dim>1</dim>
				</port>
			</input>
			<output>
				<port id="2" precision="I64">
					<dim>1</dim>
				</port>
			</output>
		</layer>
		<layer id="63" name="Shape_27" type="ShapeOf" version="opset3">
			<data output_type="i64"/>
			<input>
				<port id="0">
					<dim>1</dim>
					<dim>16</dim>
					<dim>20</dim>
					<dim>20</dim>
				</port>
			</input>
			<output>
				<port id="1" precision="I64">
					<dim>4</dim>
				</port>
			</output>
		</layer>
		<layer id="64" name="Gather_291472/Cast_162643_const" type="Const" version="opset1">
			<data element_type="i32" offset="118300" shape="" size="4"/>
			<output>
				<port id="1" precision="I32"/>
			</output>
		</layer>
		<layer id="65" name="Gather_291472/Cast_262645_const" type="Const" version="opset1">
			<data element_type="i64" offset="118272" shape="" size="8"/>
			<output>
				<port id="1" precision="I64"/>
			</output>
		</layer>
		<layer id="66" name="Gather_291472" type="Gather" version="opset1">
			<input>
				<port id="0">
					<dim>4</dim>
				</port>
				<port id="1"/>
				<port id="2"/>
			</input>
			<output>
				<port id="3" precision="I64"/>
			</output>
		</layer>
		<layer id="67" name="Unsqueeze_31/Dims/Output_0/Data__const" type="Const" version="opset1">
			<data element_type="i64" offset="118272" shape="1" size="8"/>
			<output>
				<port id="1" precision="I64">
					<dim>1</dim>
				</port>
			</output>
		</layer>
		<layer id="68" name="Unsqueeze_31/Unsqueeze" type="Unsqueeze" version="opset1">
			<input>
				<port id="0"/>
				<port id="1">
					<dim>1</dim>
				</port>
			</input>
			<output>
				<port id="2" precision="I64">
					<dim>1</dim>
				</port>
			</output>
		</layer>
		<layer id="69" name="Concat_32" type="Concat" version="opset1">
			<data axis="0"/>
			<input>
				<port id="0">
					<dim>1</dim>
				</port>
				<port id="1">
					<dim>1</dim>
				</port>
			</input>
			<output>
				<port id="2" precision="I64">
					<dim>2</dim>
				</port>
			</output>
		</layer>
		<layer id="70" name="Concat_40" type="Concat" version="opset1">
			<data axis="0"/>
			<input>
				<port id="0">
					<dim>2</dim>
				</port>
				<port id="1">
					<dim>2</dim>
				</port>
			</input>
			<output>
				<port id="2" precision="I64">
					<dim>4</dim>
				</port>
			</output>
		</layer>
		<layer id="71" name="Resize_42/StridedSlice_sizes/Cast_161669_const" type="Const" version="opset1">
			<data element_type="i64" offset="118280" shape="1" size="8"/>
			<output>
				<port id="1" precision="I64">
					<dim>1</dim>
				</port>
			</output>
		</layer>
		<layer id="72" name="Resize_42/StridedSlice_sizes/Cast_261671_const" type="Const" version="opset1">
			<data element_type="i64" offset="118304" shape="1" size="8"/>
			<output>
				<port id="1" precision="I64">
					<dim>1</dim>
				</port>
			</output>
		</layer>
		<layer id="73" name="Resize_42/StridedSlice_sizes/Cast_361673_const" type="Const" version="opset1">
			<data element_type="i64" offset="118288" shape="1" size="8"/>
			<output>
				<port id="1" precision="I64">
					<dim>1</dim>
				</port>
			</output>
		</layer>
		<layer id="74" name="Resize_42/StridedSlice_sizes" type="StridedSlice" version="opset1">
			<data begin_mask="0" ellipsis_mask="0" end_mask="0" new_axis_mask="0" shrink_axis_mask="0"/>
			<input>
				<port id="0">
					<dim>4</dim>
				</port>
				<port id="1">
					<dim>1</dim>
				</port>
				<port id="2">
					<dim>1</dim>
				</port>
				<port id="3">
					<dim>1</dim>
				</port>
			</input>
			<output>
				<port id="4" precision="I64">
					<dim>2</dim>
				</port>
			</output>
		</layer>
		<layer id="75" name="10304" type="Convert" version="opset1">
			<data destination_type="f32"/>
			<input>
				<port id="0">
					<dim>4</dim>
				</port>
			</input>
			<output>
				<port id="1" precision="FP32">
					<dim>4</dim>
				</port>
			</output>
		</layer>
		<layer id="76" name="Resize_42/ShapeOf_" type="ShapeOf" version="opset3">
			<data output_type="i64"/>
			<input>
				<port id="0">
					<dim>1</dim>
					<dim>16</dim>
					<dim>10</dim>
					<dim>10</dim>
				</port>
			</input>
			<output>
				<port id="1" precision="I64">
					<dim>4</dim>
				</port>
			</output>
		</layer>
		<layer id="77" name="10303" type="Convert" version="opset1">
			<data destination_type="f32"/>
			<input>
				<port id="0">
					<dim>4</dim>
				</port>
			</input>
			<output>
				<port id="1" precision="FP32">
					<dim>4</dim>
				</port>
			</output>
		</layer>
		<layer id="78" name="Resize_42/Div_" type="Divide" version="opset1">
			<input>
				<port id="0">
					<dim>4</dim>
				</port>
				<port id="1">
					<dim>4</dim>
				</port>
			</input>
			<output>
				<port id="2" precision="FP32">
					<dim>4</dim>
				</port>
			</output>
		</layer>
		<layer id="79" name="Resize_42/Add__input_port_1/value10302_const" type="Const" version="opset1">
			<data element_type="f32" offset="118312" shape="1" size="4"/>
			<output>
				<port id="1" precision="FP32">
					<dim>1</dim>
				</port>
			</output>
		</layer>
		<layer id="80" name="Resize_42/Add_" type="Add" version="opset1">
			<input>
				<port id="0">
					<dim>4</dim>
				</port>
				<port id="1">
					<dim>1</dim>
				</port>
			</input>
			<output>
				<port id="2" precision="FP32">
					<dim>4</dim>
				</port>
			</output>
		</layer>
		<layer id="81" name="Resize_42/StridedSlice_scales/Cast_161871_const" type="Const" version="opset1">
			<data element_type="i64" offset="118280" shape="1" size="8"/>
			<output>
				<port id="1" precision="I64">
					<dim>1</dim>
				</port>
			</output>
		</layer>
		<layer id="82" name="Resize_42/StridedSlice_scales/Cast_261873_const" type="Const" version="opset1">
			<data element_type="i64" offset="118304" shape="1" size="8"/>
			<output>
				<port id="1" precision="I64">
					<dim>1</dim>
				</port>
			</output>
		</layer>
		<layer id="83" name="Resize_42/StridedSlice_scales/Cast_361875_const" type="Const" version="opset1">
			<data element_type="i64" offset="118288" shape="1" size="8"/>
			<output>
				<port id="1" precision="I64">
					<dim>1</dim>
				</port>
			</output>
		</layer>
		<layer id="84" name="Resize_42/StridedSlice_scales" type="StridedSlice" version="opset1">
			<data begin_mask="0" ellipsis_mask="0" end_mask="0" new_axis_mask="0" shrink_axis_mask="0"/>
			<input>
				<port id="0">
					<dim>4</dim>
				</port>
				<port id="1">
					<dim>1</dim>
				</port>
				<port id="2">
					<dim>1</dim>
				</port>
				<port id="3">
					<dim>1</dim>
				</port>
			</input>
			<output>
				<port id="4" precision="FP32">
					<dim>2</dim>
				</port>
			</output>
		</layer>
		<layer id="85" name="Resize_42/axis_10298_const" type="Const" version="opset1">
			<data element_type="i64" offset="118316" shape="2" size="16"/>
			<output>
				<port id="1" precision="I64">
					<dim>2</dim>
				</port>
			</output>
		</layer>
		<layer id="86" name="Resize_42" type="Interpolate" version="opset4">
			<data antialias="0" coordinate_transformation_mode="align_corners" cube_coeff="-0.75" mode="linear_onnx" nearest_mode="floor" pads_begin="0,0,0,0" pads_end="0,0,0,0" shape_calculation_mode="sizes"/>
			<input>
				<port id="0">
					<dim>1</dim>
					<dim>16</dim>
					<dim>10</dim>
					<dim>10</dim>
				</port>
				<port id="1">
					<dim>2</dim>
				</port>
				<port id="2">
					<dim>2</dim>
				</port>
				<port id="3">
					<dim>2</dim>
				</port>
			</input>
			<output>
				<port id="4" precision="FP32">
					<dim>1</dim>
					<dim>16</dim>
					<dim>20</dim>
					<dim>20</dim>
				</port>
			</output>
		</layer>
		<layer id="87" name="Concat_43" type="Concat" version="opset1">
			<data axis="1"/>
			<input>
				<port id="0">
					<dim>1</dim>
					<dim>16</dim>
					<dim>20</dim>
					<dim>20</dim>
				</port>
				<port id="1">
					<dim>1</dim>
					<dim>16</dim>
					<dim>20</dim>
					<dim>20</dim>
				</port>
			</input>
			<output>
				<port id="2" precision="FP32">
					<dim>1</dim>
					<dim>32</dim>
					<dim>20</dim>
					<dim>20</dim>
				</port>
			</output>
		</layer>
		<layer id="88" name="1994/Output_0/Data__const" type="Const" version="opset1">
			<data element_type="f32" offset="118332" shape="16,32,3,3" size="18432"/>
			<output>
				<port id="1" precision="FP32">
					<dim>16</dim>
					<dim>32</dim>
					<dim>3</dim>
					<dim>3</dim>
				</port>
			</output>
		</layer>
		<layer id="89" name="Conv_44/WithoutBiases" type="Convolution" version="opset1">
			<data dilations="1,1" output_padding="0,0" pads_begin="1,1" pads_end="1,1" strides="1,1"/>
			<input>
				<port id="0">
					<dim>1</dim>
					<dim>32</dim>
					<dim>20</dim>
					<dim>20</dim>
				</port>
				<port id="1">
					<dim>16</dim>
					<dim>32</dim>
					<dim>3</dim>
					<dim>3</dim>
				</port>
			</input>
			<output>
				<port id="2" precision="FP32">
					<dim>1</dim>
					<dim>16</dim>
					<dim>20</dim>
					<dim>20</dim>
				</port>
			</output>
		</layer>
		<layer id="90" name="Conv_44/Dims1479125649/EltwiseUnsqueeze26203_const" type="Const" version="opset1">
			<data element_type="f32" offset="136764" shape="1,16,1,1" size="64"/>
			<output>
				<port id="1" precision="FP32">
					<dim>1</dim>
					<dim>16</dim>
					<dim>1</dim>
					<dim>1</dim>
				</port>
			</output>
		</layer>
		<layer id="91" name="Conv_44" type="Add" version="opset1">
			<input>
				<port id="0">
					<dim>1</dim>
					<dim>16</dim>
					<dim>20</dim>
					<dim>20</dim>
				</port>
				<port id="1">
					<dim>1</dim>
					<dim>16</dim>
					<dim>1</dim>
					<dim>1</dim>
				</port>
			</input>
			<output>
				<port id="2" precision="FP32">
					<dim>1</dim>
					<dim>16</dim>
					<dim>20</dim>
					<dim>20</dim>
				</port>
			</output>
		</layer>
		<layer id="92" name="Relu_45" type="ReLU" version="opset1">
			<input>
				<port id="0">
					<dim>1</dim>
					<dim>16</dim>
					<dim>20</dim>
					<dim>20</dim>
				</port>
			</input>
			<output>
				<port id="1" precision="FP32">
					<dim>1</dim>
					<dim>16</dim>
					<dim>20</dim>
					<dim>20</dim>
				</port>
			</output>
		</layer>
		<layer id="93" name="Shape_56" type="ShapeOf" version="opset3">
			<data output_type="i64"/>
			<input>
				<port id="0">
					<dim>1</dim>
					<dim>16</dim>
					<dim>20</dim>
					<dim>20</dim>
				</port>
			</input>
			<output>
				<port id="1" precision="I64">
					<dim>4</dim>
				</port>
			</output>
		</layer>
		<layer id="94" name="Slice_60/Cast_162551_const" type="Const" version="opset1">
			<data element_type="i64" offset="118272" shape="1" size="8"/>
			<output>
				<port id="1" precision="I64">
					<dim>1</dim>
				</port>
			</output>
		</layer>
		<layer id="95" name="Slice_60/Cast_262553_const" type="Const" version="opset1">
			<data element_type="i64" offset="118280" shape="1" size="8"/>
			<output>
				<port id="1" precision="I64">
					<dim>1</dim>
				</port>
			</output>
		</layer>
		<layer id="96" name="Slice_60/Cast_362555_const" type="Const" version="opset1">
			<data element_type="i64" offset="118288" shape="1" size="8"/>
			<output>
				<port id="1" precision="I64">
					<dim>1</dim>
				</port>
			</output>
		</layer>
		<layer id="97" name="Slice_60" type="StridedSlice" version="opset1">
			<data begin_mask="1" ellipsis_mask="0" end_mask="0" new_axis_mask="0" shrink_axis_mask="0"/>
			<input>
				<port id="0">
					<dim>4</dim>
				</port>
				<port id="1">
					<dim>1</dim>
				</port>
				<port id="2">
					<dim>1</dim>
				</port>
				<port id="3">
					<dim>1</dim>
				</port>
			</input>
			<output>
				<port id="4" precision="I64">
					<dim>2</dim>
				</port>
			</output>
		</layer>
		<layer id="98" name="Shape_46" type="ShapeOf" version="opset3">
			<data output_type="i64"/>
			<input>
				<port id="0">
					<dim>1</dim>
					<dim>16</dim>
					<dim>40</dim>
					<dim>40</dim>
				</port>
			</input>
			<output>
				<port id="1" precision="I64">
					<dim>4</dim>
				</port>
			</output>
		</layer>
		<layer id="99" name="Gather_481476/Cast_162299_const" type="Const" version="opset1">
			<data element_type="i32" offset="118296" shape="" size="4"/>
			<output>
				<port id="1" precision="I32"/>
			</output>
		</layer>
		<layer id="100" name="Gather_481476/Cast_262301_const" type="Const" version="opset1">
			<data element_type="i64" offset="118272" shape="" size="8"/>
			<output>
				<port id="1" precision="I64"/>
			</output>
		</layer>
		<layer id="101" name="Gather_481476" type="Gather" version="opset1">
			<input>
				<port id="0">
					<dim>4</dim>
				</port>
				<port id="1"/>
				<port id="2"/>
			</input>
			<output>
				<port id="3" precision="I64"/>
			</output>
		</layer>
		<layer id="102" name="Unsqueeze_52/Dims/Output_0/Data__const" type="Const" version="opset1">
			<data element_type="i64" offset="118272" shape="1" size="8"/>
			<output>
				<port id="1" precision="I64">
					<dim>1</dim>
				</port>
			</output>
		</layer>
		<layer id="103" name="Unsqueeze_52/Unsqueeze" type="Unsqueeze" version="opset1">
			<input>
				<port id="0"/>
				<port id="1">
					<dim>1</dim>
				</port>
			</input>
			<output>
				<port id="2" precision="I64">
					<dim>1</dim>
				</port>
			</output>
		</layer>
		<layer id="104" name="Shape_49" type="ShapeOf" version="opset3">
			<data output_type="i64"/>
			<input>
				<port id="0">
					<dim>1</dim>
					<dim>16</dim>
					<dim>40</dim>
					<dim>40</dim>
				</port>
			</input>
			<output>
				<port id="1" precision="I64">
					<dim>4</dim>
				</port>
			</output>
		</layer>
		<layer id="105" name="Gather_511520/Cast_161795_const" type="Const" version="opset1">
			<data element_type="i32" offset="118300" shape="" size="4"/>
			<output>
				<port id="1" precision="I32"/>
			</output>
		</layer>
		<layer id="106" name="Gather_511520/Cast_261797_const" type="Const" version="opset1">
			<data element_type="i64" offset="118272" shape="" size="8"/>
			<output>
				<port id="1" precision="I64"/>
			</output>
		</layer>
		<layer id="107" name="Gather_511520" type="Gather" version="opset1">
			<input>
				<port id="0">
					<dim>4</dim>
				</port>
				<port id="1"/>
				<port id="2"/>
			</input>
			<output>
				<port id="3" precision="I64"/>
			</output>
		</layer>
		<layer id="108" name="Unsqueeze_53/Dims/Output_0/Data__const" type="Const" version="opset1">
			<data element_type="i64" offset="118272" shape="1" size="8"/>
			<output>
				<port id="1" precision="I64">
					<dim>1</dim>
				</port>
			</output>
		</layer>
		<layer id="109" name="Unsqueeze_53/Unsqueeze" type="Unsqueeze" version="opset1">
			<input>
				<port id="0"/>
				<port id="1">
					<dim>1</dim>
				</port>
			</input>
			<output>
				<port id="2" precision="I64">
					<dim>1</dim>
				</port>
			</output>
		</layer>
		<layer id="110" name="Concat_54" type="Concat" version="opset1">
			<data axis="0"/>
			<input>
				<port id="0">
					<dim>1</dim>
				</port>
				<port id="1">
					<dim>1</dim>
				</port>
			</input>
			<output>
				<port id="2" precision="I64">
					<dim>2</dim>
				</port>
			</output>
		</layer>
		<layer id="111" name="Concat_62" type="Concat" version="opset1">
			<data axis="0"/>
			<input>
				<port id="0">
					<dim>2</dim>
				</port>
				<port id="1">
					<dim>2</dim>
				</port>
			</input>
			<output>
				<port id="2" precision="I64">
					<dim>4</dim>
				</port>
			</output>
		</layer>
		<layer id="112" name="Resize_64/StridedSlice_sizes/Cast_161725_const" type="Const" version="opset1">
			<data element_type="i64" offset="118280" shape="1" size="8"/>
			<output>
				<port id="1" precision="I64">
					<dim>1</dim>
				</port>
			</output>
		</layer>
		<layer id="113" name="Resize_64/StridedSlice_sizes/Cast_261727_const" type="Const" version="opset1">
			<data element_type="i64" offset="118304" shape="1" size="8"/>
			<output>
				<port id="1" precision="I64">
					<dim>1</dim>
				</port>
			</output>
		</layer>
		<layer id="114" name="Resize_64/StridedSlice_sizes/Cast_361729_const" type="Const" version="opset1">
			<data element_type="i64" offset="118288" shape="1" size="8"/>
			<output>
				<port id="1" precision="I64">
					<dim>1</dim>
				</port>
			</output>
		</layer>
		<layer id="115" name="Resize_64/StridedSlice_sizes" type="StridedSlice" version="opset1">
			<data begin_mask="0" ellipsis_mask="0" end_mask="0" new_axis_mask="0" shrink_axis_mask="0"/>
			<input>
				<port id="0">
					<dim>4</dim>
				</port>
				<port id="1">
					<dim>1</dim>
				</port>
				<port id="2">
					<dim>1</dim>
				</port>
				<port id="3">
					<dim>1</dim>
				</port>
			</input>
			<output>
				<port id="4" precision="I64">
					<dim>2</dim>
				</port>
			</output>
		</layer>
		<layer id="116" name="10336" type="Convert" version="opset1">
			<data destination_type="f32"/>
			<input>
				<port id="0">
					<dim>4</dim>
				</port>
			</input>
			<output>
				<port id="1" precision="FP32">
					<dim>4</dim>
				</port>
			</output>
		</layer>
		<layer id="117" name="Resize_64/ShapeOf_" type="ShapeOf" version="opset3">
			<data output_type="i64"/>
			<input>
				<port id="0">
					<dim>1</dim>
					<dim>16</dim>
					<dim>20</dim>
					<dim>20</dim>
				</port>
			</input>
			<output>
				<port id="1" precision="I64">
					<dim>4</dim>
				</port>
			</output>
		</layer>
		<layer id="118" name="10335" type="Convert" version="opset1">
			<data destination_type="f32"/>
			<input>
				<port id="0">
					<dim>4</dim>
				</port>
			</input>
			<output>
				<port id="1" precision="FP32">
					<dim>4</dim>
				</port>
			</output>
		</layer>
		<layer id="119" name="Resize_64/Div_" type="Divide" version="opset1">
			<input>
				<port id="0">
					<dim>4</dim>
				</port>
				<port id="1">
					<dim>4</dim>
				</port>
			</input>
			<output>
				<port id="2" precision="FP32">
					<dim>4</dim>
				</port>
			</output>
		</layer>
		<layer id="120" name="Resize_64/Add__input_port_1/value10334_const" type="Const" version="opset1">
			<data element_type="f32" offset="118312" shape="1" size="4"/>
			<output>
				<port id="1" precision="FP32">
					<dim>1</dim>
				</port>
			</output>
		</layer>
		<layer id="121" name="Resize_64/Add_" type="Add" version="opset1">
			<input>
				<port id="0">
					<dim>4</dim>
				</port>
				<port id="1">
					<dim>1</dim>
				</port>
			</input>
			<output>
				<port id="2" precision="FP32">
					<dim>4</dim>
				</port>
			</output>
		</layer>
		<layer id="122" name="Resize_64/StridedSlice_scales/Cast_162231_const" type="Const" version="opset1">
			<data element_type="i64" offset="118280" shape="1" size="8"/>
			<output>
				<port id="1" precision="I64">
					<dim>1</dim>
				</port>
			</output>
		</layer>
		<layer id="123" name="Resize_64/StridedSlice_scales/Cast_262233_const" type="Const" version="opset1">
			<data element_type="i64" offset="118304" shape="1" size="8"/>
			<output>
				<port id="1" precision="I64">
					<dim>1</dim>
				</port>
			</output>
		</layer>
		<layer id="124" name="Resize_64/StridedSlice_scales/Cast_362235_const" type="Const" version="opset1">
			<data element_type="i64" offset="118288" shape="1" size="8"/>
			<output>
				<port id="1" precision="I64">
					<dim>1</dim>
				</port>
			</output>
		</layer>
		<layer id="125" name="Resize_64/StridedSlice_scales" type="StridedSlice" version="opset1">
			<data begin_mask="0" ellipsis_mask="0" end_mask="0" new_axis_mask="0" shrink_axis_mask="0"/>
			<input>
				<port id="0">
					<dim>4</dim>
				</port>
				<port id="1">
					<dim>1</dim>
				</port>
				<port id="2">
					<dim>1</dim>
				</port>
				<port id="3">
					<dim>1</dim>
				</port>
			</input>
			<output>
				<port id="4" precision="FP32">
					<dim>2</dim>
				</port>
			</output>
		</layer>
		<layer id="126" name="Resize_64/axis_10330_const" type="Const" version="opset1">
			<data element_type="i64" offset="118316" shape="2" size="16"/>
			<output>
				<port id="1" precision="I64">
					<dim>2</dim>
				</port>
			</output>
		</layer>
		<layer id="127" name="Resize_64" type="Interpolate" version="opset4">
			<data antialias="0" coordinate_transformation_mode="align_corners" cube_coeff="-0.75" mode="linear_onnx" nearest_mode="floor" pads_begin="0,0,0,0" pads_end="0,0,0,0" shape_calculation_mode="sizes"/>
			<input>
				<port id="0">
					<dim>1</dim>
					<dim>16</dim>
					<dim>20</dim>
					<dim>20</dim>
				</port>
				<port id="1">
					<dim>2</dim>
				</port>
				<port id="2">
					<dim>2</dim>
				</port>
				<port id="3">
					<dim>2</dim>
				</port>
			</input>
			<output>
				<port id="4" precision="FP32">
					<dim>1</dim>
					<dim>16</dim>
					<dim>40</dim>
					<dim>40</dim>
				</port>
			</output>
		</layer>
		<layer id="128" name="Concat_65" type="Concat" version="opset1">
			<data axis="1"/>
			<input>
				<port id="0">
					<dim>1</dim>
					<dim>16</dim>
					<dim>40</dim>
					<dim>40</dim>
				</port>
				<port id="1">
					<dim>1</dim>
					<dim>16</dim>
					<dim>40</dim>
					<dim>40</dim>
				</port>
			</input>
			<output>
				<port id="2" precision="FP32">
					<dim>1</dim>
					<dim>32</dim>
					<dim>40</dim>
					<dim>40</dim>
				</port>
			</output>
		</layer>
		<layer id="129" name="1997/Output_0/Data__const" type="Const" version="opset1">
			<data element_type="f32" offset="136828" shape="16,32,3,3" size="18432"/>
			<output>
				<port id="1" precision="FP32">
					<dim>16</dim>
					<dim>32</dim>
					<dim>3</dim>
					<dim>3</dim>
				</port>
			</output>
		</layer>
		<layer id="130" name="Conv_66/WithoutBiases" type="Convolution" version="opset1">
			<data dilations="1,1" output_padding="0,0" pads_begin="1,1" pads_end="1,1" strides="1,1"/>
			<input>
				<port id="0">
					<dim>1</dim>
					<dim>32</dim>
					<dim>40</dim>
					<dim>40</dim>
				</port>
				<port id="1">
					<dim>16</dim>
					<dim>32</dim>
					<dim>3</dim>
					<dim>3</dim>
				</port>
			</input>
			<output>
				<port id="2" precision="FP32">
					<dim>1</dim>
					<dim>16</dim>
					<dim>40</dim>
					<dim>40</dim>
				</port>
			</output>
		</layer>
		<layer id="131" name="Conv_66/Dims1452725605/EltwiseUnsqueeze26027_const" type="Const" version="opset1">
			<data element_type="f32" offset="155260" shape="1,16,1,1" size="64"/>
			<output>
				<port id="1" precision="FP32">
					<dim>1</dim>
					<dim>16</dim>
					<dim>1</dim>
					<dim>1</dim>
				</port>
			</output>
		</layer>
		<layer id="132" name="Conv_66" type="Add" version="opset1">
			<input>
				<port id="0">
					<dim>1</dim>
					<dim>16</dim>
					<dim>40</dim>
					<dim>40</dim>
				</port>
				<port id="1">
					<dim>1</dim>
					<dim>16</dim>
					<dim>1</dim>
					<dim>1</dim>
				</port>
			</input>
			<output>
				<port id="2" precision="FP32">
					<dim>1</dim>
					<dim>16</dim>
					<dim>40</dim>
					<dim>40</dim>
				</port>
			</output>
		</layer>
		<layer id="133" name="Relu_67" type="ReLU" version="opset1">
			<input>
				<port id="0">
					<dim>1</dim>
					<dim>16</dim>
					<dim>40</dim>
					<dim>40</dim>
				</port>
			</input>
			<output>
				<port id="1" precision="FP32">
					<dim>1</dim>
					<dim>16</dim>
					<dim>40</dim>
					<dim>40</dim>
				</port>
			</output>
		</layer>
		<layer id="134" name="Shape_78" type="ShapeOf" version="opset3">
			<data output_type="i64"/>
			<input>
				<port id="0">
					<dim>1</dim>
					<dim>16</dim>
					<dim>40</dim>
					<dim>40</dim>
				</port>
			</input>
			<output>
				<port id="1" precision="I64">
					<dim>4</dim>
				</port>
			</output>
		</layer>
		<layer id="135" name="Slice_82/Cast_162199_const" type="Const" version="opset1">
			<data element_type="i64" offset="118272" shape="1" size="8"/>
			<output>
				<port id="1" precision="I64">
					<dim>1</dim>
				</port>
			</output>
		</layer>
		<layer id="136" name="Slice_82/Cast_262201_const" type="Const" version="opset1">
			<data element_type="i64" offset="118280" shape="1" size="8"/>
			<output>
				<port id="1" precision="I64">
					<dim>1</dim>
				</port>
			</output>
		</layer>
		<layer id="137" name="Slice_82/Cast_362203_const" type="Const" version="opset1">
			<data element_type="i64" offset="118288" shape="1" size="8"/>
			<output>
				<port id="1" precision="I64">
					<dim>1</dim>
				</port>
			</output>
		</layer>
		<layer id="138" name="Slice_82" type="StridedSlice" version="opset1">
			<data begin_mask="1" ellipsis_mask="0" end_mask="0" new_axis_mask="0" shrink_axis_mask="0"/>
			<input>
				<port id="0">
					<dim>4</dim>
				</port>
				<port id="1">
					<dim>1</dim>
				</port>
				<port id="2">
					<dim>1</dim>
				</port>
				<port id="3">
					<dim>1</dim>
				</port>
			</input>
			<output>
				<port id="4" precision="I64">
					<dim>2</dim>
				</port>
			</output>
		</layer>
		<layer id="139" name="Shape_68" type="ShapeOf" version="opset3">
			<data output_type="i64"/>
			<input>
				<port id="0">
					<dim>1</dim>
					<dim>16</dim>
					<dim>80</dim>
					<dim>80</dim>
				</port>
			</input>
			<output>
				<port id="1" precision="I64">
					<dim>4</dim>
				</port>
			</output>
		</layer>
		<layer id="140" name="Gather_701558/Cast_162003_const" type="Const" version="opset1">
			<data element_type="i32" offset="118296" shape="" size="4"/>
			<output>
				<port id="1" precision="I32"/>
			</output>
		</layer>
		<layer id="141" name="Gather_701558/Cast_262005_const" type="Const" version="opset1">
			<data element_type="i64" offset="118272" shape="" size="8"/>
			<output>
				<port id="1" precision="I64"/>
			</output>
		</layer>
		<layer id="142" name="Gather_701558" type="Gather" version="opset1">
			<input>
				<port id="0">
					<dim>4</dim>
				</port>
				<port id="1"/>
				<port id="2"/>
			</input>
			<output>
				<port id="3" precision="I64"/>
			</output>
		</layer>
		<layer id="143" name="Unsqueeze_74/Dims/Output_0/Data__const" type="Const" version="opset1">
			<data element_type="i64" offset="118272" shape="1" size="8"/>
			<output>
				<port id="1" precision="I64">
					<dim>1</dim>
				</port>
			</output>
		</layer>
		<layer id="144" name="Unsqueeze_74/Unsqueeze" type="Unsqueeze" version="opset1">
			<input>
				<port id="0"/>
				<port id="1">
					<dim>1</dim>
				</port>
			</input>
			<output>
				<port id="2" precision="I64">
					<dim>1</dim>
				</port>
			</output>
		</layer>
		<layer id="145" name="Shape_71" type="ShapeOf" version="opset3">
			<data output_type="i64"/>
			<input>
				<port id="0">
					<dim>1</dim>
					<dim>16</dim>
					<dim>80</dim>
					<dim>80</dim>
				</port>
			</input>
			<output>
				<port id="1" precision="I64">
					<dim>4</dim>
				</port>
			</output>
		</layer>
		<layer id="146" name="Gather_731584/Cast_162371_const" type="Const" version="opset1">
			<data element_type="i32" offset="118300" shape="" size="4"/>
			<output>
				<port id="1" precision="I32"/>
			</output>
		</layer>
		<layer id="147" name="Gather_731584/Cast_262373_const" type="Const" version="opset1">
			<data element_type="i64" offset="118272" shape="" size="8"/>
			<output>
				<port id="1" precision="I64"/>
			</output>
		</layer>
		<layer id="148" name="Gather_731584" type="Gather" version="opset1">
			<input>
				<port id="0">
					<dim>4</dim>
				</port>
				<port id="1"/>
				<port id="2"/>
			</input>
			<output>
				<port id="3" precision="I64"/>
			</output>
		</layer>
		<layer id="149" name="Unsqueeze_75/Dims/Output_0/Data__const" type="Const" version="opset1">
			<data element_type="i64" offset="118272" shape="1" size="8"/>
			<output>
				<port id="1" precision="I64">
					<dim>1</dim>
				</port>
			</output>
		</layer>
		<layer id="150" name="Unsqueeze_75/Unsqueeze" type="Unsqueeze" version="opset1">
			<input>
				<port id="0"/>
				<port id="1">
					<dim>1</dim>
				</port>
			</input>
			<output>
				<port id="2" precision="I64">
					<dim>1</dim>
				</port>
			</output>
		</layer>
		<layer id="151" name="Concat_76" type="Concat" version="opset1">
			<data axis="0"/>
			<input>
				<port id="0">
					<dim>1</dim>
				</port>
				<port id="1">
					<dim>1</dim>
				</port>
			</input>
			<output>
				<port id="2" precision="I64">
					<dim>2</dim>
				</port>
			</output>
		</layer>
		<layer id="152" name="Concat_84" type="Concat" version="opset1">
			<data axis="0"/>
			<input>
				<port id="0">
					<dim>2</dim>
				</port>
				<port id="1">
					<dim>2</dim>
				</port>
			</input>
			<output>
				<port id="2" precision="I64">
					<dim>4</dim>
				</port>
			</output>
		</layer>
		<layer id="153" name="Resize_86/StridedSlice_sizes/Cast_162467_const" type="Const" version="opset1">
			<data element_type="i64" offset="118280" shape="1" size="8"/>
			<output>
				<port id="1" precision="I64">
					<dim>1</dim>
				</port>
			</output>
		</layer>
		<layer id="154" name="Resize_86/StridedSlice_sizes/Cast_262469_const" type="Const" version="opset1">
			<data element_type="i64" offset="118304" shape="1" size="8"/>
			<output>
				<port id="1" precision="I64">
					<dim>1</dim>
				</port>
			</output>
		</layer>
		<layer id="155" name="Resize_86/StridedSlice_sizes/Cast_362471_const" type="Const" version="opset1">
			<data element_type="i64" offset="118288" shape="1" size="8"/>
			<output>
				<port id="1" precision="I64">
					<dim>1</dim>
				</port>
			</output>
		</layer>
		<layer id="156" name="Resize_86/StridedSlice_sizes" type="StridedSlice" version="opset1">
			<data begin_mask="0" ellipsis_mask="0" end_mask="0" new_axis_mask="0" shrink_axis_mask="0"/>
			<input>
				<port id="0">
					<dim>4</dim>
				</port>
				<port id="1">
					<dim>1</dim>
				</port>
				<port id="2">
					<dim>1</dim>
				</port>
				<port id="3">
					<dim>1</dim>
				</port>
			</input>
			<output>
				<port id="4" precision="I64">
					<dim>2</dim>
				</port>
			</output>
		</layer>
		<layer id="157" name="10368" type="Convert" version="opset1">
			<data destination_type="f32"/>
			<input>
				<port id="0">
					<dim>4</dim>
				</port>
			</input>
			<output>
				<port id="1" precision="FP32">
					<dim>4</dim>
				</port>
			</output>
		</layer>
		<layer id="158" name="Resize_86/ShapeOf_" type="ShapeOf" version="opset3">
			<data output_type="i64"/>
			<input>
				<port id="0">
					<dim>1</dim>
					<dim>16</dim>
					<dim>40</dim>
					<dim>40</dim>
				</port>
			</input>
			<output>
				<port id="1" precision="I64">
					<dim>4</dim>
				</port>
			</output>
		</layer>
		<layer id="159" name="10367" type="Convert" version="opset1">
			<data destination_type="f32"/>
			<input>
				<port id="0">
					<dim>4</dim>
				</port>
			</input>
			<output>
				<port id="1" precision="FP32">
					<dim>4</dim>
				</port>
			</output>
		</layer>
		<layer id="160" name="Resize_86/Div_" type="Divide" version="opset1">
			<input>
				<port id="0">
					<dim>4</dim>
				</port>
				<port id="1">
					<dim>4</dim>
				</port>
			</input>
			<output>
				<port id="2" precision="FP32">
					<dim>4</dim>
				</port>
			</output>
		</layer>
		<layer id="161" name="Resize_86/Add__input_port_1/value10366_const" type="Const" version="opset1">
			<data element_type="f32" offset="118312" shape="1" size="4"/>
			<output>
				<port id="1" precision="FP32">
					<dim>1</dim>
				</port>
			</output>
		</layer>
		<layer id="162" name="Resize_86/Add_" type="Add" version="opset1">
			<input>
				<port id="0">
					<dim>4</dim>
				</port>
				<port id="1">
					<dim>1</dim>
				</port>
			</input>
			<output>
				<port id="2" precision="FP32">
					<dim>4</dim>
				</port>
			</output>
		</layer>
		<layer id="163" name="Resize_86/StridedSlice_scales/Cast_162041_const" type="Const" version="opset1">
			<data element_type="i64" offset="118280" shape="1" size="8"/>
			<output>
				<port id="1" precision="I64">
					<dim>1</dim>
				</port>
			</output>
		</layer>
		<layer id="164" name="Resize_86/StridedSlice_scales/Cast_262043_const" type="Const" version="opset1">
			<data element_type="i64" offset="118304" shape="1" size="8"/>
			<output>
				<port id="1" precision="I64">
					<dim>1</dim>
				</port>
			</output>
		</layer>
		<layer id="165" name="Resize_86/StridedSlice_scales/Cast_362045_const" type="Const" version="opset1">
			<data element_type="i64" offset="118288" shape="1" size="8"/>
			<output>
				<port id="1" precision="I64">
					<dim>1</dim>
				</port>
			</output>
		</layer>
		<layer id="166" name="Resize_86/StridedSlice_scales" type="StridedSlice" version="opset1">
			<data begin_mask="0" ellipsis_mask="0" end_mask="0" new_axis_mask="0" shrink_axis_mask="0"/>
			<input>
				<port id="0">
					<dim>4</dim>
				</port>
				<port id="1">
					<dim>1</dim>
				</port>
				<port id="2">
					<dim>1</dim>
				</port>
				<port id="3">
					<dim>1</dim>
				</port>
			</input>
			<output>
				<port id="4" precision="FP32">
					<dim>2</dim>
				</port>
			</output>
		</layer>
		<layer id="167" name="Resize_86/axis_10362_const" type="Const" version="opset1">
			<data element_type="i64" offset="118316" shape="2" size="16"/>
			<output>
				<port id="1" precision="I64">
					<dim>2</dim>
				</port>
			</output>
		</layer>
		<layer id="168" name="Resize_86" type="Interpolate" version="opset4">
			<data antialias="0" coordinate_transformation_mode="align_corners" cube_coeff="-0.75" mode="linear_onnx" nearest_mode="floor" pads_begin="0,0,0,0" pads_end="0,0,0,0" shape_calculation_mode="sizes"/>
			<input>
				<port id="0">
					<dim>1</dim>
					<dim>16</dim>
					<dim>40</dim>
					<dim>40</dim>
				</port>
				<port id="1">
					<dim>2</dim>
				</port>
				<port id="2">
					<dim>2</dim>
				</port>
				<port id="3">
					<dim>2</dim>
				</port>
			</input>
			<output>
				<port id="4" precision="FP32">
					<dim>1</dim>
					<dim>16</dim>
					<dim>80</dim>
					<dim>80</dim>
				</port>
			</output>
		</layer>
		<layer id="169" name="Concat_87" type="Concat" version="opset1">
			<data axis="1"/>
			<input>
				<port id="0">
					<dim>1</dim>
					<dim>16</dim>
					<dim>80</dim>
					<dim>80</dim>
				</port>
				<port id="1">
					<dim>1</dim>
					<dim>16</dim>
					<dim>80</dim>
					<dim>80</dim>
				</port>
			</input>
			<output>
				<port id="2" precision="FP32">
					<dim>1</dim>
					<dim>32</dim>
					<dim>80</dim>
					<dim>80</dim>
				</port>
			</output>
		</layer>
		<layer id="170" name="2000/Output_0/Data__const" type="Const" version="opset1">
			<data element_type="f32" offset="155324" shape="16,32,3,3" size="18432"/>
			<output>
				<port id="1" precision="FP32">
					<dim>16</dim>
					<dim>32</dim>
					<dim>3</dim>
					<dim>3</dim>
				</port>
			</output>
		</layer>
		<layer id="171" name="Conv_88/WithoutBiases" type="Convolution" version="opset1">
			<data dilations="1,1" output_padding="0,0" pads_begin="1,1" pads_end="1,1" strides="1,1"/>
			<input>
				<port id="0">
					<dim>1</dim>
					<dim>32</dim>
					<dim>80</dim>
					<dim>80</dim>
				</port>
				<port id="1">
					<dim>16</dim>
					<dim>32</dim>
					<dim>3</dim>
					<dim>3</dim>
				</port>
			</input>
			<output>
				<port id="2" precision="FP32">
					<dim>1</dim>
					<dim>16</dim>
					<dim>80</dim>
					<dim>80</dim>
				</port>
			</output>
		</layer>
		<layer id="172" name="Conv_88/Dims1473125639/EltwiseUnsqueeze26163_const" type="Const" version="opset1">
			<data element_type="f32" offset="173756" shape="1,16,1,1" size="64"/>
			<output>
				<port id="1" precision="FP32">
					<dim>1</dim>
					<dim>16</dim>
					<dim>1</dim>
					<dim>1</dim>
				</port>
			</output>
		</layer>
		<layer id="173" name="Conv_88" type="Add" version="opset1">
			<input>
				<port id="0">
					<dim>1</dim>
					<dim>16</dim>
					<dim>80</dim>
					<dim>80</dim>
				</port>
				<port id="1">
					<dim>1</dim>
					<dim>16</dim>
					<dim>1</dim>
					<dim>1</dim>
				</port>
			</input>
			<output>
				<port id="2" precision="FP32">
					<dim>1</dim>
					<dim>16</dim>
					<dim>80</dim>
					<dim>80</dim>
				</port>
			</output>
		</layer>
		<layer id="174" name="Relu_89" type="ReLU" version="opset1">
			<input>
				<port id="0">
					<dim>1</dim>
					<dim>16</dim>
					<dim>80</dim>
					<dim>80</dim>
				</port>
			</input>
			<output>
				<port id="1" precision="FP32">
					<dim>1</dim>
					<dim>16</dim>
					<dim>80</dim>
					<dim>80</dim>
				</port>
			</output>
		</layer>
		<layer id="175" name="Shape_100" type="ShapeOf" version="opset3">
			<data output_type="i64"/>
			<input>
				<port id="0">
					<dim>1</dim>
					<dim>16</dim>
					<dim>80</dim>
					<dim>80</dim>
				</port>
			</input>
			<output>
				<port id="1" precision="I64">
					<dim>4</dim>
				</port>
			</output>
		</layer>
		<layer id="176" name="Slice_104/Cast_162225_const" type="Const" version="opset1">
			<data element_type="i64" offset="118272" shape="1" size="8"/>
			<output>
				<port id="1" precision="I64">
					<dim>1</dim>
				</port>
			</output>
		</layer>
		<layer id="177" name="Slice_104/Cast_262227_const" type="Const" version="opset1">
			<data element_type="i64" offset="118280" shape="1" size="8"/>
			<output>
				<port id="1" precision="I64">
					<dim>1</dim>
				</port>
			</output>
		</layer>
		<layer id="178" name="Slice_104/Cast_362229_const" type="Const" version="opset1">
			<data element_type="i64" offset="118288" shape="1" size="8"/>
			<output>
				<port id="1" precision="I64">
					<dim>1</dim>
				</port>
			</output>
		</layer>
		<layer id="179" name="Slice_104" type="StridedSlice" version="opset1">
			<data begin_mask="1" ellipsis_mask="0" end_mask="0" new_axis_mask="0" shrink_axis_mask="0"/>
			<input>
				<port id="0">
					<dim>4</dim>
				</port>
				<port id="1">
					<dim>1</dim>
				</port>
				<port id="2">
					<dim>1</dim>
				</port>
				<port id="3">
					<dim>1</dim>
				</port>
			</input>
			<output>
				<port id="4" precision="I64">
					<dim>2</dim>
				</port>
			</output>
		</layer>
		<layer id="180" name="Shape_90" type="ShapeOf" version="opset3">
			<data output_type="i64"/>
			<input>
				<port id="0">
					<dim>1</dim>
					<dim>16</dim>
					<dim>160</dim>
					<dim>160</dim>
				</port>
			</input>
			<output>
				<port id="1" precision="I64">
					<dim>4</dim>
				</port>
			</output>
		</layer>
		<layer id="181" name="Gather_921534/Cast_162247_const" type="Const" version="opset1">
			<data element_type="i32" offset="118296" shape="" size="4"/>
			<output>
				<port id="1" precision="I32"/>
			</output>
		</layer>
		<layer id="182" name="Gather_921534/Cast_262249_const" type="Const" version="opset1">
			<data element_type="i64" offset="118272" shape="" size="8"/>
			<output>
				<port id="1" precision="I64"/>
			</output>
		</layer>
		<layer id="183" name="Gather_921534" type="Gather" version="opset1">
			<input>
				<port id="0">
					<dim>4</dim>
				</port>
				<port id="1"/>
				<port id="2"/>
			</input>
			<output>
				<port id="3" precision="I64"/>
			</output>
		</layer>
		<layer id="184" name="Unsqueeze_96/Dims/Output_0/Data__const" type="Const" version="opset1">
			<data element_type="i64" offset="118272" shape="1" size="8"/>
			<output>
				<port id="1" precision="I64">
					<dim>1</dim>
				</port>
			</output>
		</layer>
		<layer id="185" name="Unsqueeze_96/Unsqueeze" type="Unsqueeze" version="opset1">
			<input>
				<port id="0"/>
				<port id="1">
					<dim>1</dim>
				</port>
			</input>
			<output>
				<port id="2" precision="I64">
					<dim>1</dim>
				</port>
			</output>
		</layer>
		<layer id="186" name="Shape_93" type="ShapeOf" version="opset3">
			<data output_type="i64"/>
			<input>
				<port id="0">
					<dim>1</dim>
					<dim>16</dim>
					<dim>160</dim>
					<dim>160</dim>
				</port>
			</input>
			<output>
				<port id="1" precision="I64">
					<dim>4</dim>
				</port>
			</output>
		</layer>
		<layer id="187" name="Gather_951510/Cast_162283_const" type="Const" version="opset1">
			<data element_type="i32" offset="118300" shape="" size="4"/>
			<output>
				<port id="1" precision="I32"/>
			</output>
		</layer>
		<layer id="188" name="Gather_951510/Cast_262285_const" type="Const" version="opset1">
			<data element_type="i64" offset="118272" shape="" size="8"/>
			<output>
				<port id="1" precision="I64"/>
			</output>
		</layer>
		<layer id="189" name="Gather_951510" type="Gather" version="opset1">
			<input>
				<port id="0">
					<dim>4</dim>
				</port>
				<port id="1"/>
				<port id="2"/>
			</input>
			<output>
				<port id="3" precision="I64"/>
			</output>
		</layer>
		<layer id="190" name="Unsqueeze_97/Dims/Output_0/Data__const" type="Const" version="opset1">
			<data element_type="i64" offset="118272" shape="1" size="8"/>
			<output>
				<port id="1" precision="I64">
					<dim>1</dim>
				</port>
			</output>
		</layer>
		<layer id="191" name="Unsqueeze_97/Unsqueeze" type="Unsqueeze" version="opset1">
			<input>
				<port id="0"/>
				<port id="1">
					<dim>1</dim>
				</port>
			</input>
			<output>
				<port id="2" precision="I64">
					<dim>1</dim>
				</port>
			</output>
		</layer>
		<layer id="192" name="Concat_98" type="Concat" version="opset1">
			<data axis="0"/>
			<input>
				<port id="0">
					<dim>1</dim>
				</port>
				<port id="1">
					<dim>1</dim>
				</port>
			</input>
			<output>
				<port id="2" precision="I64">
					<dim>2</dim>
				</port>
			</output>
		</layer>
		<layer id="193" name="Concat_106" type="Concat" version="opset1">
			<data axis="0"/>
			<input>
				<port id="0">
					<dim>2</dim>
				</port>
				<port id="1">
					<dim>2</dim>
				</port>
			</input>
			<output>
				<port id="2" precision="I64">
					<dim>4</dim>
				</port>
			</output>
		</layer>
		<layer id="194" name="Resize_108/StridedSlice_sizes/Cast_161761_const" type="Const" version="opset1">
			<data element_type="i64" offset="118280" shape="1" size="8"/>
			<output>
				<port id="1" precision="I64">
					<dim>1</dim>
				</port>
			</output>
		</layer>
		<layer id="195" name="Resize_108/StridedSlice_sizes/Cast_261763_const" type="Const" version="opset1">
			<data element_type="i64" offset="118304" shape="1" size="8"/>
			<output>
				<port id="1" precision="I64">
					<dim>1</dim>
				</port>
			</output>
		</layer>
		<layer id="196" name="Resize_108/StridedSlice_sizes/Cast_361765_const" type="Const" version="opset1">
			<data element_type="i64" offset="118288" shape="1" size="8"/>
			<output>
				<port id="1" precision="I64">
					<dim>1</dim>
				</port>
			</output>
		</layer>
		<layer id="197" name="Resize_108/StridedSlice_sizes" type="StridedSlice" version="opset1">
			<data begin_mask="0" ellipsis_mask="0" end_mask="0" new_axis_mask="0" shrink_axis_mask="0"/>
			<input>
				<port id="0">
					<dim>4</dim>
				</port>
				<port id="1">
					<dim>1</dim>
				</port>
				<port id="2">
					<dim>1</dim>
				</port>
				<port id="3">
					<dim>1</dim>
				</port>
			</input>
			<output>
				<port id="4" precision="I64">
					<dim>2</dim>
				</port>
			</output>
		</layer>
		<layer id="198" name="10400" type="Convert" version="opset1">
			<data destination_type="f32"/>
			<input>
				<port id="0">
					<dim>4</dim>
				</port>
			</input>
			<output>
				<port id="1" precision="FP32">
					<dim>4</dim>
				</port>
			</output>
		</layer>
		<layer id="199" name="Resize_108/ShapeOf_" type="ShapeOf" version="opset3">
			<data output_type="i64"/>
			<input>
				<port id="0">
					<dim>1</dim>
					<dim>16</dim>
					<dim>80</dim>
					<dim>80</dim>
				</port>
			</input>
			<output>
				<port id="1" precision="I64">
					<dim>4</dim>
				</port>
			</output>
		</layer>
		<layer id="200" name="10399" type="Convert" version="opset1">
			<data destination_type="f32"/>
			<input>
				<port id="0">
					<dim>4</dim>
				</port>
			</input>
			<output>
				<port id="1" precision="FP32">
					<dim>4</dim>
				</port>
			</output>
		</layer>
		<layer id="201" name="Resize_108/Div_" type="Divide" version="opset1">
			<input>
				<port id="0">
					<dim>4</dim>
				</port>
				<port id="1">
					<dim>4</dim>
				</port>
			</input>
			<output>
				<port id="2" precision="FP32">
					<dim>4</dim>
				</port>
			</output>
		</layer>
		<layer id="202" name="Resize_108/Add__input_port_1/value10398_const" type="Const" version="opset1">
			<data element_type="f32" offset="118312" shape="1" size="4"/>
			<output>
				<port id="1" precision="FP32">
					<dim>1</dim>
				</port>
			</output>
		</layer>
		<layer id="203" name="Resize_108/Add_" type="Add" version="opset1">
			<input>
				<port id="0">
					<dim>4</dim>
				</port>
				<port id="1">
					<dim>1</dim>
				</port>
			</input>
			<output>
				<port id="2" precision="FP32">
					<dim>4</dim>
				</port>
			</output>
		</layer>
		<layer id="204" name="Resize_108/StridedSlice_scales/Cast_162511_const" type="Const" version="opset1">
			<data element_type="i64" offset="118280" shape="1" size="8"/>
			<output>
				<port id="1" precision="I64">
					<dim>1</dim>
				</port>
			</output>
		</layer>
		<layer id="205" name="Resize_108/StridedSlice_scales/Cast_262513_const" type="Const" version="opset1">
			<data element_type="i64" offset="118304" shape="1" size="8"/>
			<output>
				<port id="1" precision="I64">
					<dim>1</dim>
				</port>
			</output>
		</layer>
		<layer id="206" name="Resize_108/StridedSlice_scales/Cast_362515_const" type="Const" version="opset1">
			<data element_type="i64" offset="118288" shape="1" size="8"/>
			<output>
				<port id="1" precision="I64">
					<dim>1</dim>
				</port>
			</output>
		</layer>
		<layer id="207" name="Resize_108/StridedSlice_scales" type="StridedSlice" version="opset1">
			<data begin_mask="0" ellipsis_mask="0" end_mask="0" new_axis_mask="0" shrink_axis_mask="0"/>
			<input>
				<port id="0">
					<dim>4</dim>
				</port>
				<port id="1">
					<dim>1</dim>
				</port>
				<port id="2">
					<dim>1</dim>
				</port>
				<port id="3">
					<dim>1</dim>
				</port>
			</input>
			<output>
				<port id="4" precision="FP32">
					<dim>2</dim>
				</port>
			</output>
		</layer>
		<layer id="208" name="Resize_108/axis_10394_const" type="Const" version="opset1">
			<data element_type="i64" offset="118316" shape="2" size="16"/>
			<output>
				<port id="1" precision="I64">
					<dim>2</dim>
				</port>
			</output>
		</layer>
		<layer id="209" name="Resize_108" type="Interpolate" version="opset4">
			<data antialias="0" coordinate_transformation_mode="align_corners" cube_coeff="-0.75" mode="linear_onnx" nearest_mode="floor" pads_begin="0,0,0,0" pads_end="0,0,0,0" shape_calculation_mode="sizes"/>
			<input>
				<port id="0">
					<dim>1</dim>
					<dim>16</dim>
					<dim>80</dim>
					<dim>80</dim>
				</port>
				<port id="1">
					<dim>2</dim>
				</port>
				<port id="2">
					<dim>2</dim>
				</port>
				<port id="3">
					<dim>2</dim>
				</port>
			</input>
			<output>
				<port id="4" precision="FP32">
					<dim>1</dim>
					<dim>16</dim>
					<dim>160</dim>
					<dim>160</dim>
				</port>
			</output>
		</layer>
		<layer id="210" name="Concat_109" type="Concat" version="opset1">
			<data axis="1"/>
			<input>
				<port id="0">
					<dim>1</dim>
					<dim>16</dim>
					<dim>160</dim>
					<dim>160</dim>
				</port>
				<port id="1">
					<dim>1</dim>
					<dim>16</dim>
					<dim>160</dim>
					<dim>160</dim>
				</port>
			</input>
			<output>
				<port id="2" precision="FP32">
					<dim>1</dim>
					<dim>32</dim>
					<dim>160</dim>
					<dim>160</dim>
				</port>
			</output>
		</layer>
		<layer id="211" name="2003/Output_0/Data__const" type="Const" version="opset1">
			<data element_type="f32" offset="173820" shape="16,32,3,3" size="18432"/>
			<output>
				<port id="1" precision="FP32">
					<dim>16</dim>
					<dim>32</dim>
					<dim>3</dim>
					<dim>3</dim>
				</port>
			</output>
		</layer>
		<layer id="212" name="Conv_110/WithoutBiases" type="Convolution" version="opset1">
			<data dilations="1,1" output_padding="0,0" pads_begin="1,1" pads_end="1,1" strides="1,1"/>
			<input>
				<port id="0">
					<dim>1</dim>
					<dim>32</dim>
					<dim>160</dim>
					<dim>160</dim>
				</port>
				<port id="1">
					<dim>16</dim>
					<dim>32</dim>
					<dim>3</dim>
					<dim>3</dim>
				</port>
			</input>
			<output>
				<port id="2" precision="FP32">
					<dim>1</dim>
					<dim>16</dim>
					<dim>160</dim>
					<dim>160</dim>
				</port>
			</output>
		</layer>
		<layer id="213" name="Conv_110/Dims1443125589/EltwiseUnsqueeze25963_const" type="Const" version="opset1">
			<data element_type="f32" offset="192252" shape="1,16,1,1" size="64"/>
			<output>
				<port id="1" precision="FP32">
					<dim>1</dim>
					<dim>16</dim>
					<dim>1</dim>
					<dim>1</dim>
				</port>
			</output>
		</layer>
		<layer id="214" name="Conv_110" type="Add" version="opset1">
			<input>
				<port id="0">
					<dim>1</dim>
					<dim>16</dim>
					<dim>160</dim>
					<dim>160</dim>
				</port>
				<port id="1">
					<dim>1</dim>
					<dim>16</dim>
					<dim>1</dim>
					<dim>1</dim>
				</port>
			</input>
			<output>
				<port id="2" precision="FP32">
					<dim>1</dim>
					<dim>16</dim>
					<dim>160</dim>
					<dim>160</dim>
				</port>
			</output>
		</layer>
		<layer id="215" name="Relu_111" type="ReLU" version="opset1">
			<input>
				<port id="0">
					<dim>1</dim>
					<dim>16</dim>
					<dim>160</dim>
					<dim>160</dim>
				</port>
			</input>
			<output>
				<port id="1" precision="FP32">
					<dim>1</dim>
					<dim>16</dim>
					<dim>160</dim>
					<dim>160</dim>
				</port>
			</output>
		</layer>
		<layer id="216" name="Shape_122" type="ShapeOf" version="opset3">
			<data output_type="i64"/>
			<input>
				<port id="0">
					<dim>1</dim>
					<dim>16</dim>
					<dim>160</dim>
					<dim>160</dim>
				</port>
			</input>
			<output>
				<port id="1" precision="I64">
					<dim>4</dim>
				</port>
			</output>
		</layer>
		<layer id="217" name="Slice_126/Cast_162637_const" type="Const" version="opset1">
			<data element_type="i64" offset="118272" shape="1" size="8"/>
			<output>
				<port id="1" precision="I64">
					<dim>1</dim>
				</port>
			</output>
		</layer>
		<layer id="218" name="Slice_126/Cast_262639_const" type="Const" version="opset1">
			<data element_type="i64" offset="118280" shape="1" size="8"/>
			<output>
				<port id="1" precision="I64">
					<dim>1</dim>
				</port>
			</output>
		</layer>
		<layer id="219" name="Slice_126/Cast_362641_const" type="Const" version="opset1">
			<data element_type="i64" offset="118288" shape="1" size="8"/>
			<output>
				<port id="1" precision="I64">
					<dim>1</dim>
				</port>
			</output>
		</layer>
		<layer id="220" name="Slice_126" type="StridedSlice" version="opset1">
			<data begin_mask="1" ellipsis_mask="0" end_mask="0" new_axis_mask="0" shrink_axis_mask="0"/>
			<input>
				<port id="0">
					<dim>4</dim>
				</port>
				<port id="1">
					<dim>1</dim>
				</port>
				<port id="2">
					<dim>1</dim>
				</port>
				<port id="3">
					<dim>1</dim>
				</port>
			</input>
			<output>
				<port id="4" precision="I64">
					<dim>2</dim>
				</port>
			</output>
		</layer>
		<layer id="221" name="Shape_112" type="ShapeOf" version="opset3">
			<data output_type="i64"/>
			<input>
				<port id="0">
					<dim>1</dim>
					<dim>16</dim>
					<dim>320</dim>
					<dim>320</dim>
				</port>
			</input>
			<output>
				<port id="1" precision="I64">
					<dim>4</dim>
				</port>
			</output>
		</layer>
		<layer id="222" name="Gather_1141568/Cast_161715_const" type="Const" version="opset1">
			<data element_type="i32" offset="118296" shape="" size="4"/>
			<output>
				<port id="1" precision="I32"/>
			</output>
		</layer>
		<layer id="223" name="Gather_1141568/Cast_261717_const" type="Const" version="opset1">
			<data element_type="i64" offset="118272" shape="" size="8"/>
			<output>
				<port id="1" precision="I64"/>
			</output>
		</layer>
		<layer id="224" name="Gather_1141568" type="Gather" version="opset1">
			<input>
				<port id="0">
					<dim>4</dim>
				</port>
				<port id="1"/>
				<port id="2"/>
			</input>
			<output>
				<port id="3" precision="I64"/>
			</output>
		</layer>
		<layer id="225" name="Unsqueeze_118/Dims/Output_0/Data__const" type="Const" version="opset1">
			<data element_type="i64" offset="118272" shape="1" size="8"/>
			<output>
				<port id="1" precision="I64">
					<dim>1</dim>
				</port>
			</output>
		</layer>
		<layer id="226" name="Unsqueeze_118/Unsqueeze" type="Unsqueeze" version="opset1">
			<input>
				<port id="0"/>
				<port id="1">
					<dim>1</dim>
				</port>
			</input>
			<output>
				<port id="2" precision="I64">
					<dim>1</dim>
				</port>
			</output>
		</layer>
		<layer id="227" name="Shape_115" type="ShapeOf" version="opset3">
			<data output_type="i64"/>
			<input>
				<port id="0">
					<dim>1</dim>
					<dim>16</dim>
					<dim>320</dim>
					<dim>320</dim>
				</port>
			</input>
			<output>
				<port id="1" precision="I64">
					<dim>4</dim>
				</port>
			</output>
		</layer>
		<layer id="228" name="Gather_1171576/Cast_161685_const" type="Const" version="opset1">
			<data element_type="i32" offset="118300" shape="" size="4"/>
			<output>
				<port id="1" precision="I32"/>
			</output>
		</layer>
		<layer id="229" name="Gather_1171576/Cast_261687_const" type="Const" version="opset1">
			<data element_type="i64" offset="118272" shape="" size="8"/>
			<output>
				<port id="1" precision="I64"/>
			</output>
		</layer>
		<layer id="230" name="Gather_1171576" type="Gather" version="opset1">
			<input>
				<port id="0">
					<dim>4</dim>
				</port>
				<port id="1"/>
				<port id="2"/>
			</input>
			<output>
				<port id="3" precision="I64"/>
			</output>
		</layer>
		<layer id="231" name="Unsqueeze_119/Dims/Output_0/Data__const" type="Const" version="opset1">
			<data element_type="i64" offset="118272" shape="1" size="8"/>
			<output>
				<port id="1" precision="I64">
					<dim>1</dim>
				</port>
			</output>
		</layer>
		<layer id="232" name="Unsqueeze_119/Unsqueeze" type="Unsqueeze" version="opset1">
			<input>
				<port id="0"/>
				<port id="1">
					<dim>1</dim>
				</port>
			</input>
			<output>
				<port id="2" precision="I64">
					<dim>1</dim>
				</port>
			</output>
		</layer>
		<layer id="233" name="Concat_120" type="Concat" version="opset1">
			<data axis="0"/>
			<input>
				<port id="0">
					<dim>1</dim>
				</port>
				<port id="1">
					<dim>1</dim>
				</port>
			</input>
			<output>
				<port id="2" precision="I64">
					<dim>2</dim>
				</port>
			</output>
		</layer>
		<layer id="234" name="Concat_128" type="Concat" version="opset1">
			<data axis="0"/>
			<input>
				<port id="0">
					<dim>2</dim>
				</port>
				<port id="1">
					<dim>2</dim>
				</port>
			</input>
			<output>
				<port id="2" precision="I64">
					<dim>4</dim>
				</port>
			</output>
		</layer>
		<layer id="235" name="Resize_130/StridedSlice_sizes/Cast_161855_const" type="Const" version="opset1">
			<data element_type="i64" offset="118280" shape="1" size="8"/>
			<output>
				<port id="1" precision="I64">
					<dim>1</dim>
				</port>
			</output>
		</layer>
		<layer id="236" name="Resize_130/StridedSlice_sizes/Cast_261857_const" type="Const" version="opset1">
			<data element_type="i64" offset="118304" shape="1" size="8"/>
			<output>
				<port id="1" precision="I64">
					<dim>1</dim>
				</port>
			</output>
		</layer>
		<layer id="237" name="Resize_130/StridedSlice_sizes/Cast_361859_const" type="Const" version="opset1">
			<data element_type="i64" offset="118288" shape="1" size="8"/>
			<output>
				<port id="1" precision="I64">
					<dim>1</dim>
				</port>
			</output>
		</layer>
		<layer id="238" name="Resize_130/StridedSlice_sizes" type="StridedSlice" version="opset1">
			<data begin_mask="0" ellipsis_mask="0" end_mask="0" new_axis_mask="0" shrink_axis_mask="0"/>
			<input>
				<port id="0">
					<dim>4</dim>
				</port>
				<port id="1">
					<dim>1</dim>
				</port>
				<port id="2">
					<dim>1</dim>
				</port>
				<port id="3">
					<dim>1</dim>
				</port>
			</input>
			<output>
				<port id="4" precision="I64">
					<dim>2</dim>
				</port>
			</output>
		</layer>
		<layer id="239" name="10432" type="Convert" version="opset1">
			<data destination_type="f32"/>
			<input>
				<port id="0">
					<dim>4</dim>
				</port>
			</input>
			<output>
				<port id="1" precision="FP32">
					<dim>4</dim>
				</port>
			</output>
		</layer>
		<layer id="240" name="Resize_130/ShapeOf_" type="ShapeOf" version="opset3">
			<data output_type="i64"/>
			<input>
				<port id="0">
					<dim>1</dim>
					<dim>16</dim>
					<dim>160</dim>
					<dim>160</dim>
				</port>
			</input>
			<output>
				<port id="1" precision="I64">
					<dim>4</dim>
				</port>
			</output>
		</layer>
		<layer id="241" name="10431" type="Convert" version="opset1">
			<data destination_type="f32"/>
			<input>
				<port id="0">
					<dim>4</dim>
				</port>
			</input>
			<output>
				<port id="1" precision="FP32">
					<dim>4</dim>
				</port>
			</output>
		</layer>
		<layer id="242" name="Resize_130/Div_" type="Divide" version="opset1">
			<input>
				<port id="0">
					<dim>4</dim>
				</port>
				<port id="1">
					<dim>4</dim>
				</port>
			</input>
			<output>
				<port id="2" precision="FP32">
					<dim>4</dim>
				</port>
			</output>
		</layer>
		<layer id="243" name="Resize_130/Add__input_port_1/value10430_const" type="Const" version="opset1">
			<data element_type="f32" offset="118312" shape="1" size="4"/>
			<output>
				<port id="1" precision="FP32">
					<dim>1</dim>
				</port>
			</output>
		</layer>
		<layer id="244" name="Resize_130/Add_" type="Add" version="opset1">
			<input>
				<port id="0">
					<dim>4</dim>
				</port>
				<port id="1">
					<dim>1</dim>
				</port>
			</input>
			<output>
				<port id="2" precision="FP32">
					<dim>4</dim>
				</port>
			</output>
		</layer>
		<layer id="245" name="Resize_130/StridedSlice_scales/Cast_162287_const" type="Const" version="opset1">
			<data element_type="i64" offset="118280" shape="1" size="8"/>
			<output>
				<port id="1" precision="I64">
					<dim>1</dim>
				</port>
			</output>
		</layer>
		<layer id="246" name="Resize_130/StridedSlice_scales/Cast_262289_const" type="Const" version="opset1">
			<data element_type="i64" offset="118304" shape="1" size="8"/>
			<output>
				<port id="1" precision="I64">
					<dim>1</dim>
				</port>
			</output>
		</layer>
		<layer id="247" name="Resize_130/StridedSlice_scales/Cast_362291_const" type="Const" version="opset1">
			<data element_type="i64" offset="118288" shape="1" size="8"/>
			<output>
				<port id="1" precision="I64">
					<dim>1</dim>
				</port>
			</output>
		</layer>
		<layer id="248" name="Resize_130/StridedSlice_scales" type="StridedSlice" version="opset1">
			<data begin_mask="0" ellipsis_mask="0" end_mask="0" new_axis_mask="0" shrink_axis_mask="0"/>
			<input>
				<port id="0">
					<dim>4</dim>
				</port>
				<port id="1">
					<dim>1</dim>
				</port>
				<port id="2">
					<dim>1</dim>
				</port>
				<port id="3">
					<dim>1</dim>
				</port>
			</input>
			<output>
				<port id="4" precision="FP32">
					<dim>2</dim>
				</port>
			</output>
		</layer>
		<layer id="249" name="Resize_130/axis_10426_const" type="Const" version="opset1">
			<data element_type="i64" offset="118316" shape="2" size="16"/>
			<output>
				<port id="1" precision="I64">
					<dim>2</dim>
				</port>
			</output>
		</layer>
		<layer id="250" name="Resize_130" type="Interpolate" version="opset4">
			<data antialias="0" coordinate_transformation_mode="align_corners" cube_coeff="-0.75" mode="linear_onnx" nearest_mode="floor" pads_begin="0,0,0,0" pads_end="0,0,0,0" shape_calculation_mode="sizes"/>
			<input>
				<port id="0">
					<dim>1</dim>
					<dim>16</dim>
					<dim>160</dim>
					<dim>160</dim>
				</port>
				<port id="1">
					<dim>2</dim>
				</port>
				<port id="2">
					<dim>2</dim>
				</port>
				<port id="3">
					<dim>2</dim>
				</port>
			</input>
			<output>
				<port id="4" precision="FP32">
					<dim>1</dim>
					<dim>16</dim>
					<dim>320</dim>
					<dim>320</dim>
				</port>
			</output>
		</layer>
		<layer id="251" name="Concat_131" type="Concat" version="opset1">
			<data axis="1"/>
			<input>
				<port id="0">
					<dim>1</dim>
					<dim>16</dim>
					<dim>320</dim>
					<dim>320</dim>
				</port>
				<port id="1">
					<dim>1</dim>
					<dim>16</dim>
					<dim>320</dim>
					<dim>320</dim>
				</port>
			</input>
			<output>
				<port id="2" precision="FP32">
					<dim>1</dim>
					<dim>32</dim>
					<dim>320</dim>
					<dim>320</dim>
				</port>
			</output>
		</layer>
		<layer id="252" name="2006/Output_0/Data__const" type="Const" version="opset1">
			<data element_type="f32" offset="192316" shape="64,32,3,3" size="73728"/>
			<output>
				<port id="1" precision="FP32">
					<dim>64</dim>
					<dim>32</dim>
					<dim>3</dim>
					<dim>3</dim>
				</port>
			</output>
		</layer>
		<layer id="253" name="Conv_132/WithoutBiases" type="Convolution" version="opset1">
			<data dilations="1,1" output_padding="0,0" pads_begin="1,1" pads_end="1,1" strides="1,1"/>
			<input>
				<port id="0">
					<dim>1</dim>
					<dim>32</dim>
					<dim>320</dim>
					<dim>320</dim>
				</port>
				<port id="1">
					<dim>64</dim>
					<dim>32</dim>
					<dim>3</dim>
					<dim>3</dim>
				</port>
			</input>
			<output>
				<port id="2" precision="FP32">
					<dim>1</dim>
					<dim>64</dim>
					<dim>320</dim>
					<dim>320</dim>
				</port>
			</output>
		</layer>
		<layer id="254" name="Conv_132/Dims1473725640/EltwiseUnsqueeze26167_const" type="Const" version="opset1">
			<data element_type="f32" offset="266044" shape="1,64,1,1" size="256"/>
			<output>
				<port id="1" precision="FP32">
					<dim>1</dim>
					<dim>64</dim>
					<dim>1</dim>
					<dim>1</dim>
				</port>
			</output>
		</layer>
		<layer id="255" name="Conv_132" type="Add" version="opset1">
			<input>
				<port id="0">
					<dim>1</dim>
					<dim>64</dim>
					<dim>320</dim>
					<dim>320</dim>
				</port>
				<port id="1">
					<dim>1</dim>
					<dim>64</dim>
					<dim>1</dim>
					<dim>1</dim>
				</port>
			</input>
			<output>
				<port id="2" precision="FP32">
					<dim>1</dim>
					<dim>64</dim>
					<dim>320</dim>
					<dim>320</dim>
				</port>
			</output>
		</layer>
		<layer id="256" name="Relu_133" type="ReLU" version="opset1">
			<input>
				<port id="0">
					<dim>1</dim>
					<dim>64</dim>
					<dim>320</dim>
					<dim>320</dim>
				</port>
			</input>
			<output>
				<port id="1" precision="FP32">
					<dim>1</dim>
					<dim>64</dim>
					<dim>320</dim>
					<dim>320</dim>
				</port>
			</output>
		</layer>
		<layer id="257" name="Add_134" type="Add" version="opset1">
			<input>
				<port id="0">
					<dim>1</dim>
					<dim>64</dim>
					<dim>320</dim>
					<dim>320</dim>
				</port>
				<port id="1">
					<dim>1</dim>
					<dim>64</dim>
					<dim>320</dim>
					<dim>320</dim>
				</port>
			</input>
			<output>
				<port id="2" precision="FP32">
					<dim>1</dim>
					<dim>64</dim>
					<dim>320</dim>
					<dim>320</dim>
				</port>
			</output>
		</layer>
		<layer id="258" name="MaxPool_135" type="MaxPool" version="opset1">
			<data kernel="2,2" pads_begin="0,0" pads_end="0,0" rounding_type="ceil" strides="2,2"/>
			<input>
				<port id="0">
					<dim>1</dim>
					<dim>64</dim>
					<dim>320</dim>
					<dim>320</dim>
				</port>
			</input>
			<output>
				<port id="1" precision="FP32">
					<dim>1</dim>
					<dim>64</dim>
					<dim>160</dim>
					<dim>160</dim>
				</port>
			</output>
		</layer>
		<layer id="259" name="2009/Output_0/Data__const" type="Const" version="opset1">
			<data element_type="f32" offset="266300" shape="64,64,3,3" size="147456"/>
			<output>
				<port id="1" precision="FP32">
					<dim>64</dim>
					<dim>64</dim>
					<dim>3</dim>
					<dim>3</dim>
				</port>
			</output>
		</layer>
		<layer id="260" name="Conv_136/WithoutBiases" type="Convolution" version="opset1">
			<data dilations="1,1" output_padding="0,0" pads_begin="1,1" pads_end="1,1" strides="1,1"/>
			<input>
				<port id="0">
					<dim>1</dim>
					<dim>64</dim>
					<dim>160</dim>
					<dim>160</dim>
				</port>
				<port id="1">
					<dim>64</dim>
					<dim>64</dim>
					<dim>3</dim>
					<dim>3</dim>
				</port>
			</input>
			<output>
				<port id="2" precision="FP32">
					<dim>1</dim>
					<dim>64</dim>
					<dim>160</dim>
					<dim>160</dim>
				</port>
			</output>
		</layer>
		<layer id="261" name="Conv_136/Dims1426325561/EltwiseUnsqueeze25851_const" type="Const" version="opset1">
			<data element_type="f32" offset="413756" shape="1,64,1,1" size="256"/>
			<output>
				<port id="1" precision="FP32">
					<dim>1</dim>
					<dim>64</dim>
					<dim>1</dim>
					<dim>1</dim>
				</port>
			</output>
		</layer>
		<layer id="262" name="Conv_136" type="Add" version="opset1">
			<input>
				<port id="0">
					<dim>1</dim>
					<dim>64</dim>
					<dim>160</dim>
					<dim>160</dim>
				</port>
				<port id="1">
					<dim>1</dim>
					<dim>64</dim>
					<dim>1</dim>
					<dim>1</dim>
				</port>
			</input>
			<output>
				<port id="2" precision="FP32">
					<dim>1</dim>
					<dim>64</dim>
					<dim>160</dim>
					<dim>160</dim>
				</port>
			</output>
		</layer>
		<layer id="263" name="Relu_137" type="ReLU" version="opset1">
			<input>
				<port id="0">
					<dim>1</dim>
					<dim>64</dim>
					<dim>160</dim>
					<dim>160</dim>
				</port>
			</input>
			<output>
				<port id="1" precision="FP32">
					<dim>1</dim>
					<dim>64</dim>
					<dim>160</dim>
					<dim>160</dim>
				</port>
			</output>
		</layer>
		<layer id="264" name="2012/Output_0/Data__const" type="Const" version="opset1">
			<data element_type="f32" offset="414012" shape="16,64,3,3" size="36864"/>
			<output>
				<port id="1" precision="FP32">
					<dim>16</dim>
					<dim>64</dim>
					<dim>3</dim>
					<dim>3</dim>
				</port>
			</output>
		</layer>
		<layer id="265" name="Conv_138/WithoutBiases" type="Convolution" version="opset1">
			<data dilations="1,1" output_padding="0,0" pads_begin="1,1" pads_end="1,1" strides="1,1"/>
			<input>
				<port id="0">
					<dim>1</dim>
					<dim>64</dim>
					<dim>160</dim>
					<dim>160</dim>
				</port>
				<port id="1">
					<dim>16</dim>
					<dim>64</dim>
					<dim>3</dim>
					<dim>3</dim>
				</port>
			</input>
			<output>
				<port id="2" precision="FP32">
					<dim>1</dim>
					<dim>16</dim>
					<dim>160</dim>
					<dim>160</dim>
				</port>
			</output>
		</layer>
		<layer id="266" name="Conv_138/Dims1440125584/EltwiseUnsqueeze25943_const" type="Const" version="opset1">
			<data element_type="f32" offset="450876" shape="1,16,1,1" size="64"/>
			<output>
				<port id="1" precision="FP32">
					<dim>1</dim>
					<dim>16</dim>
					<dim>1</dim>
					<dim>1</dim>
				</port>
			</output>
		</layer>
		<layer id="267" name="Conv_138" type="Add" version="opset1">
			<input>
				<port id="0">
					<dim>1</dim>
					<dim>16</dim>
					<dim>160</dim>
					<dim>160</dim>
				</port>
				<port id="1">
					<dim>1</dim>
					<dim>16</dim>
					<dim>1</dim>
					<dim>1</dim>
				</port>
			</input>
			<output>
				<port id="2" precision="FP32">
					<dim>1</dim>
					<dim>16</dim>
					<dim>160</dim>
					<dim>160</dim>
				</port>
			</output>
		</layer>
		<layer id="268" name="Relu_139" type="ReLU" version="opset1">
			<input>
				<port id="0">
					<dim>1</dim>
					<dim>16</dim>
					<dim>160</dim>
					<dim>160</dim>
				</port>
			</input>
			<output>
				<port id="1" precision="FP32">
					<dim>1</dim>
					<dim>16</dim>
					<dim>160</dim>
					<dim>160</dim>
				</port>
			</output>
		</layer>
		<layer id="269" name="MaxPool_140" type="MaxPool" version="opset1">
			<data kernel="2,2" pads_begin="0,0" pads_end="0,0" rounding_type="ceil" strides="2,2"/>
			<input>
				<port id="0">
					<dim>1</dim>
					<dim>16</dim>
					<dim>160</dim>
					<dim>160</dim>
				</port>
			</input>
			<output>
				<port id="1" precision="FP32">
					<dim>1</dim>
					<dim>16</dim>
					<dim>80</dim>
					<dim>80</dim>
				</port>
			</output>
		</layer>
		<layer id="270" name="2015/Output_0/Data__const" type="Const" version="opset1">
			<data element_type="f32" offset="450940" shape="16,16,3,3" size="9216"/>
			<output>
				<port id="1" precision="FP32">
					<dim>16</dim>
					<dim>16</dim>
					<dim>3</dim>
					<dim>3</dim>
				</port>
			</output>
		</layer>
		<layer id="271" name="Conv_141/WithoutBiases" type="Convolution" version="opset1">
			<data dilations="1,1" output_padding="0,0" pads_begin="1,1" pads_end="1,1" strides="1,1"/>
			<input>
				<port id="0">
					<dim>1</dim>
					<dim>16</dim>
					<dim>80</dim>
					<dim>80</dim>
				</port>
				<port id="1">
					<dim>16</dim>
					<dim>16</dim>
					<dim>3</dim>
					<dim>3</dim>
				</port>
			</input>
			<output>
				<port id="2" precision="FP32">
					<dim>1</dim>
					<dim>16</dim>
					<dim>80</dim>
					<dim>80</dim>
				</port>
			</output>
		</layer>
		<layer id="272" name="Conv_141/Dims1426925562/EltwiseUnsqueeze25855_const" type="Const" version="opset1">
			<data element_type="f32" offset="460156" shape="1,16,1,1" size="64"/>
			<output>
				<port id="1" precision="FP32">
					<dim>1</dim>
					<dim>16</dim>
					<dim>1</dim>
					<dim>1</dim>
				</port>
			</output>
		</layer>
		<layer id="273" name="Conv_141" type="Add" version="opset1">
			<input>
				<port id="0">
					<dim>1</dim>
					<dim>16</dim>
					<dim>80</dim>
					<dim>80</dim>
				</port>
				<port id="1">
					<dim>1</dim>
					<dim>16</dim>
					<dim>1</dim>
					<dim>1</dim>
				</port>
			</input>
			<output>
				<port id="2" precision="FP32">
					<dim>1</dim>
					<dim>16</dim>
					<dim>80</dim>
					<dim>80</dim>
				</port>
			</output>
		</layer>
		<layer id="274" name="Relu_142" type="ReLU" version="opset1">
			<input>
				<port id="0">
					<dim>1</dim>
					<dim>16</dim>
					<dim>80</dim>
					<dim>80</dim>
				</port>
			</input>
			<output>
				<port id="1" precision="FP32">
					<dim>1</dim>
					<dim>16</dim>
					<dim>80</dim>
					<dim>80</dim>
				</port>
			</output>
		</layer>
		<layer id="275" name="MaxPool_143" type="MaxPool" version="opset1">
			<data kernel="2,2" pads_begin="0,0" pads_end="0,0" rounding_type="ceil" strides="2,2"/>
			<input>
				<port id="0">
					<dim>1</dim>
					<dim>16</dim>
					<dim>80</dim>
					<dim>80</dim>
				</port>
			</input>
			<output>
				<port id="1" precision="FP32">
					<dim>1</dim>
					<dim>16</dim>
					<dim>40</dim>
					<dim>40</dim>
				</port>
			</output>
		</layer>
		<layer id="276" name="2018/Output_0/Data__const" type="Const" version="opset1">
			<data element_type="f32" offset="460220" shape="16,16,3,3" size="9216"/>
			<output>
				<port id="1" precision="FP32">
					<dim>16</dim>
					<dim>16</dim>
					<dim>3</dim>
					<dim>3</dim>
				</port>
			</output>
		</layer>
		<layer id="277" name="Conv_144/WithoutBiases" type="Convolution" version="opset1">
			<data dilations="1,1" output_padding="0,0" pads_begin="1,1" pads_end="1,1" strides="1,1"/>
			<input>
				<port id="0">
					<dim>1</dim>
					<dim>16</dim>
					<dim>40</dim>
					<dim>40</dim>
				</port>
				<port id="1">
					<dim>16</dim>
					<dim>16</dim>
					<dim>3</dim>
					<dim>3</dim>
				</port>
			</input>
			<output>
				<port id="2" precision="FP32">
					<dim>1</dim>
					<dim>16</dim>
					<dim>40</dim>
					<dim>40</dim>
				</port>
			</output>
		</layer>
		<layer id="278" name="Conv_144/Dims1464725625/EltwiseUnsqueeze26107_const" type="Const" version="opset1">
			<data element_type="f32" offset="469436" shape="1,16,1,1" size="64"/>
			<output>
				<port id="1" precision="FP32">
					<dim>1</dim>
					<dim>16</dim>
					<dim>1</dim>
					<dim>1</dim>
				</port>
			</output>
		</layer>
		<layer id="279" name="Conv_144" type="Add" version="opset1">
			<input>
				<port id="0">
					<dim>1</dim>
					<dim>16</dim>
					<dim>40</dim>
					<dim>40</dim>
				</port>
				<port id="1">
					<dim>1</dim>
					<dim>16</dim>
					<dim>1</dim>
					<dim>1</dim>
				</port>
			</input>
			<output>
				<port id="2" precision="FP32">
					<dim>1</dim>
					<dim>16</dim>
					<dim>40</dim>
					<dim>40</dim>
				</port>
			</output>
		</layer>
		<layer id="280" name="Relu_145" type="ReLU" version="opset1">
			<input>
				<port id="0">
					<dim>1</dim>
					<dim>16</dim>
					<dim>40</dim>
					<dim>40</dim>
				</port>
			</input>
			<output>
				<port id="1" precision="FP32">
					<dim>1</dim>
					<dim>16</dim>
					<dim>40</dim>
					<dim>40</dim>
				</port>
			</output>
		</layer>
		<layer id="281" name="MaxPool_146" type="MaxPool" version="opset1">
			<data kernel="2,2" pads_begin="0,0" pads_end="0,0" rounding_type="ceil" strides="2,2"/>
			<input>
				<port id="0">
					<dim>1</dim>
					<dim>16</dim>
					<dim>40</dim>
					<dim>40</dim>
				</port>
			</input>
			<output>
				<port id="1" precision="FP32">
					<dim>1</dim>
					<dim>16</dim>
					<dim>20</dim>
					<dim>20</dim>
				</port>
			</output>
		</layer>
		<layer id="282" name="2021/Output_0/Data__const" type="Const" version="opset1">
			<data element_type="f32" offset="469500" shape="16,16,3,3" size="9216"/>
			<output>
				<port id="1" precision="FP32">
					<dim>16</dim>
					<dim>16</dim>
					<dim>3</dim>
					<dim>3</dim>
				</port>
			</output>
		</layer>
		<layer id="283" name="Conv_147/WithoutBiases" type="Convolution" version="opset1">
			<data dilations="1,1" output_padding="0,0" pads_begin="1,1" pads_end="1,1" strides="1,1"/>
			<input>
				<port id="0">
					<dim>1</dim>
					<dim>16</dim>
					<dim>20</dim>
					<dim>20</dim>
				</port>
				<port id="1">
					<dim>16</dim>
					<dim>16</dim>
					<dim>3</dim>
					<dim>3</dim>
				</port>
			</input>
			<output>
				<port id="2" precision="FP32">
					<dim>1</dim>
					<dim>16</dim>
					<dim>20</dim>
					<dim>20</dim>
				</port>
			</output>
		</layer>
		<layer id="284" name="Conv_147/Dims1455725610/EltwiseUnsqueeze26047_const" type="Const" version="opset1">
			<data element_type="f32" offset="478716" shape="1,16,1,1" size="64"/>
			<output>
				<port id="1" precision="FP32">
					<dim>1</dim>
					<dim>16</dim>
					<dim>1</dim>
					<dim>1</dim>
				</port>
			</output>
		</layer>
		<layer id="285" name="Conv_147" type="Add" version="opset1">
			<input>
				<port id="0">
					<dim>1</dim>
					<dim>16</dim>
					<dim>20</dim>
					<dim>20</dim>
				</port>
				<port id="1">
					<dim>1</dim>
					<dim>16</dim>
					<dim>1</dim>
					<dim>1</dim>
				</port>
			</input>
			<output>
				<port id="2" precision="FP32">
					<dim>1</dim>
					<dim>16</dim>
					<dim>20</dim>
					<dim>20</dim>
				</port>
			</output>
		</layer>
		<layer id="286" name="Relu_148" type="ReLU" version="opset1">
			<input>
				<port id="0">
					<dim>1</dim>
					<dim>16</dim>
					<dim>20</dim>
					<dim>20</dim>
				</port>
			</input>
			<output>
				<port id="1" precision="FP32">
					<dim>1</dim>
					<dim>16</dim>
					<dim>20</dim>
					<dim>20</dim>
				</port>
			</output>
		</layer>
		<layer id="287" name="MaxPool_149" type="MaxPool" version="opset1">
			<data kernel="2,2" pads_begin="0,0" pads_end="0,0" rounding_type="ceil" strides="2,2"/>
			<input>
				<port id="0">
					<dim>1</dim>
					<dim>16</dim>
					<dim>20</dim>
					<dim>20</dim>
				</port>
			</input>
			<output>
				<port id="1" precision="FP32">
					<dim>1</dim>
					<dim>16</dim>
					<dim>10</dim>
					<dim>10</dim>
				</port>
			</output>
		</layer>
		<layer id="288" name="2024/Output_0/Data__const" type="Const" version="opset1">
			<data element_type="f32" offset="478780" shape="16,16,3,3" size="9216"/>
			<output>
				<port id="1" precision="FP32">
					<dim>16</dim>
					<dim>16</dim>
					<dim>3</dim>
					<dim>3</dim>
				</port>
			</output>
		</layer>
		<layer id="289" name="Conv_150/WithoutBiases" type="Convolution" version="opset1">
			<data dilations="1,1" output_padding="0,0" pads_begin="1,1" pads_end="1,1" strides="1,1"/>
			<input>
				<port id="0">
					<dim>1</dim>
					<dim>16</dim>
					<dim>10</dim>
					<dim>10</dim>
				</port>
				<port id="1">
					<dim>16</dim>
					<dim>16</dim>
					<dim>3</dim>
					<dim>3</dim>
				</port>
			</input>
			<output>
				<port id="2" precision="FP32">
					<dim>1</dim>
					<dim>16</dim>
					<dim>10</dim>
					<dim>10</dim>
				</port>
			</output>
		</layer>
		<layer id="290" name="Conv_150/Dims1480925652/EltwiseUnsqueeze26215_const" type="Const" version="opset1">
			<data element_type="f32" offset="487996" shape="1,16,1,1" size="64"/>
			<output>
				<port id="1" precision="FP32">
					<dim>1</dim>
					<dim>16</dim>
					<dim>1</dim>
					<dim>1</dim>
				</port>
			</output>
		</layer>
		<layer id="291" name="Conv_150" type="Add" version="opset1">
			<input>
				<port id="0">
					<dim>1</dim>
					<dim>16</dim>
					<dim>10</dim>
					<dim>10</dim>
				</port>
				<port id="1">
					<dim>1</dim>
					<dim>16</dim>
					<dim>1</dim>
					<dim>1</dim>
				</port>
			</input>
			<output>
				<port id="2" precision="FP32">
					<dim>1</dim>
					<dim>16</dim>
					<dim>10</dim>
					<dim>10</dim>
				</port>
			</output>
		</layer>
		<layer id="292" name="Relu_151" type="ReLU" version="opset1">
			<input>
				<port id="0">
					<dim>1</dim>
					<dim>16</dim>
					<dim>10</dim>
					<dim>10</dim>
				</port>
			</input>
			<output>
				<port id="1" precision="FP32">
					<dim>1</dim>
					<dim>16</dim>
					<dim>10</dim>
					<dim>10</dim>
				</port>
			</output>
		</layer>
		<layer id="293" name="2027/Output_0/Data__const" type="Const" version="opset1">
			<data element_type="f32" offset="488060" shape="16,16,3,3" size="9216"/>
			<output>
				<port id="1" precision="FP32">
					<dim>16</dim>
					<dim>16</dim>
					<dim>3</dim>
					<dim>3</dim>
				</port>
			</output>
		</layer>
		<layer id="294" name="Conv_152/WithoutBiases" type="Convolution" version="opset1">
			<data dilations="2,2" output_padding="0,0" pads_begin="2,2" pads_end="2,2" strides="1,1"/>
			<input>
				<port id="0">
					<dim>1</dim>
					<dim>16</dim>
					<dim>10</dim>
					<dim>10</dim>
				</port>
				<port id="1">
					<dim>16</dim>
					<dim>16</dim>
					<dim>3</dim>
					<dim>3</dim>
				</port>
			</input>
			<output>
				<port id="2" precision="FP32">
					<dim>1</dim>
					<dim>16</dim>
					<dim>10</dim>
					<dim>10</dim>
				</port>
			</output>
		</layer>
		<layer id="295" name="Conv_152/Dims1482725655/EltwiseUnsqueeze26227_const" type="Const" version="opset1">
			<data element_type="f32" offset="497276" shape="1,16,1,1" size="64"/>
			<output>
				<port id="1" precision="FP32">
					<dim>1</dim>
					<dim>16</dim>
					<dim>1</dim>
					<dim>1</dim>
				</port>
			</output>
		</layer>
		<layer id="296" name="Conv_152" type="Add" version="opset1">
			<input>
				<port id="0">
					<dim>1</dim>
					<dim>16</dim>
					<dim>10</dim>
					<dim>10</dim>
				</port>
				<port id="1">
					<dim>1</dim>
					<dim>16</dim>
					<dim>1</dim>
					<dim>1</dim>
				</port>
			</input>
			<output>
				<port id="2" precision="FP32">
					<dim>1</dim>
					<dim>16</dim>
					<dim>10</dim>
					<dim>10</dim>
				</port>
			</output>
		</layer>
		<layer id="297" name="Relu_153" type="ReLU" version="opset1">
			<input>
				<port id="0">
					<dim>1</dim>
					<dim>16</dim>
					<dim>10</dim>
					<dim>10</dim>
				</port>
			</input>
			<output>
				<port id="1" precision="FP32">
					<dim>1</dim>
					<dim>16</dim>
					<dim>10</dim>
					<dim>10</dim>
				</port>
			</output>
		</layer>
		<layer id="298" name="Concat_154" type="Concat" version="opset1">
			<data axis="1"/>
			<input>
				<port id="0">
					<dim>1</dim>
					<dim>16</dim>
					<dim>10</dim>
					<dim>10</dim>
				</port>
				<port id="1">
					<dim>1</dim>
					<dim>16</dim>
					<dim>10</dim>
					<dim>10</dim>
				</port>
			</input>
			<output>
				<port id="2" precision="FP32">
					<dim>1</dim>
					<dim>32</dim>
					<dim>10</dim>
					<dim>10</dim>
				</port>
			</output>
		</layer>
		<layer id="299" name="2030/Output_0/Data__const" type="Const" version="opset1">
			<data element_type="f32" offset="497340" shape="16,32,3,3" size="18432"/>
			<output>
				<port id="1" precision="FP32">
					<dim>16</dim>
					<dim>32</dim>
					<dim>3</dim>
					<dim>3</dim>
				</port>
			</output>
		</layer>
		<layer id="300" name="Conv_155/WithoutBiases" type="Convolution" version="opset1">
			<data dilations="1,1" output_padding="0,0" pads_begin="1,1" pads_end="1,1" strides="1,1"/>
			<input>
				<port id="0">
					<dim>1</dim>
					<dim>32</dim>
					<dim>10</dim>
					<dim>10</dim>
				</port>
				<port id="1">
					<dim>16</dim>
					<dim>32</dim>
					<dim>3</dim>
					<dim>3</dim>
				</port>
			</input>
			<output>
				<port id="2" precision="FP32">
					<dim>1</dim>
					<dim>16</dim>
					<dim>10</dim>
					<dim>10</dim>
				</port>
			</output>
		</layer>
		<layer id="301" name="Conv_155/Dims1423925557/EltwiseUnsqueeze25835_const" type="Const" version="opset1">
			<data element_type="f32" offset="515772" shape="1,16,1,1" size="64"/>
			<output>
				<port id="1" precision="FP32">
					<dim>1</dim>
					<dim>16</dim>
					<dim>1</dim>
					<dim>1</dim>
				</port>
			</output>
		</layer>
		<layer id="302" name="Conv_155" type="Add" version="opset1">
			<input>
				<port id="0">
					<dim>1</dim>
					<dim>16</dim>
					<dim>10</dim>
					<dim>10</dim>
				</port>
				<port id="1">
					<dim>1</dim>
					<dim>16</dim>
					<dim>1</dim>
					<dim>1</dim>
				</port>
			</input>
			<output>
				<port id="2" precision="FP32">
					<dim>1</dim>
					<dim>16</dim>
					<dim>10</dim>
					<dim>10</dim>
				</port>
			</output>
		</layer>
		<layer id="303" name="Relu_156" type="ReLU" version="opset1">
			<input>
				<port id="0">
					<dim>1</dim>
					<dim>16</dim>
					<dim>10</dim>
					<dim>10</dim>
				</port>
			</input>
			<output>
				<port id="1" precision="FP32">
					<dim>1</dim>
					<dim>16</dim>
					<dim>10</dim>
					<dim>10</dim>
				</port>
			</output>
		</layer>
		<layer id="304" name="Shape_167" type="ShapeOf" version="opset3">
			<data output_type="i64"/>
			<input>
				<port id="0">
					<dim>1</dim>
					<dim>16</dim>
					<dim>10</dim>
					<dim>10</dim>
				</port>
			</input>
			<output>
				<port id="1" precision="I64">
					<dim>4</dim>
				</port>
			</output>
		</layer>
		<layer id="305" name="Slice_171/Cast_162065_const" type="Const" version="opset1">
			<data element_type="i64" offset="118272" shape="1" size="8"/>
			<output>
				<port id="1" precision="I64">
					<dim>1</dim>
				</port>
			</output>
		</layer>
		<layer id="306" name="Slice_171/Cast_262067_const" type="Const" version="opset1">
			<data element_type="i64" offset="118280" shape="1" size="8"/>
			<output>
				<port id="1" precision="I64">
					<dim>1</dim>
				</port>
			</output>
		</layer>
		<layer id="307" name="Slice_171/Cast_362069_const" type="Const" version="opset1">
			<data element_type="i64" offset="118288" shape="1" size="8"/>
			<output>
				<port id="1" precision="I64">
					<dim>1</dim>
				</port>
			</output>
		</layer>
		<layer id="308" name="Slice_171" type="StridedSlice" version="opset1">
			<data begin_mask="1" ellipsis_mask="0" end_mask="0" new_axis_mask="0" shrink_axis_mask="0"/>
			<input>
				<port id="0">
					<dim>4</dim>
				</port>
				<port id="1">
					<dim>1</dim>
				</port>
				<port id="2">
					<dim>1</dim>
				</port>
				<port id="3">
					<dim>1</dim>
				</port>
			</input>
			<output>
				<port id="4" precision="I64">
					<dim>2</dim>
				</port>
			</output>
		</layer>
		<layer id="309" name="Shape_157" type="ShapeOf" version="opset3">
			<data output_type="i64"/>
			<input>
				<port id="0">
					<dim>1</dim>
					<dim>16</dim>
					<dim>20</dim>
					<dim>20</dim>
				</port>
			</input>
			<output>
				<port id="1" precision="I64">
					<dim>4</dim>
				</port>
			</output>
		</layer>
		<layer id="310" name="Gather_1591530/Cast_162153_const" type="Const" version="opset1">
			<data element_type="i32" offset="118296" shape="" size="4"/>
			<output>
				<port id="1" precision="I32"/>
			</output>
		</layer>
		<layer id="311" name="Gather_1591530/Cast_262155_const" type="Const" version="opset1">
			<data element_type="i64" offset="118272" shape="" size="8"/>
			<output>
				<port id="1" precision="I64"/>
			</output>
		</layer>
		<layer id="312" name="Gather_1591530" type="Gather" version="opset1">
			<input>
				<port id="0">
					<dim>4</dim>
				</port>
				<port id="1"/>
				<port id="2"/>
			</input>
			<output>
				<port id="3" precision="I64"/>
			</output>
		</layer>
		<layer id="313" name="Unsqueeze_163/Dims/Output_0/Data__const" type="Const" version="opset1">
			<data element_type="i64" offset="118272" shape="1" size="8"/>
			<output>
				<port id="1" precision="I64">
					<dim>1</dim>
				</port>
			</output>
		</layer>
		<layer id="314" name="Unsqueeze_163/Unsqueeze" type="Unsqueeze" version="opset1">
			<input>
				<port id="0"/>
				<port id="1">
					<dim>1</dim>
				</port>
			</input>
			<output>
				<port id="2" precision="I64">
					<dim>1</dim>
				</port>
			</output>
		</layer>
		<layer id="315" name="Shape_160" type="ShapeOf" version="opset3">
			<data output_type="i64"/>
			<input>
				<port id="0">
					<dim>1</dim>
					<dim>16</dim>
					<dim>20</dim>
					<dim>20</dim>
				</port>
			</input>
			<output>
				<port id="1" precision="I64">
					<dim>4</dim>
				</port>
			</output>
		</layer>
		<layer id="316" name="Gather_1621548/Cast_162385_const" type="Const" version="opset1">
			<data element_type="i32" offset="118300" shape="" size="4"/>
			<output>
				<port id="1" precision="I32"/>
			</output>
		</layer>
		<layer id="317" name="Gather_1621548/Cast_262387_const" type="Const" version="opset1">
			<data element_type="i64" offset="118272" shape="" size="8"/>
			<output>
				<port id="1" precision="I64"/>
			</output>
		</layer>
		<layer id="318" name="Gather_1621548" type="Gather" version="opset1">
			<input>
				<port id="0">
					<dim>4</dim>
				</port>
				<port id="1"/>
				<port id="2"/>
			</input>
			<output>
				<port id="3" precision="I64"/>
			</output>
		</layer>
		<layer id="319" name="Unsqueeze_164/Dims/Output_0/Data__const" type="Const" version="opset1">
			<data element_type="i64" offset="118272" shape="1" size="8"/>
			<output>
				<port id="1" precision="I64">
					<dim>1</dim>
				</port>
			</output>
		</layer>
		<layer id="320" name="Unsqueeze_164/Unsqueeze" type="Unsqueeze" version="opset1">
			<input>
				<port id="0"/>
				<port id="1">
					<dim>1</dim>
				</port>
			</input>
			<output>
				<port id="2" precision="I64">
					<dim>1</dim>
				</port>
			</output>
		</layer>
		<layer id="321" name="Concat_165" type="Concat" version="opset1">
			<data axis="0"/>
			<input>
				<port id="0">
					<dim>1</dim>
				</port>
				<port id="1">
					<dim>1</dim>
				</port>
			</input>
			<output>
				<port id="2" precision="I64">
					<dim>2</dim>
				</port>
			</output>
		</layer>
		<layer id="322" name="Concat_173" type="Concat" version="opset1">
			<data axis="0"/>
			<input>
				<port id="0">
					<dim>2</dim>
				</port>
				<port id="1">
					<dim>2</dim>
				</port>
			</input>
			<output>
				<port id="2" precision="I64">
					<dim>4</dim>
				</port>
			</output>
		</layer>
		<layer id="323" name="Resize_175/StridedSlice_sizes/Cast_162263_const" type="Const" version="opset1">
			<data element_type="i64" offset="118280" shape="1" size="8"/>
			<output>
				<port id="1" precision="I64">
					<dim>1</dim>
				</port>
			</output>
		</layer>
		<layer id="324" name="Resize_175/StridedSlice_sizes/Cast_262265_const" type="Const" version="opset1">
			<data element_type="i64" offset="118304" shape="1" size="8"/>
			<output>
				<port id="1" precision="I64">
					<dim>1</dim>
				</port>
			</output>
		</layer>
		<layer id="325" name="Resize_175/StridedSlice_sizes/Cast_362267_const" type="Const" version="opset1">
			<data element_type="i64" offset="118288" shape="1" size="8"/>
			<output>
				<port id="1" precision="I64">
					<dim>1</dim>
				</port>
			</output>
		</layer>
		<layer id="326" name="Resize_175/StridedSlice_sizes" type="StridedSlice" version="opset1">
			<data begin_mask="0" ellipsis_mask="0" end_mask="0" new_axis_mask="0" shrink_axis_mask="0"/>
			<input>
				<port id="0">
					<dim>4</dim>
				</port>
				<port id="1">
					<dim>1</dim>
				</port>
				<port id="2">
					<dim>1</dim>
				</port>
				<port id="3">
					<dim>1</dim>
				</port>
			</input>
			<output>
				<port id="4" precision="I64">
					<dim>2</dim>
				</port>
			</output>
		</layer>
		<layer id="327" name="10464" type="Convert" version="opset1">
			<data destination_type="f32"/>
			<input>
				<port id="0">
					<dim>4</dim>
				</port>
			</input>
			<output>
				<port id="1" precision="FP32">
					<dim>4</dim>
				</port>
			</output>
		</layer>
		<layer id="328" name="Resize_175/ShapeOf_" type="ShapeOf" version="opset3">
			<data output_type="i64"/>
			<input>
				<port id="0">
					<dim>1</dim>
					<dim>16</dim>
					<dim>10</dim>
					<dim>10</dim>
				</port>
			</input>
			<output>
				<port id="1" precision="I64">
					<dim>4</dim>
				</port>
			</output>
		</layer>
		<layer id="329" name="10463" type="Convert" version="opset1">
			<data destination_type="f32"/>
			<input>
				<port id="0">
					<dim>4</dim>
				</port>
			</input>
			<output>
				<port id="1" precision="FP32">
					<dim>4</dim>
				</port>
			</output>
		</layer>
		<layer id="330" name="Resize_175/Div_" type="Divide" version="opset1">
			<input>
				<port id="0">
					<dim>4</dim>
				</port>
				<port id="1">
					<dim>4</dim>
				</port>
			</input>
			<output>
				<port id="2" precision="FP32">
					<dim>4</dim>
				</port>
			</output>
		</layer>
		<layer id="331" name="Resize_175/Add__input_port_1/value10462_const" type="Const" version="opset1">
			<data element_type="f32" offset="118312" shape="1" size="4"/>
			<output>
				<port id="1" precision="FP32">
					<dim>1</dim>
				</port>
			</output>
		</layer>
		<layer id="332" name="Resize_175/Add_" type="Add" version="opset1">
			<input>
				<port id="0">
					<dim>4</dim>
				</port>
				<port id="1">
					<dim>1</dim>
				</port>
			</input>
			<output>
				<port id="2" precision="FP32">
					<dim>4</dim>
				</port>
			</output>
		</layer>
		<layer id="333" name="Resize_175/StridedSlice_scales/Cast_162083_const" type="Const" version="opset1">
			<data element_type="i64" offset="118280" shape="1" size="8"/>
			<output>
				<port id="1" precision="I64">
					<dim>1</dim>
				</port>
			</output>
		</layer>
		<layer id="334" name="Resize_175/StridedSlice_scales/Cast_262085_const" type="Const" version="opset1">
			<data element_type="i64" offset="118304" shape="1" size="8"/>
			<output>
				<port id="1" precision="I64">
					<dim>1</dim>
				</port>
			</output>
		</layer>
		<layer id="335" name="Resize_175/StridedSlice_scales/Cast_362087_const" type="Const" version="opset1">
			<data element_type="i64" offset="118288" shape="1" size="8"/>
			<output>
				<port id="1" precision="I64">
					<dim>1</dim>
				</port>
			</output>
		</layer>
		<layer id="336" name="Resize_175/StridedSlice_scales" type="StridedSlice" version="opset1">
			<data begin_mask="0" ellipsis_mask="0" end_mask="0" new_axis_mask="0" shrink_axis_mask="0"/>
			<input>
				<port id="0">
					<dim>4</dim>
				</port>
				<port id="1">
					<dim>1</dim>
				</port>
				<port id="2">
					<dim>1</dim>
				</port>
				<port id="3">
					<dim>1</dim>
				</port>
			</input>
			<output>
				<port id="4" precision="FP32">
					<dim>2</dim>
				</port>
			</output>
		</layer>
		<layer id="337" name="Resize_175/axis_10458_const" type="Const" version="opset1">
			<data element_type="i64" offset="118316" shape="2" size="16"/>
			<output>
				<port id="1" precision="I64">
					<dim>2</dim>
				</port>
			</output>
		</layer>
		<layer id="338" name="Resize_175" type="Interpolate" version="opset4">
			<data antialias="0" coordinate_transformation_mode="align_corners" cube_coeff="-0.75" mode="linear_onnx" nearest_mode="floor" pads_begin="0,0,0,0" pads_end="0,0,0,0" shape_calculation_mode="sizes"/>
			<input>
				<port id="0">
					<dim>1</dim>
					<dim>16</dim>
					<dim>10</dim>
					<dim>10</dim>
				</port>
				<port id="1">
					<dim>2</dim>
				</port>
				<port id="2">
					<dim>2</dim>
				</port>
				<port id="3">
					<dim>2</dim>
				</port>
			</input>
			<output>
				<port id="4" precision="FP32">
					<dim>1</dim>
					<dim>16</dim>
					<dim>20</dim>
					<dim>20</dim>
				</port>
			</output>
		</layer>
		<layer id="339" name="Concat_176" type="Concat" version="opset1">
			<data axis="1"/>
			<input>
				<port id="0">
					<dim>1</dim>
					<dim>16</dim>
					<dim>20</dim>
					<dim>20</dim>
				</port>
				<port id="1">
					<dim>1</dim>
					<dim>16</dim>
					<dim>20</dim>
					<dim>20</dim>
				</port>
			</input>
			<output>
				<port id="2" precision="FP32">
					<dim>1</dim>
					<dim>32</dim>
					<dim>20</dim>
					<dim>20</dim>
				</port>
			</output>
		</layer>
		<layer id="340" name="2033/Output_0/Data__const" type="Const" version="opset1">
			<data element_type="f32" offset="515836" shape="16,32,3,3" size="18432"/>
			<output>
				<port id="1" precision="FP32">
					<dim>16</dim>
					<dim>32</dim>
					<dim>3</dim>
					<dim>3</dim>
				</port>
			</output>
		</layer>
		<layer id="341" name="Conv_177/WithoutBiases" type="Convolution" version="opset1">
			<data dilations="1,1" output_padding="0,0" pads_begin="1,1" pads_end="1,1" strides="1,1"/>
			<input>
				<port id="0">
					<dim>1</dim>
					<dim>32</dim>
					<dim>20</dim>
					<dim>20</dim>
				</port>
				<port id="1">
					<dim>16</dim>
					<dim>32</dim>
					<dim>3</dim>
					<dim>3</dim>
				</port>
			</input>
			<output>
				<port id="2" precision="FP32">
					<dim>1</dim>
					<dim>16</dim>
					<dim>20</dim>
					<dim>20</dim>
				</port>
			</output>
		</layer>
		<layer id="342" name="Conv_177/Dims1436525578/EltwiseUnsqueeze25919_const" type="Const" version="opset1">
			<data element_type="f32" offset="534268" shape="1,16,1,1" size="64"/>
			<output>
				<port id="1" precision="FP32">
					<dim>1</dim>
					<dim>16</dim>
					<dim>1</dim>
					<dim>1</dim>
				</port>
			</output>
		</layer>
		<layer id="343" name="Conv_177" type="Add" version="opset1">
			<input>
				<port id="0">
					<dim>1</dim>
					<dim>16</dim>
					<dim>20</dim>
					<dim>20</dim>
				</port>
				<port id="1">
					<dim>1</dim>
					<dim>16</dim>
					<dim>1</dim>
					<dim>1</dim>
				</port>
			</input>
			<output>
				<port id="2" precision="FP32">
					<dim>1</dim>
					<dim>16</dim>
					<dim>20</dim>
					<dim>20</dim>
				</port>
			</output>
		</layer>
		<layer id="344" name="Relu_178" type="ReLU" version="opset1">
			<input>
				<port id="0">
					<dim>1</dim>
					<dim>16</dim>
					<dim>20</dim>
					<dim>20</dim>
				</port>
			</input>
			<output>
				<port id="1" precision="FP32">
					<dim>1</dim>
					<dim>16</dim>
					<dim>20</dim>
					<dim>20</dim>
				</port>
			</output>
		</layer>
		<layer id="345" name="Shape_189" type="ShapeOf" version="opset3">
			<data output_type="i64"/>
			<input>
				<port id="0">
					<dim>1</dim>
					<dim>16</dim>
					<dim>20</dim>
					<dim>20</dim>
				</port>
			</input>
			<output>
				<port id="1" precision="I64">
					<dim>4</dim>
				</port>
			</output>
		</layer>
		<layer id="346" name="Slice_193/Cast_161737_const" type="Const" version="opset1">
			<data element_type="i64" offset="118272" shape="1" size="8"/>
			<output>
				<port id="1" precision="I64">
					<dim>1</dim>
				</port>
			</output>
		</layer>
		<layer id="347" name="Slice_193/Cast_261739_const" type="Const" version="opset1">
			<data element_type="i64" offset="118280" shape="1" size="8"/>
			<output>
				<port id="1" precision="I64">
					<dim>1</dim>
				</port>
			</output>
		</layer>
		<layer id="348" name="Slice_193/Cast_361741_const" type="Const" version="opset1">
			<data element_type="i64" offset="118288" shape="1" size="8"/>
			<output>
				<port id="1" precision="I64">
					<dim>1</dim>
				</port>
			</output>
		</layer>
		<layer id="349" name="Slice_193" type="StridedSlice" version="opset1">
			<data begin_mask="1" ellipsis_mask="0" end_mask="0" new_axis_mask="0" shrink_axis_mask="0"/>
			<input>
				<port id="0">
					<dim>4</dim>
				</port>
				<port id="1">
					<dim>1</dim>
				</port>
				<port id="2">
					<dim>1</dim>
				</port>
				<port id="3">
					<dim>1</dim>
				</port>
			</input>
			<output>
				<port id="4" precision="I64">
					<dim>2</dim>
				</port>
			</output>
		</layer>
		<layer id="350" name="Shape_179" type="ShapeOf" version="opset3">
			<data output_type="i64"/>
			<input>
				<port id="0">
					<dim>1</dim>
					<dim>16</dim>
					<dim>40</dim>
					<dim>40</dim>
				</port>
			</input>
			<output>
				<port id="1" precision="I64">
					<dim>4</dim>
				</port>
			</output>
		</layer>
		<layer id="351" name="Gather_1811540/Cast_162603_const" type="Const" version="opset1">
			<data element_type="i32" offset="118296" shape="" size="4"/>
			<output>
				<port id="1" precision="I32"/>
			</output>
		</layer>
		<layer id="352" name="Gather_1811540/Cast_262605_const" type="Const" version="opset1">
			<data element_type="i64" offset="118272" shape="" size="8"/>
			<output>
				<port id="1" precision="I64"/>
			</output>
		</layer>
		<layer id="353" name="Gather_1811540" type="Gather" version="opset1">
			<input>
				<port id="0">
					<dim>4</dim>
				</port>
				<port id="1"/>
				<port id="2"/>
			</input>
			<output>
				<port id="3" precision="I64"/>
			</output>
		</layer>
		<layer id="354" name="Unsqueeze_185/Dims/Output_0/Data__const" type="Const" version="opset1">
			<data element_type="i64" offset="118272" shape="1" size="8"/>
			<output>
				<port id="1" precision="I64">
					<dim>1</dim>
				</port>
			</output>
		</layer>
		<layer id="355" name="Unsqueeze_185/Unsqueeze" type="Unsqueeze" version="opset1">
			<input>
				<port id="0"/>
				<port id="1">
					<dim>1</dim>
				</port>
			</input>
			<output>
				<port id="2" precision="I64">
					<dim>1</dim>
				</port>
			</output>
		</layer>
		<layer id="356" name="Shape_182" type="ShapeOf" version="opset3">
			<data output_type="i64"/>
			<input>
				<port id="0">
					<dim>1</dim>
					<dim>16</dim>
					<dim>40</dim>
					<dim>40</dim>
				</port>
			</input>
			<output>
				<port id="1" precision="I64">
					<dim>4</dim>
				</port>
			</output>
		</layer>
		<layer id="357" name="Gather_1841570/Cast_162205_const" type="Const" version="opset1">
			<data element_type="i32" offset="118300" shape="" size="4"/>
			<output>
				<port id="1" precision="I32"/>
			</output>
		</layer>
		<layer id="358" name="Gather_1841570/Cast_262207_const" type="Const" version="opset1">
			<data element_type="i64" offset="118272" shape="" size="8"/>
			<output>
				<port id="1" precision="I64"/>
			</output>
		</layer>
		<layer id="359" name="Gather_1841570" type="Gather" version="opset1">
			<input>
				<port id="0">
					<dim>4</dim>
				</port>
				<port id="1"/>
				<port id="2"/>
			</input>
			<output>
				<port id="3" precision="I64"/>
			</output>
		</layer>
		<layer id="360" name="Unsqueeze_186/Dims/Output_0/Data__const" type="Const" version="opset1">
			<data element_type="i64" offset="118272" shape="1" size="8"/>
			<output>
				<port id="1" precision="I64">
					<dim>1</dim>
				</port>
			</output>
		</layer>
		<layer id="361" name="Unsqueeze_186/Unsqueeze" type="Unsqueeze" version="opset1">
			<input>
				<port id="0"/>
				<port id="1">
					<dim>1</dim>
				</port>
			</input>
			<output>
				<port id="2" precision="I64">
					<dim>1</dim>
				</port>
			</output>
		</layer>
		<layer id="362" name="Concat_187" type="Concat" version="opset1">
			<data axis="0"/>
			<input>
				<port id="0">
					<dim>1</dim>
				</port>
				<port id="1">
					<dim>1</dim>
				</port>
			</input>
			<output>
				<port id="2" precision="I64">
					<dim>2</dim>
				</port>
			</output>
		</layer>
		<layer id="363" name="Concat_195" type="Concat" version="opset1">
			<data axis="0"/>
			<input>
				<port id="0">
					<dim>2</dim>
				</port>
				<port id="1">
					<dim>2</dim>
				</port>
			</input>
			<output>
				<port id="2" precision="I64">
					<dim>4</dim>
				</port>
			</output>
		</layer>
		<layer id="364" name="Resize_197/StridedSlice_sizes/Cast_161991_const" type="Const" version="opset1">
			<data element_type="i64" offset="118280" shape="1" size="8"/>
			<output>
				<port id="1" precision="I64">
					<dim>1</dim>
				</port>
			</output>
		</layer>
		<layer id="365" name="Resize_197/StridedSlice_sizes/Cast_261993_const" type="Const" version="opset1">
			<data element_type="i64" offset="118304" shape="1" size="8"/>
			<output>
				<port id="1" precision="I64">
					<dim>1</dim>
				</port>
			</output>
		</layer>
		<layer id="366" name="Resize_197/StridedSlice_sizes/Cast_361995_const" type="Const" version="opset1">
			<data element_type="i64" offset="118288" shape="1" size="8"/>
			<output>
				<port id="1" precision="I64">
					<dim>1</dim>
				</port>
			</output>
		</layer>
		<layer id="367" name="Resize_197/StridedSlice_sizes" type="StridedSlice" version="opset1">
			<data begin_mask="0" ellipsis_mask="0" end_mask="0" new_axis_mask="0" shrink_axis_mask="0"/>
			<input>
				<port id="0">
					<dim>4</dim>
				</port>
				<port id="1">
					<dim>1</dim>
				</port>
				<port id="2">
					<dim>1</dim>
				</port>
				<port id="3">
					<dim>1</dim>
				</port>
			</input>
			<output>
				<port id="4" precision="I64">
					<dim>2</dim>
				</port>
			</output>
		</layer>
		<layer id="368" name="10496" type="Convert" version="opset1">
			<data destination_type="f32"/>
			<input>
				<port id="0">
					<dim>4</dim>
				</port>
			</input>
			<output>
				<port id="1" precision="FP32">
					<dim>4</dim>
				</port>
			</output>
		</layer>
		<layer id="369" name="Resize_197/ShapeOf_" type="ShapeOf" version="opset3">
			<data output_type="i64"/>
			<input>
				<port id="0">
					<dim>1</dim>
					<dim>16</dim>
					<dim>20</dim>
					<dim>20</dim>
				</port>
			</input>
			<output>
				<port id="1" precision="I64">
					<dim>4</dim>
				</port>
			</output>
		</layer>
		<layer id="370" name="10495" type="Convert" version="opset1">
			<data destination_type="f32"/>
			<input>
				<port id="0">
					<dim>4</dim>
				</port>
			</input>
			<output>
				<port id="1" precision="FP32">
					<dim>4</dim>
				</port>
			</output>
		</layer>
		<layer id="371" name="Resize_197/Div_" type="Divide" version="opset1">
			<input>
				<port id="0">
					<dim>4</dim>
				</port>
				<port id="1">
					<dim>4</dim>
				</port>
			</input>
			<output>
				<port id="2" precision="FP32">
					<dim>4</dim>
				</port>
			</output>
		</layer>
		<layer id="372" name="Resize_197/Add__input_port_1/value10494_const" type="Const" version="opset1">
			<data element_type="f32" offset="118312" shape="1" size="4"/>
			<output>
				<port id="1" precision="FP32">
					<dim>1</dim>
				</port>
			</output>
		</layer>
		<layer id="373" name="Resize_197/Add_" type="Add" version="opset1">
			<input>
				<port id="0">
					<dim>4</dim>
				</port>
				<port id="1">
					<dim>1</dim>
				</port>
			</input>
			<output>
				<port id="2" precision="FP32">
					<dim>4</dim>
				</port>
			</output>
		</layer>
		<layer id="374" name="Resize_197/StridedSlice_scales/Cast_162485_const" type="Const" version="opset1">
			<data element_type="i64" offset="118280" shape="1" size="8"/>
			<output>
				<port id="1" precision="I64">
					<dim>1</dim>
				</port>
			</output>
		</layer>
		<layer id="375" name="Resize_197/StridedSlice_scales/Cast_262487_const" type="Const" version="opset1">
			<data element_type="i64" offset="118304" shape="1" size="8"/>
			<output>
				<port id="1" precision="I64">
					<dim>1</dim>
				</port>
			</output>
		</layer>
		<layer id="376" name="Resize_197/StridedSlice_scales/Cast_362489_const" type="Const" version="opset1">
			<data element_type="i64" offset="118288" shape="1" size="8"/>
			<output>
				<port id="1" precision="I64">
					<dim>1</dim>
				</port>
			</output>
		</layer>
		<layer id="377" name="Resize_197/StridedSlice_scales" type="StridedSlice" version="opset1">
			<data begin_mask="0" ellipsis_mask="0" end_mask="0" new_axis_mask="0" shrink_axis_mask="0"/>
			<input>
				<port id="0">
					<dim>4</dim>
				</port>
				<port id="1">
					<dim>1</dim>
				</port>
				<port id="2">
					<dim>1</dim>
				</port>
				<port id="3">
					<dim>1</dim>
				</port>
			</input>
			<output>
				<port id="4" precision="FP32">
					<dim>2</dim>
				</port>
			</output>
		</layer>
		<layer id="378" name="Resize_197/axis_10490_const" type="Const" version="opset1">
			<data element_type="i64" offset="118316" shape="2" size="16"/>
			<output>
				<port id="1" precision="I64">
					<dim>2</dim>
				</port>
			</output>
		</layer>
		<layer id="379" name="Resize_197" type="Interpolate" version="opset4">
			<data antialias="0" coordinate_transformation_mode="align_corners" cube_coeff="-0.75" mode="linear_onnx" nearest_mode="floor" pads_begin="0,0,0,0" pads_end="0,0,0,0" shape_calculation_mode="sizes"/>
			<input>
				<port id="0">
					<dim>1</dim>
					<dim>16</dim>
					<dim>20</dim>
					<dim>20</dim>
				</port>
				<port id="1">
					<dim>2</dim>
				</port>
				<port id="2">
					<dim>2</dim>
				</port>
				<port id="3">
					<dim>2</dim>
				</port>
			</input>
			<output>
				<port id="4" precision="FP32">
					<dim>1</dim>
					<dim>16</dim>
					<dim>40</dim>
					<dim>40</dim>
				</port>
			</output>
		</layer>
		<layer id="380" name="Concat_198" type="Concat" version="opset1">
			<data axis="1"/>
			<input>
				<port id="0">
					<dim>1</dim>
					<dim>16</dim>
					<dim>40</dim>
					<dim>40</dim>
				</port>
				<port id="1">
					<dim>1</dim>
					<dim>16</dim>
					<dim>40</dim>
					<dim>40</dim>
				</port>
			</input>
			<output>
				<port id="2" precision="FP32">
					<dim>1</dim>
					<dim>32</dim>
					<dim>40</dim>
					<dim>40</dim>
				</port>
			</output>
		</layer>
		<layer id="381" name="2036/Output_0/Data__const" type="Const" version="opset1">
			<data element_type="f32" offset="534332" shape="16,32,3,3" size="18432"/>
			<output>
				<port id="1" precision="FP32">
					<dim>16</dim>
					<dim>32</dim>
					<dim>3</dim>
					<dim>3</dim>
				</port>
			</output>
		</layer>
		<layer id="382" name="Conv_199/WithoutBiases" type="Convolution" version="opset1">
			<data dilations="1,1" output_padding="0,0" pads_begin="1,1" pads_end="1,1" strides="1,1"/>
			<input>
				<port id="0">
					<dim>1</dim>
					<dim>32</dim>
					<dim>40</dim>
					<dim>40</dim>
				</port>
				<port id="1">
					<dim>16</dim>
					<dim>32</dim>
					<dim>3</dim>
					<dim>3</dim>
				</port>
			</input>
			<output>
				<port id="2" precision="FP32">
					<dim>1</dim>
					<dim>16</dim>
					<dim>40</dim>
					<dim>40</dim>
				</port>
			</output>
		</layer>
		<layer id="383" name="Conv_199/Dims1425725560/EltwiseUnsqueeze25847_const" type="Const" version="opset1">
			<data element_type="f32" offset="552764" shape="1,16,1,1" size="64"/>
			<output>
				<port id="1" precision="FP32">
					<dim>1</dim>
					<dim>16</dim>
					<dim>1</dim>
					<dim>1</dim>
				</port>
			</output>
		</layer>
		<layer id="384" name="Conv_199" type="Add" version="opset1">
			<input>
				<port id="0">
					<dim>1</dim>
					<dim>16</dim>
					<dim>40</dim>
					<dim>40</dim>
				</port>
				<port id="1">
					<dim>1</dim>
					<dim>16</dim>
					<dim>1</dim>
					<dim>1</dim>
				</port>
			</input>
			<output>
				<port id="2" precision="FP32">
					<dim>1</dim>
					<dim>16</dim>
					<dim>40</dim>
					<dim>40</dim>
				</port>
			</output>
		</layer>
		<layer id="385" name="Relu_200" type="ReLU" version="opset1">
			<input>
				<port id="0">
					<dim>1</dim>
					<dim>16</dim>
					<dim>40</dim>
					<dim>40</dim>
				</port>
			</input>
			<output>
				<port id="1" precision="FP32">
					<dim>1</dim>
					<dim>16</dim>
					<dim>40</dim>
					<dim>40</dim>
				</port>
			</output>
		</layer>
		<layer id="386" name="Shape_211" type="ShapeOf" version="opset3">
			<data output_type="i64"/>
			<input>
				<port id="0">
					<dim>1</dim>
					<dim>16</dim>
					<dim>40</dim>
					<dim>40</dim>
				</port>
			</input>
			<output>
				<port id="1" precision="I64">
					<dim>4</dim>
				</port>
			</output>
		</layer>
		<layer id="387" name="Slice_215/Cast_162323_const" type="Const" version="opset1">
			<data element_type="i64" offset="118272" shape="1" size="8"/>
			<output>
				<port id="1" precision="I64">
					<dim>1</dim>
				</port>
			</output>
		</layer>
		<layer id="388" name="Slice_215/Cast_262325_const" type="Const" version="opset1">
			<data element_type="i64" offset="118280" shape="1" size="8"/>
			<output>
				<port id="1" precision="I64">
					<dim>1</dim>
				</port>
			</output>
		</layer>
		<layer id="389" name="Slice_215/Cast_362327_const" type="Const" version="opset1">
			<data element_type="i64" offset="118288" shape="1" size="8"/>
			<output>
				<port id="1" precision="I64">
					<dim>1</dim>
				</port>
			</output>
		</layer>
		<layer id="390" name="Slice_215" type="StridedSlice" version="opset1">
			<data begin_mask="1" ellipsis_mask="0" end_mask="0" new_axis_mask="0" shrink_axis_mask="0"/>
			<input>
				<port id="0">
					<dim>4</dim>
				</port>
				<port id="1">
					<dim>1</dim>
				</port>
				<port id="2">
					<dim>1</dim>
				</port>
				<port id="3">
					<dim>1</dim>
				</port>
			</input>
			<output>
				<port id="4" precision="I64">
					<dim>2</dim>
				</port>
			</output>
		</layer>
		<layer id="391" name="Shape_201" type="ShapeOf" version="opset3">
			<data output_type="i64"/>
			<input>
				<port id="0">
					<dim>1</dim>
					<dim>16</dim>
					<dim>80</dim>
					<dim>80</dim>
				</port>
			</input>
			<output>
				<port id="1" precision="I64">
					<dim>4</dim>
				</port>
			</output>
		</layer>
		<layer id="392" name="Gather_2031556/Cast_162495_const" type="Const" version="opset1">
			<data element_type="i32" offset="118296" shape="" size="4"/>
			<output>
				<port id="1" precision="I32"/>
			</output>
		</layer>
		<layer id="393" name="Gather_2031556/Cast_262497_const" type="Const" version="opset1">
			<data element_type="i64" offset="118272" shape="" size="8"/>
			<output>
				<port id="1" precision="I64"/>
			</output>
		</layer>
		<layer id="394" name="Gather_2031556" type="Gather" version="opset1">
			<input>
				<port id="0">
					<dim>4</dim>
				</port>
				<port id="1"/>
				<port id="2"/>
			</input>
			<output>
				<port id="3" precision="I64"/>
			</output>
		</layer>
		<layer id="395" name="Unsqueeze_207/Dims/Output_0/Data__const" type="Const" version="opset1">
			<data element_type="i64" offset="118272" shape="1" size="8"/>
			<output>
				<port id="1" precision="I64">
					<dim>1</dim>
				</port>
			</output>
		</layer>
		<layer id="396" name="Unsqueeze_207/Unsqueeze" type="Unsqueeze" version="opset1">
			<input>
				<port id="0"/>
				<port id="1">
					<dim>1</dim>
				</port>
			</input>
			<output>
				<port id="2" precision="I64">
					<dim>1</dim>
				</port>
			</output>
		</layer>
		<layer id="397" name="Shape_204" type="ShapeOf" version="opset3">
			<data output_type="i64"/>
			<input>
				<port id="0">
					<dim>1</dim>
					<dim>16</dim>
					<dim>80</dim>
					<dim>80</dim>
				</port>
			</input>
			<output>
				<port id="1" precision="I64">
					<dim>4</dim>
				</port>
			</output>
		</layer>
		<layer id="398" name="Gather_2061544/Cast_162149_const" type="Const" version="opset1">
			<data element_type="i32" offset="118300" shape="" size="4"/>
			<output>
				<port id="1" precision="I32"/>
			</output>
		</layer>
		<layer id="399" name="Gather_2061544/Cast_262151_const" type="Const" version="opset1">
			<data element_type="i64" offset="118272" shape="" size="8"/>
			<output>
				<port id="1" precision="I64"/>
			</output>
		</layer>
		<layer id="400" name="Gather_2061544" type="Gather" version="opset1">
			<input>
				<port id="0">
					<dim>4</dim>
				</port>
				<port id="1"/>
				<port id="2"/>
			</input>
			<output>
				<port id="3" precision="I64"/>
			</output>
		</layer>
		<layer id="401" name="Unsqueeze_208/Dims/Output_0/Data__const" type="Const" version="opset1">
			<data element_type="i64" offset="118272" shape="1" size="8"/>
			<output>
				<port id="1" precision="I64">
					<dim>1</dim>
				</port>
			</output>
		</layer>
		<layer id="402" name="Unsqueeze_208/Unsqueeze" type="Unsqueeze" version="opset1">
			<input>
				<port id="0"/>
				<port id="1">
					<dim>1</dim>
				</port>
			</input>
			<output>
				<port id="2" precision="I64">
					<dim>1</dim>
				</port>
			</output>
		</layer>
		<layer id="403" name="Concat_209" type="Concat" version="opset1">
			<data axis="0"/>
			<input>
				<port id="0">
					<dim>1</dim>
				</port>
				<port id="1">
					<dim>1</dim>
				</port>
			</input>
			<output>
				<port id="2" precision="I64">
					<dim>2</dim>
				</port>
			</output>
		</layer>
		<layer id="404" name="Concat_217" type="Concat" version="opset1">
			<data axis="0"/>
			<input>
				<port id="0">
					<dim>2</dim>
				</port>
				<port id="1">
					<dim>2</dim>
				</port>
			</input>
			<output>
				<port id="2" precision="I64">
					<dim>4</dim>
				</port>
			</output>
		</layer>
		<layer id="405" name="Resize_219/StridedSlice_sizes/Cast_162315_const" type="Const" version="opset1">
			<data element_type="i64" offset="118280" shape="1" size="8"/>
			<output>
				<port id="1" precision="I64">
					<dim>1</dim>
				</port>
			</output>
		</layer>
		<layer id="406" name="Resize_219/StridedSlice_sizes/Cast_262317_const" type="Const" version="opset1">
			<data element_type="i64" offset="118304" shape="1" size="8"/>
			<output>
				<port id="1" precision="I64">
					<dim>1</dim>
				</port>
			</output>
		</layer>
		<layer id="407" name="Resize_219/StridedSlice_sizes/Cast_362319_const" type="Const" version="opset1">
			<data element_type="i64" offset="118288" shape="1" size="8"/>
			<output>
				<port id="1" precision="I64">
					<dim>1</dim>
				</port>
			</output>
		</layer>
		<layer id="408" name="Resize_219/StridedSlice_sizes" type="StridedSlice" version="opset1">
			<data begin_mask="0" ellipsis_mask="0" end_mask="0" new_axis_mask="0" shrink_axis_mask="0"/>
			<input>
				<port id="0">
					<dim>4</dim>
				</port>
				<port id="1">
					<dim>1</dim>
				</port>
				<port id="2">
					<dim>1</dim>
				</port>
				<port id="3">
					<dim>1</dim>
				</port>
			</input>
			<output>
				<port id="4" precision="I64">
					<dim>2</dim>
				</port>
			</output>
		</layer>
		<layer id="409" name="10528" type="Convert" version="opset1">
			<data destination_type="f32"/>
			<input>
				<port id="0">
					<dim>4</dim>
				</port>
			</input>
			<output>
				<port id="1" precision="FP32">
					<dim>4</dim>
				</port>
			</output>
		</layer>
		<layer id="410" name="Resize_219/ShapeOf_" type="ShapeOf" version="opset3">
			<data output_type="i64"/>
			<input>
				<port id="0">
					<dim>1</dim>
					<dim>16</dim>
					<dim>40</dim>
					<dim>40</dim>
				</port>
			</input>
			<output>
				<port id="1" precision="I64">
					<dim>4</dim>
				</port>
			</output>
		</layer>
		<layer id="411" name="10527" type="Convert" version="opset1">
			<data destination_type="f32"/>
			<input>
				<port id="0">
					<dim>4</dim>
				</port>
			</input>
			<output>
				<port id="1" precision="FP32">
					<dim>4</dim>
				</port>
			</output>
		</layer>
		<layer id="412" name="Resize_219/Div_" type="Divide" version="opset1">
			<input>
				<port id="0">
					<dim>4</dim>
				</port>
				<port id="1">
					<dim>4</dim>
				</port>
			</input>
			<output>
				<port id="2" precision="FP32">
					<dim>4</dim>
				</port>
			</output>
		</layer>
		<layer id="413" name="Resize_219/Add__input_port_1/value10526_const" type="Const" version="opset1">
			<data element_type="f32" offset="118312" shape="1" size="4"/>
			<output>
				<port id="1" precision="FP32">
					<dim>1</dim>
				</port>
			</output>
		</layer>
		<layer id="414" name="Resize_219/Add_" type="Add" version="opset1">
			<input>
				<port id="0">
					<dim>4</dim>
				</port>
				<port id="1">
					<dim>1</dim>
				</port>
			</input>
			<output>
				<port id="2" precision="FP32">
					<dim>4</dim>
				</port>
			</output>
		</layer>
		<layer id="415" name="Resize_219/StridedSlice_scales/Cast_161997_const" type="Const" version="opset1">
			<data element_type="i64" offset="118280" shape="1" size="8"/>
			<output>
				<port id="1" precision="I64">
					<dim>1</dim>
				</port>
			</output>
		</layer>
		<layer id="416" name="Resize_219/StridedSlice_scales/Cast_261999_const" type="Const" version="opset1">
			<data element_type="i64" offset="118304" shape="1" size="8"/>
			<output>
				<port id="1" precision="I64">
					<dim>1</dim>
				</port>
			</output>
		</layer>
		<layer id="417" name="Resize_219/StridedSlice_scales/Cast_362001_const" type="Const" version="opset1">
			<data element_type="i64" offset="118288" shape="1" size="8"/>
			<output>
				<port id="1" precision="I64">
					<dim>1</dim>
				</port>
			</output>
		</layer>
		<layer id="418" name="Resize_219/StridedSlice_scales" type="StridedSlice" version="opset1">
			<data begin_mask="0" ellipsis_mask="0" end_mask="0" new_axis_mask="0" shrink_axis_mask="0"/>
			<input>
				<port id="0">
					<dim>4</dim>
				</port>
				<port id="1">
					<dim>1</dim>
				</port>
				<port id="2">
					<dim>1</dim>
				</port>
				<port id="3">
					<dim>1</dim>
				</port>
			</input>
			<output>
				<port id="4" precision="FP32">
					<dim>2</dim>
				</port>
			</output>
		</layer>
		<layer id="419" name="Resize_219/axis_10522_const" type="Const" version="opset1">
			<data element_type="i64" offset="118316" shape="2" size="16"/>
			<output>
				<port id="1" precision="I64">
					<dim>2</dim>
				</port>
			</output>
		</layer>
		<layer id="420" name="Resize_219" type="Interpolate" version="opset4">
			<data antialias="0" coordinate_transformation_mode="align_corners" cube_coeff="-0.75" mode="linear_onnx" nearest_mode="floor" pads_begin="0,0,0,0" pads_end="0,0,0,0" shape_calculation_mode="sizes"/>
			<input>
				<port id="0">
					<dim>1</dim>
					<dim>16</dim>
					<dim>40</dim>
					<dim>40</dim>
				</port>
				<port id="1">
					<dim>2</dim>
				</port>
				<port id="2">
					<dim>2</dim>
				</port>
				<port id="3">
					<dim>2</dim>
				</port>
			</input>
			<output>
				<port id="4" precision="FP32">
					<dim>1</dim>
					<dim>16</dim>
					<dim>80</dim>
					<dim>80</dim>
				</port>
			</output>
		</layer>
		<layer id="421" name="Concat_220" type="Concat" version="opset1">
			<data axis="1"/>
			<input>
				<port id="0">
					<dim>1</dim>
					<dim>16</dim>
					<dim>80</dim>
					<dim>80</dim>
				</port>
				<port id="1">
					<dim>1</dim>
					<dim>16</dim>
					<dim>80</dim>
					<dim>80</dim>
				</port>
			</input>
			<output>
				<port id="2" precision="FP32">
					<dim>1</dim>
					<dim>32</dim>
					<dim>80</dim>
					<dim>80</dim>
				</port>
			</output>
		</layer>
		<layer id="422" name="2039/Output_0/Data__const" type="Const" version="opset1">
			<data element_type="f32" offset="552828" shape="16,32,3,3" size="18432"/>
			<output>
				<port id="1" precision="FP32">
					<dim>16</dim>
					<dim>32</dim>
					<dim>3</dim>
					<dim>3</dim>
				</port>
			</output>
		</layer>
		<layer id="423" name="Conv_221/WithoutBiases" type="Convolution" version="opset1">
			<data dilations="1,1" output_padding="0,0" pads_begin="1,1" pads_end="1,1" strides="1,1"/>
			<input>
				<port id="0">
					<dim>1</dim>
					<dim>32</dim>
					<dim>80</dim>
					<dim>80</dim>
				</port>
				<port id="1">
					<dim>16</dim>
					<dim>32</dim>
					<dim>3</dim>
					<dim>3</dim>
				</port>
			</input>
			<output>
				<port id="2" precision="FP32">
					<dim>1</dim>
					<dim>16</dim>
					<dim>80</dim>
					<dim>80</dim>
				</port>
			</output>
		</layer>
		<layer id="424" name="Conv_221/Dims1481525653/EltwiseUnsqueeze26219_const" type="Const" version="opset1">
			<data element_type="f32" offset="571260" shape="1,16,1,1" size="64"/>
			<output>
				<port id="1" precision="FP32">
					<dim>1</dim>
					<dim>16</dim>
					<dim>1</dim>
					<dim>1</dim>
				</port>
			</output>
		</layer>
		<layer id="425" name="Conv_221" type="Add" version="opset1">
			<input>
				<port id="0">
					<dim>1</dim>
					<dim>16</dim>
					<dim>80</dim>
					<dim>80</dim>
				</port>
				<port id="1">
					<dim>1</dim>
					<dim>16</dim>
					<dim>1</dim>
					<dim>1</dim>
				</port>
			</input>
			<output>
				<port id="2" precision="FP32">
					<dim>1</dim>
					<dim>16</dim>
					<dim>80</dim>
					<dim>80</dim>
				</port>
			</output>
		</layer>
		<layer id="426" name="Relu_222" type="ReLU" version="opset1">
			<input>
				<port id="0">
					<dim>1</dim>
					<dim>16</dim>
					<dim>80</dim>
					<dim>80</dim>
				</port>
			</input>
			<output>
				<port id="1" precision="FP32">
					<dim>1</dim>
					<dim>16</dim>
					<dim>80</dim>
					<dim>80</dim>
				</port>
			</output>
		</layer>
		<layer id="427" name="Shape_233" type="ShapeOf" version="opset3">
			<data output_type="i64"/>
			<input>
				<port id="0">
					<dim>1</dim>
					<dim>16</dim>
					<dim>80</dim>
					<dim>80</dim>
				</port>
			</input>
			<output>
				<port id="1" precision="I64">
					<dim>4</dim>
				</port>
			</output>
		</layer>
		<layer id="428" name="Slice_237/Cast_161647_const" type="Const" version="opset1">
			<data element_type="i64" offset="118272" shape="1" size="8"/>
			<output>
				<port id="1" precision="I64">
					<dim>1</dim>
				</port>
			</output>
		</layer>
		<layer id="429" name="Slice_237/Cast_261649_const" type="Const" version="opset1">
			<data element_type="i64" offset="118280" shape="1" size="8"/>
			<output>
				<port id="1" precision="I64">
					<dim>1</dim>
				</port>
			</output>
		</layer>
		<layer id="430" name="Slice_237/Cast_361651_const" type="Const" version="opset1">
			<data element_type="i64" offset="118288" shape="1" size="8"/>
			<output>
				<port id="1" precision="I64">
					<dim>1</dim>
				</port>
			</output>
		</layer>
		<layer id="431" name="Slice_237" type="StridedSlice" version="opset1">
			<data begin_mask="1" ellipsis_mask="0" end_mask="0" new_axis_mask="0" shrink_axis_mask="0"/>
			<input>
				<port id="0">
					<dim>4</dim>
				</port>
				<port id="1">
					<dim>1</dim>
				</port>
				<port id="2">
					<dim>1</dim>
				</port>
				<port id="3">
					<dim>1</dim>
				</port>
			</input>
			<output>
				<port id="4" precision="I64">
					<dim>2</dim>
				</port>
			</output>
		</layer>
		<layer id="432" name="Shape_223" type="ShapeOf" version="opset3">
			<data output_type="i64"/>
			<input>
				<port id="0">
					<dim>1</dim>
					<dim>16</dim>
					<dim>160</dim>
					<dim>160</dim>
				</port>
			</input>
			<output>
				<port id="1" precision="I64">
					<dim>4</dim>
				</port>
			</output>
		</layer>
		<layer id="433" name="Gather_2251612/Cast_162167_const" type="Const" version="opset1">
			<data element_type="i32" offset="118296" shape="" size="4"/>
			<output>
				<port id="1" precision="I32"/>
			</output>
		</layer>
		<layer id="434" name="Gather_2251612/Cast_262169_const" type="Const" version="opset1">
			<data element_type="i64" offset="118272" shape="" size="8"/>
			<output>
				<port id="1" precision="I64"/>
			</output>
		</layer>
		<layer id="435" name="Gather_2251612" type="Gather" version="opset1">
			<input>
				<port id="0">
					<dim>4</dim>
				</port>
				<port id="1"/>
				<port id="2"/>
			</input>
			<output>
				<port id="3" precision="I64"/>
			</output>
		</layer>
		<layer id="436" name="Unsqueeze_229/Dims/Output_0/Data__const" type="Const" version="opset1">
			<data element_type="i64" offset="118272" shape="1" size="8"/>
			<output>
				<port id="1" precision="I64">
					<dim>1</dim>
				</port>
			</output>
		</layer>
		<layer id="437" name="Unsqueeze_229/Unsqueeze" type="Unsqueeze" version="opset1">
			<input>
				<port id="0"/>
				<port id="1">
					<dim>1</dim>
				</port>
			</input>
			<output>
				<port id="2" precision="I64">
					<dim>1</dim>
				</port>
			</output>
		</layer>
		<layer id="438" name="Shape_226" type="ShapeOf" version="opset3">
			<data output_type="i64"/>
			<input>
				<port id="0">
					<dim>1</dim>
					<dim>16</dim>
					<dim>160</dim>
					<dim>160</dim>
				</port>
			</input>
			<output>
				<port id="1" precision="I64">
					<dim>4</dim>
				</port>
			</output>
		</layer>
		<layer id="439" name="Gather_2281572/Cast_161947_const" type="Const" version="opset1">
			<data element_type="i32" offset="118300" shape="" size="4"/>
			<output>
				<port id="1" precision="I32"/>
			</output>
		</layer>
		<layer id="440" name="Gather_2281572/Cast_261949_const" type="Const" version="opset1">
			<data element_type="i64" offset="118272" shape="" size="8"/>
			<output>
				<port id="1" precision="I64"/>
			</output>
		</layer>
		<layer id="441" name="Gather_2281572" type="Gather" version="opset1">
			<input>
				<port id="0">
					<dim>4</dim>
				</port>
				<port id="1"/>
				<port id="2"/>
			</input>
			<output>
				<port id="3" precision="I64"/>
			</output>
		</layer>
		<layer id="442" name="Unsqueeze_230/Dims/Output_0/Data__const" type="Const" version="opset1">
			<data element_type="i64" offset="118272" shape="1" size="8"/>
			<output>
				<port id="1" precision="I64">
					<dim>1</dim>
				</port>
			</output>
		</layer>
		<layer id="443" name="Unsqueeze_230/Unsqueeze" type="Unsqueeze" version="opset1">
			<input>
				<port id="0"/>
				<port id="1">
					<dim>1</dim>
				</port>
			</input>
			<output>
				<port id="2" precision="I64">
					<dim>1</dim>
				</port>
			</output>
		</layer>
		<layer id="444" name="Concat_231" type="Concat" version="opset1">
…
		<edge from-layer="1392" from-port="1" to-layer="1427" to-port="0"/>
		<edge from-layer="1415" from-port="4" to-layer="1427" to-port="1"/>
		<edge from-layer="1425" from-port="4" to-layer="1427" to-port="2"/>
		<edge from-layer="1426" from-port="1" to-layer="1427" to-port="3"/>
		<edge from-layer="1427" from-port="4" to-layer="1428" to-port="0"/>
		<edge from-layer="1328" from-port="1" to-layer="1428" to-port="1"/>
		<edge from-layer="1428" from-port="2" to-layer="1430" to-port="0"/>
		<edge from-layer="1429" from-port="1" to-layer="1430" to-port="1"/>
		<edge from-layer="1430" from-port="2" to-layer="1432" to-port="0"/>
		<edge from-layer="1431" from-port="1" to-layer="1432" to-port="1"/>
		<edge from-layer="1432" from-port="2" to-layer="1433" to-port="0"/>
		<edge from-layer="1433" from-port="1" to-layer="1434" to-port="0"/>
		<edge from-layer="1434" from-port="1" to-layer="1438" to-port="0"/>
		<edge from-layer="1435" from-port="1" to-layer="1438" to-port="1"/>
		<edge from-layer="1436" from-port="1" to-layer="1438" to-port="2"/>
		<edge from-layer="1437" from-port="1" to-layer="1438" to-port="3"/>
		<edge from-layer="1322" from-port="1" to-layer="1439" to-port="0"/>
		<edge from-layer="1439" from-port="1" to-layer="1442" to-port="0"/>
		<edge from-layer="1440" from-port="1" to-layer="1442" to-port="1"/>
		<edge from-layer="1441" from-port="1" to-layer="1442" to-port="2"/>
		<edge from-layer="1442" from-port="3" to-layer="1444" to-port="0"/>
		<edge from-layer="1443" from-port="1" to-layer="1444" to-port="1"/>
		<edge from-layer="1322" from-port="1" to-layer="1445" to-port="0"/>
		<edge from-layer="1445" from-port="1" to-layer="1448" to-port="0"/>
		<edge from-layer="1446" from-port="1" to-layer="1448" to-port="1"/>
		<edge from-layer="1447" from-port="1" to-layer="1448" to-port="2"/>
		<edge from-layer="1448" from-port="3" to-layer="1450" to-port="0"/>
		<edge from-layer="1449" from-port="1" to-layer="1450" to-port="1"/>
		<edge from-layer="1444" from-port="2" to-layer="1451" to-port="0"/>
		<edge from-layer="1450" from-port="2" to-layer="1451" to-port="1"/>
		<edge from-layer="1438" from-port="4" to-layer="1452" to-port="0"/>
		<edge from-layer="1451" from-port="2" to-layer="1452" to-port="1"/>
		<edge from-layer="1452" from-port="2" to-layer="1456" to-port="0"/>
		<edge from-layer="1453" from-port="1" to-layer="1456" to-port="1"/>
		<edge from-layer="1454" from-port="1" to-layer="1456" to-port="2"/>
		<edge from-layer="1455" from-port="1" to-layer="1456" to-port="3"/>
		<edge from-layer="1452" from-port="2" to-layer="1457" to-port="0"/>
		<edge from-layer="1433" from-port="1" to-layer="1458" to-port="0"/>
		<edge from-layer="1458" from-port="1" to-layer="1459" to-port="0"/>
		<edge from-layer="1457" from-port="1" to-layer="1460" to-port="0"/>
		<edge from-layer="1459" from-port="1" to-layer="1460" to-port="1"/>
		<edge from-layer="1460" from-port="2" to-layer="1462" to-port="0"/>
		<edge from-layer="1461" from-port="1" to-layer="1462" to-port="1"/>
		<edge from-layer="1462" from-port="2" to-layer="1466" to-port="0"/>
		<edge from-layer="1463" from-port="1" to-layer="1466" to-port="1"/>
		<edge from-layer="1464" from-port="1" to-layer="1466" to-port="2"/>
		<edge from-layer="1465" from-port="1" to-layer="1466" to-port="3"/>
		<edge from-layer="1433" from-port="1" to-layer="1468" to-port="0"/>
		<edge from-layer="1456" from-port="4" to-layer="1468" to-port="1"/>
		<edge from-layer="1466" from-port="4" to-layer="1468" to-port="2"/>
		<edge from-layer="1467" from-port="1" to-layer="1468" to-port="3"/>
		<edge from-layer="1468" from-port="4" to-layer="1469" to-port="0"/>
		<edge from-layer="1322" from-port="1" to-layer="1469" to-port="1"/>
		<edge from-layer="1469" from-port="2" to-layer="1471" to-port="0"/>
		<edge from-layer="1470" from-port="1" to-layer="1471" to-port="1"/>
		<edge from-layer="1471" from-port="2" to-layer="1473" to-port="0"/>
		<edge from-layer="1472" from-port="1" to-layer="1473" to-port="1"/>
		<edge from-layer="1473" from-port="2" to-layer="1474" to-port="0"/>
		<edge from-layer="1474" from-port="1" to-layer="1475" to-port="0"/>
		<edge from-layer="1475" from-port="1" to-layer="1479" to-port="0"/>
		<edge from-layer="1476" from-port="1" to-layer="1479" to-port="1"/>
		<edge from-layer="1477" from-port="1" to-layer="1479" to-port="2"/>
		<edge from-layer="1478" from-port="1" to-layer="1479" to-port="3"/>
		<edge from-layer="1316" from-port="1" to-layer="1480" to-port="0"/>
		<edge from-layer="1480" from-port="1" to-layer="1483" to-port="0"/>
		<edge from-layer="1481" from-port="1" to-layer="1483" to-port="1"/>
		<edge from-layer="1482" from-port="1" to-layer="1483" to-port="2"/>
		<edge from-layer="1483" from-port="3" to-layer="1485" to-port="0"/>
		<edge from-layer="1484" from-port="1" to-layer="1485" to-port="1"/>
		<edge from-layer="1316" from-port="1" to-layer="1486" to-port="0"/>
		<edge from-layer="1486" from-port="1" to-layer="1489" to-port="0"/>
		<edge from-layer="1487" from-port="1" to-layer="1489" to-port="1"/>
		<edge from-layer="1488" from-port="1" to-layer="1489" to-port="2"/>
		<edge from-layer="1489" from-port="3" to-layer="1491" to-port="0"/>
		<edge from-layer="1490" from-port="1" to-layer="1491" to-port="1"/>
		<edge from-layer="1485" from-port="2" to-layer="1492" to-port="0"/>
		<edge from-layer="1491" from-port="2" to-layer="1492" to-port="1"/>
		<edge from-layer="1479" from-port="4" to-layer="1493" to-port="0"/>
		<edge from-layer="1492" from-port="2" to-layer="1493" to-port="1"/>
		<edge from-layer="1493" from-port="2" to-layer="1497" to-port="0"/>
		<edge from-layer="1494" from-port="1" to-layer="1497" to-port="1"/>
		<edge from-layer="1495" from-port="1" to-layer="1497" to-port="2"/>
		<edge from-layer="1496" from-port="1" to-layer="1497" to-port="3"/>
		<edge from-layer="1493" from-port="2" to-layer="1498" to-port="0"/>
		<edge from-layer="1474" from-port="1" to-layer="1499" to-port="0"/>
		<edge from-layer="1499" from-port="1" to-layer="1500" to-port="0"/>
		<edge from-layer="1498" from-port="1" to-layer="1501" to-port="0"/>
		<edge from-layer="1500" from-port="1" to-layer="1501" to-port="1"/>
		<edge from-layer="1501" from-port="2" to-layer="1503" to-port="0"/>
		<edge from-layer="1502" from-port="1" to-layer="1503" to-port="1"/>
		<edge from-layer="1503" from-port="2" to-layer="1507" to-port="0"/>
		<edge from-layer="1504" from-port="1" to-layer="1507" to-port="1"/>
		<edge from-layer="1505" from-port="1" to-layer="1507" to-port="2"/>
		<edge from-layer="1506" from-port="1" to-layer="1507" to-port="3"/>
		<edge from-layer="1474" from-port="1" to-layer="1509" to-port="0"/>
		<edge from-layer="1497" from-port="4" to-layer="1509" to-port="1"/>
		<edge from-layer="1507" from-port="4" to-layer="1509" to-port="2"/>
		<edge from-layer="1508" from-port="1" to-layer="1509" to-port="3"/>
		<edge from-layer="1509" from-port="4" to-layer="1510" to-port="0"/>
		<edge from-layer="1316" from-port="1" to-layer="1510" to-port="1"/>
		<edge from-layer="1510" from-port="2" to-layer="1512" to-port="0"/>
		<edge from-layer="1511" from-port="1" to-layer="1512" to-port="1"/>
		<edge from-layer="1512" from-port="2" to-layer="1514" to-port="0"/>
		<edge from-layer="1513" from-port="1" to-layer="1514" to-port="1"/>
		<edge from-layer="1514" from-port="2" to-layer="1515" to-port="0"/>
		<edge from-layer="1515" from-port="1" to-layer="1516" to-port="0"/>
		<edge from-layer="1311" from-port="1" to-layer="1516" to-port="1"/>
		<edge from-layer="1516" from-port="2" to-layer="1517" to-port="0"/>
		<edge from-layer="1517" from-port="1" to-layer="1521" to-port="0"/>
		<edge from-layer="1518" from-port="1" to-layer="1521" to-port="1"/>
		<edge from-layer="1519" from-port="1" to-layer="1521" to-port="2"/>
		<edge from-layer="1520" from-port="1" to-layer="1521" to-port="3"/>
		<edge from-layer="257" from-port="2" to-layer="1522" to-port="0"/>
		<edge from-layer="1522" from-port="1" to-layer="1525" to-port="0"/>
		<edge from-layer="1523" from-port="1" to-layer="1525" to-port="1"/>
		<edge from-layer="1524" from-port="1" to-layer="1525" to-port="2"/>
		<edge from-layer="1525" from-port="3" to-layer="1527" to-port="0"/>
		<edge from-layer="1526" from-port="1" to-layer="1527" to-port="1"/>
		<edge from-layer="257" from-port="2" to-layer="1528" to-port="0"/>
		<edge from-layer="1528" from-port="1" to-layer="1531" to-port="0"/>
		<edge from-layer="1529" from-port="1" to-layer="1531" to-port="1"/>
		<edge from-layer="1530" from-port="1" to-layer="1531" to-port="2"/>
		<edge from-layer="1531" from-port="3" to-layer="1533" to-port="0"/>
		<edge from-layer="1532" from-port="1" to-layer="1533" to-port="1"/>
		<edge from-layer="1527" from-port="2" to-layer="1534" to-port="0"/>
		<edge from-layer="1533" from-port="2" to-layer="1534" to-port="1"/>
		<edge from-layer="1521" from-port="4" to-layer="1535" to-port="0"/>
		<edge from-layer="1534" from-port="2" to-layer="1535" to-port="1"/>
		<edge from-layer="1535" from-port="2" to-layer="1539" to-port="0"/>
		<edge from-layer="1536" from-port="1" to-layer="1539" to-port="1"/>
		<edge from-layer="1537" from-port="1" to-layer="1539" to-port="2"/>
		<edge from-layer="1538" from-port="1" to-layer="1539" to-port="3"/>
		<edge from-layer="1535" from-port="2" to-layer="1540" to-port="0"/>
		<edge from-layer="1516" from-port="2" to-layer="1541" to-port="0"/>
		<edge from-layer="1541" from-port="1" to-layer="1542" to-port="0"/>
		<edge from-layer="1540" from-port="1" to-layer="1543" to-port="0"/>
		<edge from-layer="1542" from-port="1" to-layer="1543" to-port="1"/>
		<edge from-layer="1543" from-port="2" to-layer="1545" to-port="0"/>
		<edge from-layer="1544" from-port="1" to-layer="1545" to-port="1"/>
		<edge from-layer="1545" from-port="2" to-layer="1549" to-port="0"/>
		<edge from-layer="1546" from-port="1" to-layer="1549" to-port="1"/>
		<edge from-layer="1547" from-port="1" to-layer="1549" to-port="2"/>
		<edge from-layer="1548" from-port="1" to-layer="1549" to-port="3"/>
		<edge from-layer="1516" from-port="2" to-layer="1551" to-port="0"/>
		<edge from-layer="1539" from-port="4" to-layer="1551" to-port="1"/>
		<edge from-layer="1549" from-port="4" to-layer="1551" to-port="2"/>
		<edge from-layer="1550" from-port="1" to-layer="1551" to-port="3"/>
		<edge from-layer="1551" from-port="4" to-layer="1552" to-port="0"/>
		<edge from-layer="257" from-port="2" to-layer="1552" to-port="1"/>
		<edge from-layer="1552" from-port="2" to-layer="1554" to-port="0"/>
		<edge from-layer="1553" from-port="1" to-layer="1554" to-port="1"/>
		<edge from-layer="1554" from-port="2" to-layer="1556" to-port="0"/>
		<edge from-layer="1555" from-port="1" to-layer="1556" to-port="1"/>
		<edge from-layer="1556" from-port="2" to-layer="1557" to-port="0"/>
		<edge from-layer="1557" from-port="1" to-layer="1559" to-port="0"/>
		<edge from-layer="1558" from-port="1" to-layer="1559" to-port="1"/>
		<edge from-layer="1559" from-port="2" to-layer="1561" to-port="0"/>
		<edge from-layer="1560" from-port="1" to-layer="1561" to-port="1"/>
		<edge from-layer="1561" from-port="2" to-layer="1562" to-port="0"/>
		<edge from-layer="1562" from-port="1" to-layer="1563" to-port="0"/>
		<edge from-layer="1563" from-port="1" to-layer="1565" to-port="0"/>
		<edge from-layer="1564" from-port="1" to-layer="1565" to-port="1"/>
		<edge from-layer="1565" from-port="2" to-layer="1567" to-port="0"/>
		<edge from-layer="1566" from-port="1" to-layer="1567" to-port="1"/>
		<edge from-layer="1567" from-port="2" to-layer="1568" to-port="0"/>
		<edge from-layer="1568" from-port="1" to-layer="1569" to-port="0"/>
		<edge from-layer="1569" from-port="1" to-layer="1571" to-port="0"/>
		<edge from-layer="1570" from-port="1" to-layer="1571" to-port="1"/>
		<edge from-layer="1571" from-port="2" to-layer="1573" to-port="0"/>
		<edge from-layer="1572" from-port="1" to-layer="1573" to-port="1"/>
		<edge from-layer="1573" from-port="2" to-layer="1574" to-port="0"/>
		<edge from-layer="1574" from-port="1" to-layer="1575" to-port="0"/>
		<edge from-layer="1575" from-port="1" to-layer="1577" to-port="0"/>
		<edge from-layer="1576" from-port="1" to-layer="1577" to-port="1"/>
		<edge from-layer="1577" from-port="2" to-layer="1579" to-port="0"/>
		<edge from-layer="1578" from-port="1" to-layer="1579" to-port="1"/>
		<edge from-layer="1579" from-port="2" to-layer="1580" to-port="0"/>
		<edge from-layer="1580" from-port="1" to-layer="1581" to-port="0"/>
		<edge from-layer="1581" from-port="1" to-layer="1583" to-port="0"/>
		<edge from-layer="1582" from-port="1" to-layer="1583" to-port="1"/>
		<edge from-layer="1583" from-port="2" to-layer="1585" to-port="0"/>
		<edge from-layer="1584" from-port="1" to-layer="1585" to-port="1"/>
		<edge from-layer="1585" from-port="2" to-layer="1586" to-port="0"/>
		<edge from-layer="1586" from-port="1" to-layer="1587" to-port="0"/>
		<edge from-layer="1587" from-port="1" to-layer="1589" to-port="0"/>
		<edge from-layer="1588" from-port="1" to-layer="1589" to-port="1"/>
		<edge from-layer="1589" from-port="2" to-layer="1591" to-port="0"/>
		<edge from-layer="1590" from-port="1" to-layer="1591" to-port="1"/>
		<edge from-layer="1591" from-port="2" to-layer="1592" to-port="0"/>
		<edge from-layer="1592" from-port="1" to-layer="1594" to-port="0"/>
		<edge from-layer="1593" from-port="1" to-layer="1594" to-port="1"/>
		<edge from-layer="1594" from-port="2" to-layer="1596" to-port="0"/>
		<edge from-layer="1595" from-port="1" to-layer="1596" to-port="1"/>
		<edge from-layer="1596" from-port="2" to-layer="1597" to-port="0"/>
		<edge from-layer="1597" from-port="1" to-layer="1598" to-port="0"/>
		<edge from-layer="1592" from-port="1" to-layer="1598" to-port="1"/>
		<edge from-layer="1598" from-port="2" to-layer="1600" to-port="0"/>
		<edge from-layer="1599" from-port="1" to-layer="1600" to-port="1"/>
		<edge from-layer="1600" from-port="2" to-layer="1602" to-port="0"/>
		<edge from-layer="1601" from-port="1" to-layer="1602" to-port="1"/>
		<edge from-layer="1602" from-port="2" to-layer="1603" to-port="0"/>
		<edge from-layer="1603" from-port="1" to-layer="1604" to-port="0"/>
		<edge from-layer="1604" from-port="1" to-layer="1608" to-port="0"/>
		<edge from-layer="1605" from-port="1" to-layer="1608" to-port="1"/>
		<edge from-layer="1606" from-port="1" to-layer="1608" to-port="2"/>
		<edge from-layer="1607" from-port="1" to-layer="1608" to-port="3"/>
		<edge from-layer="1586" from-port="1" to-layer="1609" to-port="0"/>
		<edge from-layer="1609" from-port="1" to-layer="1612" to-port="0"/>
		<edge from-layer="1610" from-port="1" to-layer="1612" to-port="1"/>
		<edge from-layer="1611" from-port="1" to-layer="1612" to-port="2"/>
		<edge from-layer="1612" from-port="3" to-layer="1614" to-port="0"/>
		<edge from-layer="1613" from-port="1" to-layer="1614" to-port="1"/>
		<edge from-layer="1586" from-port="1" to-layer="1615" to-port="0"/>
		<edge from-layer="1615" from-port="1" to-layer="1618" to-port="0"/>
		<edge from-layer="1616" from-port="1" to-layer="1618" to-port="1"/>
		<edge from-layer="1617" from-port="1" to-layer="1618" to-port="2"/>
		<edge from-layer="1618" from-port="3" to-layer="1620" to-port="0"/>
		<edge from-layer="1619" from-port="1" to-layer="1620" to-port="1"/>
		<edge from-layer="1614" from-port="2" to-layer="1621" to-port="0"/>
		<edge from-layer="1620" from-port="2" to-layer="1621" to-port="1"/>
		<edge from-layer="1608" from-port="4" to-layer="1622" to-port="0"/>
		<edge from-layer="1621" from-port="2" to-layer="1622" to-port="1"/>
		<edge from-layer="1622" from-port="2" to-layer="1626" to-port="0"/>
		<edge from-layer="1623" from-port="1" to-layer="1626" to-port="1"/>
		<edge from-layer="1624" from-port="1" to-layer="1626" to-port="2"/>
		<edge from-layer="1625" from-port="1" to-layer="1626" to-port="3"/>
		<edge from-layer="1622" from-port="2" to-layer="1627" to-port="0"/>
		<edge from-layer="1603" from-port="1" to-layer="1628" to-port="0"/>
		<edge from-layer="1628" from-port="1" to-layer="1629" to-port="0"/>
		<edge from-layer="1627" from-port="1" to-layer="1630" to-port="0"/>
		<edge from-layer="1629" from-port="1" to-layer="1630" to-port="1"/>
		<edge from-layer="1630" from-port="2" to-layer="1632" to-port="0"/>
		<edge from-layer="1631" from-port="1" to-layer="1632" to-port="1"/>
		<edge from-layer="1632" from-port="2" to-layer="1636" to-port="0"/>
		<edge from-layer="1633" from-port="1" to-layer="1636" to-port="1"/>
		<edge from-layer="1634" from-port="1" to-layer="1636" to-port="2"/>
		<edge from-layer="1635" from-port="1" to-layer="1636" to-port="3"/>
		<edge from-layer="1603" from-port="1" to-layer="1638" to-port="0"/>
		<edge from-layer="1626" from-port="4" to-layer="1638" to-port="1"/>
		<edge from-layer="1636" from-port="4" to-layer="1638" to-port="2"/>
		<edge from-layer="1637" from-port="1" to-layer="1638" to-port="3"/>
		<edge from-layer="1638" from-port="4" to-layer="1639" to-port="0"/>
		<edge from-layer="1586" from-port="1" to-layer="1639" to-port="1"/>
		<edge from-layer="1639" from-port="2" to-layer="1641" to-port="0"/>
		<edge from-layer="1640" from-port="1" to-layer="1641" to-port="1"/>
		<edge from-layer="1641" from-port="2" to-layer="1643" to-port="0"/>
		<edge from-layer="1642" from-port="1" to-layer="1643" to-port="1"/>
		<edge from-layer="1643" from-port="2" to-layer="1644" to-port="0"/>
		<edge from-layer="1644" from-port="1" to-layer="1645" to-port="0"/>
		<edge from-layer="1645" from-port="1" to-layer="1649" to-port="0"/>
		<edge from-layer="1646" from-port="1" to-layer="1649" to-port="1"/>
		<edge from-layer="1647" from-port="1" to-layer="1649" to-port="2"/>
		<edge from-layer="1648" from-port="1" to-layer="1649" to-port="3"/>
		<edge from-layer="1580" from-port="1" to-layer="1650" to-port="0"/>
		<edge from-layer="1650" from-port="1" to-layer="1653" to-port="0"/>
		<edge from-layer="1651" from-port="1" to-layer="1653" to-port="1"/>
		<edge from-layer="1652" from-port="1" to-layer="1653" to-port="2"/>
		<edge from-layer="1653" from-port="3" to-layer="1655" to-port="0"/>
		<edge from-layer="1654" from-port="1" to-layer="1655" to-port="1"/>
		<edge from-layer="1580" from-port="1" to-layer="1656" to-port="0"/>
		<edge from-layer="1656" from-port="1" to-layer="1659" to-port="0"/>
		<edge from-layer="1657" from-port="1" to-layer="1659" to-port="1"/>
		<edge from-layer="1658" from-port="1" to-layer="1659" to-port="2"/>
		<edge from-layer="1659" from-port="3" to-layer="1661" to-port="0"/>
		<edge from-layer="1660" from-port="1" to-layer="1661" to-port="1"/>
		<edge from-layer="1655" from-port="2" to-layer="1662" to-port="0"/>
		<edge from-layer="1661" from-port="2" to-layer="1662" to-port="1"/>
		<edge from-layer="1649" from-port="4" to-layer="1663" to-port="0"/>
		<edge from-layer="1662" from-port="2" to-layer="1663" to-port="1"/>
		<edge from-layer="1663" from-port="2" to-layer="1667" to-port="0"/>
		<edge from-layer="1664" from-port="1" to-layer="1667" to-port="1"/>
		<edge from-layer="1665" from-port="1" to-layer="1667" to-port="2"/>
		<edge from-layer="1666" from-port="1" to-layer="1667" to-port="3"/>
		<edge from-layer="1663" from-port="2" to-layer="1668" to-port="0"/>
		<edge from-layer="1644" from-port="1" to-layer="1669" to-port="0"/>
		<edge from-layer="1669" from-port="1" to-layer="1670" to-port="0"/>
		<edge from-layer="1668" from-port="1" to-layer="1671" to-port="0"/>
		<edge from-layer="1670" from-port="1" to-layer="1671" to-port="1"/>
		<edge from-layer="1671" from-port="2" to-layer="1673" to-port="0"/>
		<edge from-layer="1672" from-port="1" to-layer="1673" to-port="1"/>
		<edge from-layer="1673" from-port="2" to-layer="1677" to-port="0"/>
		<edge from-layer="1674" from-port="1" to-layer="1677" to-port="1"/>
		<edge from-layer="1675" from-port="1" to-layer="1677" to-port="2"/>
		<edge from-layer="1676" from-port="1" to-layer="1677" to-port="3"/>
		<edge from-layer="1644" from-port="1" to-layer="1679" to-port="0"/>
		<edge from-layer="1667" from-port="4" to-layer="1679" to-port="1"/>
		<edge from-layer="1677" from-port="4" to-layer="1679" to-port="2"/>
		<edge from-layer="1678" from-port="1" to-layer="1679" to-port="3"/>
		<edge from-layer="1679" from-port="4" to-layer="1680" to-port="0"/>
		<edge from-layer="1580" from-port="1" to-layer="1680" to-port="1"/>
		<edge from-layer="1680" from-port="2" to-layer="1682" to-port="0"/>
		<edge from-layer="1681" from-port="1" to-layer="1682" to-port="1"/>
		<edge from-layer="1682" from-port="2" to-layer="1684" to-port="0"/>
		<edge from-layer="1683" from-port="1" to-layer="1684" to-port="1"/>
		<edge from-layer="1684" from-port="2" to-layer="1685" to-port="0"/>
		<edge from-layer="1685" from-port="1" to-layer="1686" to-port="0"/>
		<edge from-layer="1686" from-port="1" to-layer="1690" to-port="0"/>
		<edge from-layer="1687" from-port="1" to-layer="1690" to-port="1"/>
		<edge from-layer="1688" from-port="1" to-layer="1690" to-port="2"/>
		<edge from-layer="1689" from-port="1" to-layer="1690" to-port="3"/>
		<edge from-layer="1574" from-port="1" to-layer="1691" to-port="0"/>
		<edge from-layer="1691" from-port="1" to-layer="1694" to-port="0"/>
		<edge from-layer="1692" from-port="1" to-layer="1694" to-port="1"/>
		<edge from-layer="1693" from-port="1" to-layer="1694" to-port="2"/>
		<edge from-layer="1694" from-port="3" to-layer="1696" to-port="0"/>
		<edge from-layer="1695" from-port="1" to-layer="1696" to-port="1"/>
		<edge from-layer="1574" from-port="1" to-layer="1697" to-port="0"/>
		<edge from-layer="1697" from-port="1" to-layer="1700" to-port="0"/>
		<edge from-layer="1698" from-port="1" to-layer="1700" to-port="1"/>
		<edge from-layer="1699" from-port="1" to-layer="1700" to-port="2"/>
		<edge from-layer="1700" from-port="3" to-layer="1702" to-port="0"/>
		<edge from-layer="1701" from-port="1" to-layer="1702" to-port="1"/>
		<edge from-layer="1696" from-port="2" to-layer="1703" to-port="0"/>
		<edge from-layer="1702" from-port="2" to-layer="1703" to-port="1"/>
		<edge from-layer="1690" from-port="4" to-layer="1704" to-port="0"/>
		<edge from-layer="1703" from-port="2" to-layer="1704" to-port="1"/>
		<edge from-layer="1704" from-port="2" to-layer="1708" to-port="0"/>
		<edge from-layer="1705" from-port="1" to-layer="1708" to-port="1"/>
		<edge from-layer="1706" from-port="1" to-layer="1708" to-port="2"/>
		<edge from-layer="1707" from-port="1" to-layer="1708" to-port="3"/>
		<edge from-layer="1704" from-port="2" to-layer="1709" to-port="0"/>
		<edge from-layer="1685" from-port="1" to-layer="1710" to-port="0"/>
		<edge from-layer="1710" from-port="1" to-layer="1711" to-port="0"/>
		<edge from-layer="1709" from-port="1" to-layer="1712" to-port="0"/>
		<edge from-layer="1711" from-port="1" to-layer="1712" to-port="1"/>
		<edge from-layer="1712" from-port="2" to-layer="1714" to-port="0"/>
		<edge from-layer="1713" from-port="1" to-layer="1714" to-port="1"/>
		<edge from-layer="1714" from-port="2" to-layer="1718" to-port="0"/>
		<edge from-layer="1715" from-port="1" to-layer="1718" to-port="1"/>
		<edge from-layer="1716" from-port="1" to-layer="1718" to-port="2"/>
		<edge from-layer="1717" from-port="1" to-layer="1718" to-port="3"/>
		<edge from-layer="1685" from-port="1" to-layer="1720" to-port="0"/>
		<edge from-layer="1708" from-port="4" to-layer="1720" to-port="1"/>
		<edge from-layer="1718" from-port="4" to-layer="1720" to-port="2"/>
		<edge from-layer="1719" from-port="1" to-layer="1720" to-port="3"/>
		<edge from-layer="1720" from-port="4" to-layer="1721" to-port="0"/>
		<edge from-layer="1574" from-port="1" to-layer="1721" to-port="1"/>
		<edge from-layer="1721" from-port="2" to-layer="1723" to-port="0"/>
		<edge from-layer="1722" from-port="1" to-layer="1723" to-port="1"/>
		<edge from-layer="1723" from-port="2" to-layer="1725" to-port="0"/>
		<edge from-layer="1724" from-port="1" to-layer="1725" to-port="1"/>
		<edge from-layer="1725" from-port="2" to-layer="1726" to-port="0"/>
		<edge from-layer="1726" from-port="1" to-layer="1727" to-port="0"/>
		<edge from-layer="1727" from-port="1" to-layer="1731" to-port="0"/>
		<edge from-layer="1728" from-port="1" to-layer="1731" to-port="1"/>
		<edge from-layer="1729" from-port="1" to-layer="1731" to-port="2"/>
		<edge from-layer="1730" from-port="1" to-layer="1731" to-port="3"/>
		<edge from-layer="1568" from-port="1" to-layer="1732" to-port="0"/>
		<edge from-layer="1732" from-port="1" to-layer="1735" to-port="0"/>
		<edge from-layer="1733" from-port="1" to-layer="1735" to-port="1"/>
		<edge from-layer="1734" from-port="1" to-layer="1735" to-port="2"/>
		<edge from-layer="1735" from-port="3" to-layer="1737" to-port="0"/>
		<edge from-layer="1736" from-port="1" to-layer="1737" to-port="1"/>
		<edge from-layer="1568" from-port="1" to-layer="1738" to-port="0"/>
		<edge from-layer="1738" from-port="1" to-layer="1741" to-port="0"/>
		<edge from-layer="1739" from-port="1" to-layer="1741" to-port="1"/>
		<edge from-layer="1740" from-port="1" to-layer="1741" to-port="2"/>
		<edge from-layer="1741" from-port="3" to-layer="1743" to-port="0"/>
		<edge from-layer="1742" from-port="1" to-layer="1743" to-port="1"/>
		<edge from-layer="1737" from-port="2" to-layer="1744" to-port="0"/>
		<edge from-layer="1743" from-port="2" to-layer="1744" to-port="1"/>
		<edge from-layer="1731" from-port="4" to-layer="1745" to-port="0"/>
		<edge from-layer="1744" from-port="2" to-layer="1745" to-port="1"/>
		<edge from-layer="1745" from-port="2" to-layer="1749" to-port="0"/>
		<edge from-layer="1746" from-port="1" to-layer="1749" to-port="1"/>
		<edge from-layer="1747" from-port="1" to-layer="1749" to-port="2"/>
		<edge from-layer="1748" from-port="1" to-layer="1749" to-port="3"/>
		<edge from-layer="1745" from-port="2" to-layer="1750" to-port="0"/>
		<edge from-layer="1726" from-port="1" to-layer="1751" to-port="0"/>
		<edge from-layer="1751" from-port="1" to-layer="1752" to-port="0"/>
		<edge from-layer="1750" from-port="1" to-layer="1753" to-port="0"/>
		<edge from-layer="1752" from-port="1" to-layer="1753" to-port="1"/>
		<edge from-layer="1753" from-port="2" to-layer="1755" to-port="0"/>
		<edge from-layer="1754" from-port="1" to-layer="1755" to-port="1"/>
		<edge from-layer="1755" from-port="2" to-layer="1759" to-port="0"/>
		<edge from-layer="1756" from-port="1" to-layer="1759" to-port="1"/>
		<edge from-layer="1757" from-port="1" to-layer="1759" to-port="2"/>
		<edge from-layer="1758" from-port="1" to-layer="1759" to-port="3"/>
		<edge from-layer="1726" from-port="1" to-layer="1761" to-port="0"/>
		<edge from-layer="1749" from-port="4" to-layer="1761" to-port="1"/>
		<edge from-layer="1759" from-port="4" to-layer="1761" to-port="2"/>
		<edge from-layer="1760" from-port="1" to-layer="1761" to-port="3"/>
		<edge from-layer="1761" from-port="4" to-layer="1762" to-port="0"/>
		<edge from-layer="1568" from-port="1" to-layer="1762" to-port="1"/>
		<edge from-layer="1762" from-port="2" to-layer="1764" to-port="0"/>
		<edge from-layer="1763" from-port="1" to-layer="1764" to-port="1"/>
		<edge from-layer="1764" from-port="2" to-layer="1766" to-port="0"/>
		<edge from-layer="1765" from-port="1" to-layer="1766" to-port="1"/>
		<edge from-layer="1766" from-port="2" to-layer="1767" to-port="0"/>
		<edge from-layer="1767" from-port="1" to-layer="1768" to-port="0"/>
		<edge from-layer="1768" from-port="1" to-layer="1772" to-port="0"/>
		<edge from-layer="1769" from-port="1" to-layer="1772" to-port="1"/>
		<edge from-layer="1770" from-port="1" to-layer="1772" to-port="2"/>
		<edge from-layer="1771" from-port="1" to-layer="1772" to-port="3"/>
		<edge from-layer="1562" from-port="1" to-layer="1773" to-port="0"/>
		<edge from-layer="1773" from-port="1" to-layer="1776" to-port="0"/>
		<edge from-layer="1774" from-port="1" to-layer="1776" to-port="1"/>
		<edge from-layer="1775" from-port="1" to-layer="1776" to-port="2"/>
		<edge from-layer="1776" from-port="3" to-layer="1778" to-port="0"/>
		<edge from-layer="1777" from-port="1" to-layer="1778" to-port="1"/>
		<edge from-layer="1562" from-port="1" to-layer="1779" to-port="0"/>
		<edge from-layer="1779" from-port="1" to-layer="1782" to-port="0"/>
		<edge from-layer="1780" from-port="1" to-layer="1782" to-port="1"/>
		<edge from-layer="1781" from-port="1" to-layer="1782" to-port="2"/>
		<edge from-layer="1782" from-port="3" to-layer="1784" to-port="0"/>
		<edge from-layer="1783" from-port="1" to-layer="1784" to-port="1"/>
		<edge from-layer="1778" from-port="2" to-layer="1785" to-port="0"/>
		<edge from-layer="1784" from-port="2" to-layer="1785" to-port="1"/>
		<edge from-layer="1772" from-port="4" to-layer="1786" to-port="0"/>
		<edge from-layer="1785" from-port="2" to-layer="1786" to-port="1"/>
		<edge from-layer="1786" from-port="2" to-layer="1790" to-port="0"/>
		<edge from-layer="1787" from-port="1" to-layer="1790" to-port="1"/>
		<edge from-layer="1788" from-port="1" to-layer="1790" to-port="2"/>
		<edge from-layer="1789" from-port="1" to-layer="1790" to-port="3"/>
		<edge from-layer="1786" from-port="2" to-layer="1791" to-port="0"/>
		<edge from-layer="1767" from-port="1" to-layer="1792" to-port="0"/>
		<edge from-layer="1792" from-port="1" to-layer="1793" to-port="0"/>
		<edge from-layer="1791" from-port="1" to-layer="1794" to-port="0"/>
		<edge from-layer="1793" from-port="1" to-layer="1794" to-port="1"/>
		<edge from-layer="1794" from-port="2" to-layer="1796" to-port="0"/>
		<edge from-layer="1795" from-port="1" to-layer="1796" to-port="1"/>
		<edge from-layer="1796" from-port="2" to-layer="1800" to-port="0"/>
		<edge from-layer="1797" from-port="1" to-layer="1800" to-port="1"/>
		<edge from-layer="1798" from-port="1" to-layer="1800" to-port="2"/>
		<edge from-layer="1799" from-port="1" to-layer="1800" to-port="3"/>
		<edge from-layer="1767" from-port="1" to-layer="1802" to-port="0"/>
		<edge from-layer="1790" from-port="4" to-layer="1802" to-port="1"/>
		<edge from-layer="1800" from-port="4" to-layer="1802" to-port="2"/>
		<edge from-layer="1801" from-port="1" to-layer="1802" to-port="3"/>
		<edge from-layer="1802" from-port="4" to-layer="1803" to-port="0"/>
		<edge from-layer="1562" from-port="1" to-layer="1803" to-port="1"/>
		<edge from-layer="1803" from-port="2" to-layer="1805" to-port="0"/>
		<edge from-layer="1804" from-port="1" to-layer="1805" to-port="1"/>
		<edge from-layer="1805" from-port="2" to-layer="1807" to-port="0"/>
		<edge from-layer="1806" from-port="1" to-layer="1807" to-port="1"/>
		<edge from-layer="1807" from-port="2" to-layer="1808" to-port="0"/>
		<edge from-layer="1808" from-port="1" to-layer="1809" to-port="0"/>
		<edge from-layer="1557" from-port="1" to-layer="1809" to-port="1"/>
		<edge from-layer="1809" from-port="2" to-layer="1811" to-port="0"/>
		<edge from-layer="1810" from-port="1" to-layer="1811" to-port="1"/>
		<edge from-layer="1811" from-port="2" to-layer="1813" to-port="0"/>
		<edge from-layer="1812" from-port="1" to-layer="1813" to-port="1"/>
		<edge from-layer="1516" from-port="2" to-layer="1815" to-port="0"/>
		<edge from-layer="1814" from-port="1" to-layer="1815" to-port="1"/>
		<edge from-layer="1815" from-port="2" to-layer="1817" to-port="0"/>
		<edge from-layer="1816" from-port="1" to-layer="1817" to-port="1"/>
		<edge from-layer="1817" from-port="2" to-layer="1818" to-port="0"/>
		<edge from-layer="1818" from-port="1" to-layer="1822" to-port="0"/>
		<edge from-layer="1819" from-port="1" to-layer="1822" to-port="1"/>
		<edge from-layer="1820" from-port="1" to-layer="1822" to-port="2"/>
		<edge from-layer="1821" from-port="1" to-layer="1822" to-port="3"/>
		<edge from-layer="1813" from-port="2" to-layer="1823" to-port="0"/>
		<edge from-layer="1823" from-port="1" to-layer="1826" to-port="0"/>
		<edge from-layer="1824" from-port="1" to-layer="1826" to-port="1"/>
		<edge from-layer="1825" from-port="1" to-layer="1826" to-port="2"/>
		<edge from-layer="1826" from-port="3" to-layer="1828" to-port="0"/>
		<edge from-layer="1827" from-port="1" to-layer="1828" to-port="1"/>
		<edge from-layer="1813" from-port="2" to-layer="1829" to-port="0"/>
		<edge from-layer="1829" from-port="1" to-layer="1832" to-port="0"/>
		<edge from-layer="1830" from-port="1" to-layer="1832" to-port="1"/>
		<edge from-layer="1831" from-port="1" to-layer="1832" to-port="2"/>
		<edge from-layer="1832" from-port="3" to-layer="1834" to-port="0"/>
		<edge from-layer="1833" from-port="1" to-layer="1834" to-port="1"/>
		<edge from-layer="1828" from-port="2" to-layer="1835" to-port="0"/>
		<edge from-layer="1834" from-port="2" to-layer="1835" to-port="1"/>
		<edge from-layer="1822" from-port="4" to-layer="1836" to-port="0"/>
		<edge from-layer="1835" from-port="2" to-layer="1836" to-port="1"/>
		<edge from-layer="1836" from-port="2" to-layer="1840" to-port="0"/>
		<edge from-layer="1837" from-port="1" to-layer="1840" to-port="1"/>
		<edge from-layer="1838" from-port="1" to-layer="1840" to-port="2"/>
		<edge from-layer="1839" from-port="1" to-layer="1840" to-port="3"/>
		<edge from-layer="1836" from-port="2" to-layer="1841" to-port="0"/>
		<edge from-layer="1817" from-port="2" to-layer="1842" to-port="0"/>
		<edge from-layer="1842" from-port="1" to-layer="1843" to-port="0"/>
		<edge from-layer="1841" from-port="1" to-layer="1844" to-port="0"/>
		<edge from-layer="1843" from-port="1" to-layer="1844" to-port="1"/>
		<edge from-layer="1844" from-port="2" to-layer="1846" to-port="0"/>
		<edge from-layer="1845" from-port="1" to-layer="1846" to-port="1"/>
		<edge from-layer="1846" from-port="2" to-layer="1850" to-port="0"/>
		<edge from-layer="1847" from-port="1" to-layer="1850" to-port="1"/>
		<edge from-layer="1848" from-port="1" to-layer="1850" to-port="2"/>
		<edge from-layer="1849" from-port="1" to-layer="1850" to-port="3"/>
		<edge from-layer="1817" from-port="2" to-layer="1852" to-port="0"/>
		<edge from-layer="1840" from-port="4" to-layer="1852" to-port="1"/>
		<edge from-layer="1850" from-port="4" to-layer="1852" to-port="2"/>
		<edge from-layer="1851" from-port="1" to-layer="1852" to-port="3"/>
		<edge from-layer="1270" from-port="2" to-layer="1854" to-port="0"/>
		<edge from-layer="1853" from-port="1" to-layer="1854" to-port="1"/>
		<edge from-layer="1854" from-port="2" to-layer="1856" to-port="0"/>
		<edge from-layer="1855" from-port="1" to-layer="1856" to-port="1"/>
		<edge from-layer="1856" from-port="2" to-layer="1857" to-port="0"/>
		<edge from-layer="1857" from-port="1" to-layer="1861" to-port="0"/>
		<edge from-layer="1858" from-port="1" to-layer="1861" to-port="1"/>
		<edge from-layer="1859" from-port="1" to-layer="1861" to-port="2"/>
		<edge from-layer="1860" from-port="1" to-layer="1861" to-port="3"/>
		<edge from-layer="1813" from-port="2" to-layer="1862" to-port="0"/>
		<edge from-layer="1862" from-port="1" to-layer="1865" to-port="0"/>
		<edge from-layer="1863" from-port="1" to-layer="1865" to-port="1"/>
		<edge from-layer="1864" from-port="1" to-layer="1865" to-port="2"/>
		<edge from-layer="1865" from-port="3" to-layer="1867" to-port="0"/>
		<edge from-layer="1866" from-port="1" to-layer="1867" to-port="1"/>
		<edge from-layer="1813" from-port="2" to-layer="1868" to-port="0"/>
		<edge from-layer="1868" from-port="1" to-layer="1871" to-port="0"/>
		<edge from-layer="1869" from-port="1" to-layer="1871" to-port="1"/>
		<edge from-layer="1870" from-port="1" to-layer="1871" to-port="2"/>
		<edge from-layer="1871" from-port="3" to-layer="1873" to-port="0"/>
		<edge from-layer="1872" from-port="1" to-layer="1873" to-port="1"/>
		<edge from-layer="1867" from-port="2" to-layer="1874" to-port="0"/>
		<edge from-layer="1873" from-port="2" to-layer="1874" to-port="1"/>
		<edge from-layer="1861" from-port="4" to-layer="1875" to-port="0"/>
		<edge from-layer="1874" from-port="2" to-layer="1875" to-port="1"/>
		<edge from-layer="1875" from-port="2" to-layer="1879" to-port="0"/>
		<edge from-layer="1876" from-port="1" to-layer="1879" to-port="1"/>
		<edge from-layer="1877" from-port="1" to-layer="1879" to-port="2"/>
		<edge from-layer="1878" from-port="1" to-layer="1879" to-port="3"/>
		<edge from-layer="1875" from-port="2" to-layer="1880" to-port="0"/>
		<edge from-layer="1856" from-port="2" to-layer="1881" to-port="0"/>
		<edge from-layer="1881" from-port="1" to-layer="1882" to-port="0"/>
		<edge from-layer="1880" from-port="1" to-layer="1883" to-port="0"/>
		<edge from-layer="1882" from-port="1" to-layer="1883" to-port="1"/>
		<edge from-layer="1883" from-port="2" to-layer="1885" to-port="0"/>
		<edge from-layer="1884" from-port="1" to-layer="1885" to-port="1"/>
		<edge from-layer="1885" from-port="2" to-layer="1889" to-port="0"/>
		<edge from-layer="1886" from-port="1" to-layer="1889" to-port="1"/>
		<edge from-layer="1887" from-port="1" to-layer="1889" to-port="2"/>
		<edge from-layer="1888" from-port="1" to-layer="1889" to-port="3"/>
		<edge from-layer="1856" from-port="2" to-layer="1891" to-port="0"/>
		<edge from-layer="1879" from-port="4" to-layer="1891" to-port="1"/>
		<edge from-layer="1889" from-port="4" to-layer="1891" to-port="2"/>
		<edge from-layer="1890" from-port="1" to-layer="1891" to-port="3"/>
		<edge from-layer="1071" from-port="2" to-layer="1893" to-port="0"/>
		<edge from-layer="1892" from-port="1" to-layer="1893" to-port="1"/>
		<edge from-layer="1893" from-port="2" to-layer="1895" to-port="0"/>
		<edge from-layer="1894" from-port="1" to-layer="1895" to-port="1"/>
		<edge from-layer="1895" from-port="2" to-layer="1896" to-port="0"/>
		<edge from-layer="1896" from-port="1" to-layer="1900" to-port="0"/>
		<edge from-layer="1897" from-port="1" to-layer="1900" to-port="1"/>
		<edge from-layer="1898" from-port="1" to-layer="1900" to-port="2"/>
		<edge from-layer="1899" from-port="1" to-layer="1900" to-port="3"/>
		<edge from-layer="1813" from-port="2" to-layer="1901" to-port="0"/>
		<edge from-layer="1901" from-port="1" to-layer="1904" to-port="0"/>
		<edge from-layer="1902" from-port="1" to-layer="1904" to-port="1"/>
		<edge from-layer="1903" from-port="1" to-layer="1904" to-port="2"/>
		<edge from-layer="1904" from-port="3" to-layer="1906" to-port="0"/>
		<edge from-layer="1905" from-port="1" to-layer="1906" to-port="1"/>
		<edge from-layer="1813" from-port="2" to-layer="1907" to-port="0"/>
		<edge from-layer="1907" from-port="1" to-layer="1910" to-port="0"/>
		<edge from-layer="1908" from-port="1" to-layer="1910" to-port="1"/>
		<edge from-layer="1909" from-port="1" to-layer="1910" to-port="2"/>
		<edge from-layer="1910" from-port="3" to-layer="1912" to-port="0"/>
		<edge from-layer="1911" from-port="1" to-layer="1912" to-port="1"/>
		<edge from-layer="1906" from-port="2" to-layer="1913" to-port="0"/>
		<edge from-layer="1912" from-port="2" to-layer="1913" to-port="1"/>
		<edge from-layer="1900" from-port="4" to-layer="1914" to-port="0"/>
		<edge from-layer="1913" from-port="2" to-layer="1914" to-port="1"/>
		<edge from-layer="1914" from-port="2" to-layer="1918" to-port="0"/>
		<edge from-layer="1915" from-port="1" to-layer="1918" to-port="1"/>
		<edge from-layer="1916" from-port="1" to-layer="1918" to-port="2"/>
		<edge from-layer="1917" from-port="1" to-layer="1918" to-port="3"/>
		<edge from-layer="1914" from-port="2" to-layer="1919" to-port="0"/>
		<edge from-layer="1895" from-port="2" to-layer="1920" to-port="0"/>
		<edge from-layer="1920" from-port="1" to-layer="1921" to-port="0"/>
		<edge from-layer="1919" from-port="1" to-layer="1922" to-port="0"/>
		<edge from-layer="1921" from-port="1" to-layer="1922" to-port="1"/>
		<edge from-layer="1922" from-port="2" to-layer="1924" to-port="0"/>
		<edge from-layer="1923" from-port="1" to-layer="1924" to-port="1"/>
		<edge from-layer="1924" from-port="2" to-layer="1928" to-port="0"/>
		<edge from-layer="1925" from-port="1" to-layer="1928" to-port="1"/>
		<edge from-layer="1926" from-port="1" to-layer="1928" to-port="2"/>
		<edge from-layer="1927" from-port="1" to-layer="1928" to-port="3"/>
		<edge from-layer="1895" from-port="2" to-layer="1930" to-port="0"/>
		<edge from-layer="1918" from-port="4" to-layer="1930" to-port="1"/>
		<edge from-layer="1928" from-port="4" to-layer="1930" to-port="2"/>
		<edge from-layer="1929" from-port="1" to-layer="1930" to-port="3"/>
		<edge from-layer="919" from-port="2" to-layer="1932" to-port="0"/>
		<edge from-layer="1931" from-port="1" to-layer="1932" to-port="1"/>
		<edge from-layer="1932" from-port="2" to-layer="1934" to-port="0"/>
		<edge from-layer="1933" from-port="1" to-layer="1934" to-port="1"/>
		<edge from-layer="1934" from-port="2" to-layer="1935" to-port="0"/>
		<edge from-layer="1935" from-port="1" to-layer="1939" to-port="0"/>
		<edge from-layer="1936" from-port="1" to-layer="1939" to-port="1"/>
		<edge from-layer="1937" from-port="1" to-layer="1939" to-port="2"/>
		<edge from-layer="1938" from-port="1" to-layer="1939" to-port="3"/>
		<edge from-layer="1813" from-port="2" to-layer="1940" to-port="0"/>
		<edge from-layer="1940" from-port="1" to-layer="1943" to-port="0"/>
		<edge from-layer="1941" from-port="1" to-layer="1943" to-port="1"/>
		<edge from-layer="1942" from-port="1" to-layer="1943" to-port="2"/>
		<edge from-layer="1943" from-port="3" to-layer="1945" to-port="0"/>
		<edge from-layer="1944" from-port="1" to-layer="1945" to-port="1"/>
		<edge from-layer="1813" from-port="2" to-layer="1946" to-port="0"/>
		<edge from-layer="1946" from-port="1" to-layer="1949" to-port="0"/>
		<edge from-layer="1947" from-port="1" to-layer="1949" to-port="1"/>
		<edge from-layer="1948" from-port="1" to-layer="1949" to-port="2"/>
		<edge from-layer="1949" from-port="3" to-layer="1951" to-port="0"/>
		<edge from-layer="1950" from-port="1" to-layer="1951" to-port="1"/>
		<edge from-layer="1945" from-port="2" to-layer="1952" to-port="0"/>
		<edge from-layer="1951" from-port="2" to-layer="1952" to-port="1"/>
		<edge from-layer="1939" from-port="4" to-layer="1953" to-port="0"/>
		<edge from-layer="1952" from-port="2" to-layer="1953" to-port="1"/>
		<edge from-layer="1953" from-port="2" to-layer="1957" to-port="0"/>
		<edge from-layer="1954" from-port="1" to-layer="1957" to-port="1"/>
		<edge from-layer="1955" from-port="1" to-layer="1957" to-port="2"/>
		<edge from-layer="1956" from-port="1" to-layer="1957" to-port="3"/>
		<edge from-layer="1953" from-port="2" to-layer="1958" to-port="0"/>
		<edge from-layer="1934" from-port="2" to-layer="1959" to-port="0"/>
		<edge from-layer="1959" from-port="1" to-layer="1960" to-port="0"/>
		<edge from-layer="1958" from-port="1" to-layer="1961" to-port="0"/>
		<edge from-layer="1960" from-port="1" to-layer="1961" to-port="1"/>
		<edge from-layer="1961" from-port="2" to-layer="1963" to-port="0"/>
		<edge from-layer="1962" from-port="1" to-layer="1963" to-port="1"/>
		<edge from-layer="1963" from-port="2" to-layer="1967" to-port="0"/>
		<edge from-layer="1964" from-port="1" to-layer="1967" to-port="1"/>
		<edge from-layer="1965" from-port="1" to-layer="1967" to-port="2"/>
		<edge from-layer="1966" from-port="1" to-layer="1967" to-port="3"/>
		<edge from-layer="1934" from-port="2" to-layer="1969" to-port="0"/>
		<edge from-layer="1957" from-port="4" to-layer="1969" to-port="1"/>
		<edge from-layer="1967" from-port="4" to-layer="1969" to-port="2"/>
		<edge from-layer="1968" from-port="1" to-layer="1969" to-port="3"/>
		<edge from-layer="839" from-port="2" to-layer="1971" to-port="0"/>
		<edge from-layer="1970" from-port="1" to-layer="1971" to-port="1"/>
		<edge from-layer="1971" from-port="2" to-layer="1973" to-port="0"/>
		<edge from-layer="1972" from-port="1" to-layer="1973" to-port="1"/>
		<edge from-layer="1973" from-port="2" to-layer="1974" to-port="0"/>
		<edge from-layer="1974" from-port="1" to-layer="1978" to-port="0"/>
		<edge from-layer="1975" from-port="1" to-layer="1978" to-port="1"/>
		<edge from-layer="1976" from-port="1" to-layer="1978" to-port="2"/>
		<edge from-layer="1977" from-port="1" to-layer="1978" to-port="3"/>
		<edge from-layer="1813" from-port="2" to-layer="1979" to-port="0"/>
		<edge from-layer="1979" from-port="1" to-layer="1982" to-port="0"/>
		<edge from-layer="1980" from-port="1" to-layer="1982" to-port="1"/>
		<edge from-layer="1981" from-port="1" to-layer="1982" to-port="2"/>
		<edge from-layer="1982" from-port="3" to-layer="1984" to-port="0"/>
		<edge from-layer="1983" from-port="1" to-layer="1984" to-port="1"/>
		<edge from-layer="1813" from-port="2" to-layer="1985" to-port="0"/>
		<edge from-layer="1985" from-port="1" to-layer="1988" to-port="0"/>
		<edge from-layer="1986" from-port="1" to-layer="1988" to-port="1"/>
		<edge from-layer="1987" from-port="1" to-layer="1988" to-port="2"/>
		<edge from-layer="1988" from-port="3" to-layer="1990" to-port="0"/>
		<edge from-layer="1989" from-port="1" to-layer="1990" to-port="1"/>
		<edge from-layer="1984" from-port="2" to-layer="1991" to-port="0"/>
		<edge from-layer="1990" from-port="2" to-layer="1991" to-port="1"/>
		<edge from-layer="1978" from-port="4" to-layer="1992" to-port="0"/>
		<edge from-layer="1991" from-port="2" to-layer="1992" to-port="1"/>
		<edge from-layer="1992" from-port="2" to-layer="1996" to-port="0"/>
		<edge from-layer="1993" from-port="1" to-layer="1996" to-port="1"/>
		<edge from-layer="1994" from-port="1" to-layer="1996" to-port="2"/>
		<edge from-layer="1995" from-port="1" to-layer="1996" to-port="3"/>
		<edge from-layer="1992" from-port="2" to-layer="1997" to-port="0"/>
		<edge from-layer="1973" from-port="2" to-layer="1998" to-port="0"/>
		<edge from-layer="1998" from-port="1" to-layer="1999" to-port="0"/>
		<edge from-layer="1997" from-port="1" to-layer="2000" to-port="0"/>
		<edge from-layer="1999" from-port="1" to-layer="2000" to-port="1"/>
		<edge from-layer="2000" from-port="2" to-layer="2002" to-port="0"/>
		<edge from-layer="2001" from-port="1" to-layer="2002" to-port="1"/>
		<edge from-layer="2002" from-port="2" to-layer="2006" to-port="0"/>
		<edge from-layer="2003" from-port="1" to-layer="2006" to-port="1"/>
		<edge from-layer="2004" from-port="1" to-layer="2006" to-port="2"/>
		<edge from-layer="2005" from-port="1" to-layer="2006" to-port="3"/>
		<edge from-layer="1973" from-port="2" to-layer="2008" to-port="0"/>
		<edge from-layer="1996" from-port="4" to-layer="2008" to-port="1"/>
		<edge from-layer="2006" from-port="4" to-layer="2008" to-port="2"/>
		<edge from-layer="2007" from-port="1" to-layer="2008" to-port="3"/>
		<edge from-layer="1813" from-port="2" to-layer="2009" to-port="0"/>
		<edge from-layer="1852" from-port="4" to-layer="2009" to-port="1"/>
		<edge from-layer="1891" from-port="4" to-layer="2009" to-port="2"/>
		<edge from-layer="1930" from-port="4" to-layer="2009" to-port="3"/>
		<edge from-layer="1969" from-port="4" to-layer="2009" to-port="4"/>
		<edge from-layer="2008" from-port="4" to-layer="2009" to-port="5"/>
		<edge from-layer="2009" from-port="6" to-layer="2011" to-port="0"/>
		<edge from-layer="2010" from-port="1" to-layer="2011" to-port="1"/>
		<edge from-layer="2011" from-port="2" to-layer="2013" to-port="0"/>
		<edge from-layer="2012" from-port="1" to-layer="2013" to-port="1"/>
		<edge from-layer="2013" from-port="2" to-layer="2014" to-port="0"/>
		<edge from-layer="2014" from-port="1" to-layer="2015" to-port="0"/>
		<edge from-layer="1813" from-port="2" to-layer="2016" to-port="0"/>
		<edge from-layer="2016" from-port="1" to-layer="2017" to-port="0"/>
		<edge from-layer="1852" from-port="4" to-layer="2018" to-port="0"/>
		<edge from-layer="2018" from-port="1" to-layer="2019" to-port="0"/>
		<edge from-layer="1891" from-port="4" to-layer="2020" to-port="0"/>
		<edge from-layer="2020" from-port="1" to-layer="2021" to-port="0"/>
		<edge from-layer="1930" from-port="4" to-layer="2022" to-port="0"/>
		<edge from-layer="2022" from-port="1" to-layer="2023" to-port="0"/>
		<edge from-layer="1969" from-port="4" to-layer="2024" to-port="0"/>
		<edge from-layer="2024" from-port="1" to-layer="2025" to-port="0"/>
		<edge from-layer="2008" from-port="4" to-layer="2026" to-port="0"/>
		<edge from-layer="2026" from-port="1" to-layer="2027" to-port="0"/>
	</edges>
	<meta_data>
		<MO_version value="2021.2.0-1877-176bdf51370-releases/2021/2"/>
		<cli_parameters>
			<caffe_parser_path value="DIR"/>
			<data_type value="float"/>
			<disable_nhwc_to_nchw value="False"/>
			<disable_omitting_optional value="False"/>
			<disable_resnet_optimization value="False"/>
			<disable_weights_compression value="False"/>
			<enable_concat_optimization value="False"/>
			<enable_flattening_nested_params value="False"/>
			<enable_ssd_gluoncv value="False"/>
			<extensions value="DIR"/>
			<framework value="onnx"/>
			<freeze_placeholder_with_value value="{}"/>
			<generate_deprecated_IR_V7 value="False"/>
			<input_model value="DIR\u2P.onnx"/>
			<input_model_is_text value="False"/>
			<input_shape value="[1,3,320,320]"/>
			<k value="DIR\CustomLayersMapping.xml"/>
			<keep_shape_ops value="True"/>
			<legacy_mxnet_model value="False"/>
			<log_level value="ERROR"/>
			<mean_scale_values value="{}"/>
			<mean_values value="()"/>
			<model_name value="u2P"/>
			<output_dir value="DIR"/>
			<placeholder_data_types value="{}"/>
			<placeholder_shapes value="[  1   3 320 320]"/>
			<progress value="False"/>
			<remove_memory value="False"/>
			<remove_output_softmax value="False"/>
			<reverse_input_channels value="False"/>
			<save_params_from_nd value="False"/>
			<scale_values value="()"/>
			<silent value="False"/>
			<static_shape value="False"/>
			<stream_output value="False"/>
			<unset unset_cli_parameters="batch, counts, disable_fusing, disable_gfusing, finegrain_fusing, input, input_checkpoint, input_meta_graph, input_proto, input_symbol, mean_file, mean_file_offsets, move_to_preprocess, nd_prefix_name, output, pretrained_model_name, saved_model_dir, saved_model_tags, scale, tensorboard_logdir, tensorflow_custom_layer_libraries, tensorflow_custom_operations_config_update, tensorflow_object_detection_api_pipeline_config, tensorflow_use_custom_operations_config, transformations_config"/>
		</cli_parameters>
	</meta_data>
</net>
